INFO: Number of parameters: 177348
INFO: QNetwork(
  (conv_feature): Sequential(
    (0): Conv2d(1, 64, kernel_size=(3, 3), stride=(1, 1))
    (1): ReLU()
    (2): BatchNorm2d(64, eps=1e-05, momentum=0.1, affine=True, track_running_stats=True)
    (3): Conv2d(64, 32, kernel_size=(3, 3), stride=(1, 1))
    (4): ReLU()
    (5): BatchNorm2d(32, eps=1e-05, momentum=0.1, affine=True, track_running_stats=True)
  )
  (fc_feature): Sequential(
    (0): Linear(in_features=1152, out_features=128, bias=True)
    (1): ReLU()
    (2): Linear(in_features=128, out_features=64, bias=True)
    (3): ReLU()
    (4): Linear(in_features=64, out_features=32, bias=True)
    (5): ReLU()
    (6): Linear(in_features=32, out_features=4, bias=True)
  )
)
INFO: Learning...
ERROR: can only concatenate tuple (not "float") to tuple
INFO: Number of parameters: 177348
INFO: QNetwork(
  (conv_feature): Sequential(
    (0): Conv2d(1, 64, kernel_size=(3, 3), stride=(1, 1))
    (1): ReLU()
    (2): BatchNorm2d(64, eps=1e-05, momentum=0.1, affine=True, track_running_stats=True)
    (3): Conv2d(64, 32, kernel_size=(3, 3), stride=(1, 1))
    (4): ReLU()
    (5): BatchNorm2d(32, eps=1e-05, momentum=0.1, affine=True, track_running_stats=True)
  )
  (fc_feature): Sequential(
    (0): Linear(in_features=1152, out_features=128, bias=True)
    (1): ReLU()
    (2): Linear(in_features=128, out_features=64, bias=True)
    (3): ReLU()
    (4): Linear(in_features=64, out_features=32, bias=True)
    (5): ReLU()
    (6): Linear(in_features=32, out_features=4, bias=True)
  )
)
INFO: Learning...
INFO: Number of parameters: 177348
INFO: QNetwork(
  (conv_feature): Sequential(
    (0): Conv2d(1, 64, kernel_size=(3, 3), stride=(1, 1))
    (1): ReLU()
    (2): BatchNorm2d(64, eps=1e-05, momentum=0.1, affine=True, track_running_stats=True)
    (3): Conv2d(64, 32, kernel_size=(3, 3), stride=(1, 1))
    (4): ReLU()
    (5): BatchNorm2d(32, eps=1e-05, momentum=0.1, affine=True, track_running_stats=True)
  )
  (fc_feature): Sequential(
    (0): Linear(in_features=1152, out_features=128, bias=True)
    (1): ReLU()
    (2): Linear(in_features=128, out_features=64, bias=True)
    (3): ReLU()
    (4): Linear(in_features=64, out_features=32, bias=True)
    (5): ReLU()
    (6): Linear(in_features=32, out_features=4, bias=True)
  )
)
INFO: Learning...
INFO: Number of parameters: 177348
INFO: QNetwork(
  (conv_feature): Sequential(
    (0): Conv2d(1, 64, kernel_size=(3, 3), stride=(1, 1))
    (1): ReLU()
    (2): BatchNorm2d(64, eps=1e-05, momentum=0.1, affine=True, track_running_stats=True)
    (3): Conv2d(64, 32, kernel_size=(3, 3), stride=(1, 1))
    (4): ReLU()
    (5): BatchNorm2d(32, eps=1e-05, momentum=0.1, affine=True, track_running_stats=True)
  )
  (fc_feature): Sequential(
    (0): Linear(in_features=1152, out_features=128, bias=True)
    (1): ReLU()
    (2): Linear(in_features=128, out_features=64, bias=True)
    (3): ReLU()
    (4): Linear(in_features=64, out_features=32, bias=True)
    (5): ReLU()
    (6): Linear(in_features=32, out_features=4, bias=True)
  )
)
INFO: Learning...
INFO: Number of parameters: 177348
INFO: QNetwork(
  (conv_feature): Sequential(
    (0): Conv2d(1, 64, kernel_size=(3, 3), stride=(1, 1))
    (1): ReLU()
    (2): BatchNorm2d(64, eps=1e-05, momentum=0.1, affine=True, track_running_stats=True)
    (3): Conv2d(64, 32, kernel_size=(3, 3), stride=(1, 1))
    (4): ReLU()
    (5): BatchNorm2d(32, eps=1e-05, momentum=0.1, affine=True, track_running_stats=True)
  )
  (fc_feature): Sequential(
    (0): Linear(in_features=1152, out_features=128, bias=True)
    (1): ReLU()
    (2): Linear(in_features=128, out_features=64, bias=True)
    (3): ReLU()
    (4): Linear(in_features=64, out_features=32, bias=True)
    (5): ReLU()
    (6): Linear(in_features=32, out_features=4, bias=True)
  )
)
INFO: Learning...
INFO: Number of parameters: 177348
INFO: QNetwork(
  (conv_feature): Sequential(
    (0): Conv2d(1, 64, kernel_size=(3, 3), stride=(1, 1))
    (1): ReLU()
    (2): BatchNorm2d(64, eps=1e-05, momentum=0.1, affine=True, track_running_stats=True)
    (3): Conv2d(64, 32, kernel_size=(3, 3), stride=(1, 1))
    (4): ReLU()
    (5): BatchNorm2d(32, eps=1e-05, momentum=0.1, affine=True, track_running_stats=True)
  )
  (fc_feature): Sequential(
    (0): Linear(in_features=1152, out_features=128, bias=True)
    (1): ReLU()
    (2): Linear(in_features=128, out_features=64, bias=True)
    (3): ReLU()
    (4): Linear(in_features=64, out_features=32, bias=True)
    (5): ReLU()
    (6): Linear(in_features=32, out_features=4, bias=True)
  )
)
INFO: Learning...
INFO: Number of parameters: 177348
INFO: QNetwork(
  (conv_feature): Sequential(
    (0): Conv2d(1, 64, kernel_size=(3, 3), stride=(1, 1))
    (1): ReLU()
    (2): BatchNorm2d(64, eps=1e-05, momentum=0.1, affine=True, track_running_stats=True)
    (3): Conv2d(64, 32, kernel_size=(3, 3), stride=(1, 1))
    (4): ReLU()
    (5): BatchNorm2d(32, eps=1e-05, momentum=0.1, affine=True, track_running_stats=True)
  )
  (fc_feature): Sequential(
    (0): Linear(in_features=1152, out_features=128, bias=True)
    (1): ReLU()
    (2): Linear(in_features=128, out_features=64, bias=True)
    (3): ReLU()
    (4): Linear(in_features=64, out_features=32, bias=True)
    (5): ReLU()
    (6): Linear(in_features=32, out_features=4, bias=True)
  )
)
INFO: Learning...
INFO: Number of parameters: 177348
INFO: QNetwork(
  (conv_feature): Sequential(
    (0): Conv2d(1, 64, kernel_size=(3, 3), stride=(1, 1))
    (1): ReLU()
    (2): BatchNorm2d(64, eps=1e-05, momentum=0.1, affine=True, track_running_stats=True)
    (3): Conv2d(64, 32, kernel_size=(3, 3), stride=(1, 1))
    (4): ReLU()
    (5): BatchNorm2d(32, eps=1e-05, momentum=0.1, affine=True, track_running_stats=True)
  )
  (fc_feature): Sequential(
    (0): Linear(in_features=1152, out_features=128, bias=True)
    (1): ReLU()
    (2): Linear(in_features=128, out_features=64, bias=True)
    (3): ReLU()
    (4): Linear(in_features=64, out_features=32, bias=True)
    (5): ReLU()
    (6): Linear(in_features=32, out_features=4, bias=True)
  )
)
INFO: Learning...
INFO: Number of parameters: 177348
INFO: QNetwork(
  (conv_feature): Sequential(
    (0): Conv2d(1, 64, kernel_size=(3, 3), stride=(1, 1))
    (1): ReLU()
    (2): BatchNorm2d(64, eps=1e-05, momentum=0.1, affine=True, track_running_stats=True)
    (3): Conv2d(64, 32, kernel_size=(3, 3), stride=(1, 1))
    (4): ReLU()
    (5): BatchNorm2d(32, eps=1e-05, momentum=0.1, affine=True, track_running_stats=True)
  )
  (fc_feature): Sequential(
    (0): Linear(in_features=1152, out_features=128, bias=True)
    (1): ReLU()
    (2): Linear(in_features=128, out_features=64, bias=True)
    (3): ReLU()
    (4): Linear(in_features=64, out_features=32, bias=True)
    (5): ReLU()
    (6): Linear(in_features=32, out_features=4, bias=True)
  )
)
INFO: Learning...
INFO: Number of parameters: 177348
INFO: QNetwork(
  (conv_feature): Sequential(
    (0): Conv2d(1, 64, kernel_size=(3, 3), stride=(1, 1))
    (1): ReLU()
    (2): BatchNorm2d(64, eps=1e-05, momentum=0.1, affine=True, track_running_stats=True)
    (3): Conv2d(64, 32, kernel_size=(3, 3), stride=(1, 1))
    (4): ReLU()
    (5): BatchNorm2d(32, eps=1e-05, momentum=0.1, affine=True, track_running_stats=True)
  )
  (fc_feature): Sequential(
    (0): Linear(in_features=1152, out_features=128, bias=True)
    (1): ReLU()
    (2): Linear(in_features=128, out_features=64, bias=True)
    (3): ReLU()
    (4): Linear(in_features=64, out_features=32, bias=True)
    (5): ReLU()
    (6): Linear(in_features=32, out_features=4, bias=True)
  )
)
INFO: Learning...
INFO: Number of parameters: 177348
INFO: QNetwork(
  (conv_feature): Sequential(
    (0): Conv2d(1, 64, kernel_size=(3, 3), stride=(1, 1))
    (1): ReLU()
    (2): BatchNorm2d(64, eps=1e-05, momentum=0.1, affine=True, track_running_stats=True)
    (3): Conv2d(64, 32, kernel_size=(3, 3), stride=(1, 1))
    (4): ReLU()
    (5): BatchNorm2d(32, eps=1e-05, momentum=0.1, affine=True, track_running_stats=True)
  )
  (fc_feature): Sequential(
    (0): Linear(in_features=1152, out_features=128, bias=True)
    (1): ReLU()
    (2): Linear(in_features=128, out_features=64, bias=True)
    (3): ReLU()
    (4): Linear(in_features=64, out_features=32, bias=True)
    (5): ReLU()
    (6): Linear(in_features=32, out_features=4, bias=True)
  )
)
INFO: Learning...
INFO: Number of parameters: 177348
INFO: QNetwork(
  (conv_feature): Sequential(
    (0): Conv2d(1, 64, kernel_size=(3, 3), stride=(1, 1))
    (1): ReLU()
    (2): BatchNorm2d(64, eps=1e-05, momentum=0.1, affine=True, track_running_stats=True)
    (3): Conv2d(64, 32, kernel_size=(3, 3), stride=(1, 1))
    (4): ReLU()
    (5): BatchNorm2d(32, eps=1e-05, momentum=0.1, affine=True, track_running_stats=True)
  )
  (fc_feature): Sequential(
    (0): Linear(in_features=1152, out_features=128, bias=True)
    (1): ReLU()
    (2): Linear(in_features=128, out_features=64, bias=True)
    (3): ReLU()
    (4): Linear(in_features=64, out_features=32, bias=True)
    (5): ReLU()
    (6): Linear(in_features=32, out_features=4, bias=True)
  )
)
INFO: Learning...
INFO: Number of parameters: 177348
INFO: QNetwork(
  (conv_feature): Sequential(
    (0): Conv2d(1, 64, kernel_size=(3, 3), stride=(1, 1))
    (1): ReLU()
    (2): BatchNorm2d(64, eps=1e-05, momentum=0.1, affine=True, track_running_stats=True)
    (3): Conv2d(64, 32, kernel_size=(3, 3), stride=(1, 1))
    (4): ReLU()
    (5): BatchNorm2d(32, eps=1e-05, momentum=0.1, affine=True, track_running_stats=True)
  )
  (fc_feature): Sequential(
    (0): Linear(in_features=1152, out_features=128, bias=True)
    (1): ReLU()
    (2): Linear(in_features=128, out_features=64, bias=True)
    (3): ReLU()
    (4): Linear(in_features=64, out_features=32, bias=True)
    (5): ReLU()
    (6): Linear(in_features=32, out_features=4, bias=True)
  )
)
INFO: Learning...
INFO: Number of parameters: 177348
INFO: QNetwork(
  (conv_feature): Sequential(
    (0): Conv2d(1, 64, kernel_size=(3, 3), stride=(1, 1))
    (1): ReLU()
    (2): BatchNorm2d(64, eps=1e-05, momentum=0.1, affine=True, track_running_stats=True)
    (3): Conv2d(64, 32, kernel_size=(3, 3), stride=(1, 1))
    (4): ReLU()
    (5): BatchNorm2d(32, eps=1e-05, momentum=0.1, affine=True, track_running_stats=True)
  )
  (fc_feature): Sequential(
    (0): Linear(in_features=1152, out_features=128, bias=True)
    (1): ReLU()
    (2): Linear(in_features=128, out_features=64, bias=True)
    (3): ReLU()
    (4): Linear(in_features=64, out_features=32, bias=True)
    (5): ReLU()
    (6): Linear(in_features=32, out_features=4, bias=True)
  )
)
INFO: Learning...
INFO: Number of parameters: 177348
INFO: QNetwork(
  (conv_feature): Sequential(
    (0): Conv2d(1, 64, kernel_size=(3, 3), stride=(1, 1))
    (1): ReLU()
    (2): BatchNorm2d(64, eps=1e-05, momentum=0.1, affine=True, track_running_stats=True)
    (3): Conv2d(64, 32, kernel_size=(3, 3), stride=(1, 1))
    (4): ReLU()
    (5): BatchNorm2d(32, eps=1e-05, momentum=0.1, affine=True, track_running_stats=True)
  )
  (fc_feature): Sequential(
    (0): Linear(in_features=1152, out_features=128, bias=True)
    (1): ReLU()
    (2): Linear(in_features=128, out_features=64, bias=True)
    (3): ReLU()
    (4): Linear(in_features=64, out_features=32, bias=True)
    (5): ReLU()
    (6): Linear(in_features=32, out_features=4, bias=True)
  )
)
INFO: Learning...
