INFO: Number of parameters: 177348
INFO: QNetwork(
  (conv_feature): Sequential(
    (0): Conv2d(1, 64, kernel_size=(3, 3), stride=(1, 1))
    (1): ReLU()
    (2): BatchNorm2d(64, eps=1e-05, momentum=0.1, affine=True, track_running_stats=True)
    (3): Conv2d(64, 32, kernel_size=(3, 3), stride=(1, 1))
    (4): ReLU()
    (5): BatchNorm2d(32, eps=1e-05, momentum=0.1, affine=True, track_running_stats=True)
  )
  (fc_feature): Sequential(
    (0): Linear(in_features=1152, out_features=128, bias=True)
    (1): ReLU()
    (2): Linear(in_features=128, out_features=64, bias=True)
    (3): ReLU()
    (4): Linear(in_features=64, out_features=32, bias=True)
    (5): ReLU()
    (6): Linear(in_features=32, out_features=4, bias=True)
  )
)
INFO: Learning...
ERROR: can only concatenate tuple (not "float") to tuple
INFO: Number of parameters: 177348
INFO: QNetwork(
  (conv_feature): Sequential(
    (0): Conv2d(1, 64, kernel_size=(3, 3), stride=(1, 1))
    (1): ReLU()
    (2): BatchNorm2d(64, eps=1e-05, momentum=0.1, affine=True, track_running_stats=True)
    (3): Conv2d(64, 32, kernel_size=(3, 3), stride=(1, 1))
    (4): ReLU()
    (5): BatchNorm2d(32, eps=1e-05, momentum=0.1, affine=True, track_running_stats=True)
  )
  (fc_feature): Sequential(
    (0): Linear(in_features=1152, out_features=128, bias=True)
    (1): ReLU()
    (2): Linear(in_features=128, out_features=64, bias=True)
    (3): ReLU()
    (4): Linear(in_features=64, out_features=32, bias=True)
    (5): ReLU()
    (6): Linear(in_features=32, out_features=4, bias=True)
  )
)
INFO: Learning...
INFO: Number of parameters: 177348
INFO: QNetwork(
  (conv_feature): Sequential(
    (0): Conv2d(1, 64, kernel_size=(3, 3), stride=(1, 1))
    (1): ReLU()
    (2): BatchNorm2d(64, eps=1e-05, momentum=0.1, affine=True, track_running_stats=True)
    (3): Conv2d(64, 32, kernel_size=(3, 3), stride=(1, 1))
    (4): ReLU()
    (5): BatchNorm2d(32, eps=1e-05, momentum=0.1, affine=True, track_running_stats=True)
  )
  (fc_feature): Sequential(
    (0): Linear(in_features=1152, out_features=128, bias=True)
    (1): ReLU()
    (2): Linear(in_features=128, out_features=64, bias=True)
    (3): ReLU()
    (4): Linear(in_features=64, out_features=32, bias=True)
    (5): ReLU()
    (6): Linear(in_features=32, out_features=4, bias=True)
  )
)
INFO: Learning...
INFO: Number of parameters: 177348
INFO: QNetwork(
  (conv_feature): Sequential(
    (0): Conv2d(1, 64, kernel_size=(3, 3), stride=(1, 1))
    (1): ReLU()
    (2): BatchNorm2d(64, eps=1e-05, momentum=0.1, affine=True, track_running_stats=True)
    (3): Conv2d(64, 32, kernel_size=(3, 3), stride=(1, 1))
    (4): ReLU()
    (5): BatchNorm2d(32, eps=1e-05, momentum=0.1, affine=True, track_running_stats=True)
  )
  (fc_feature): Sequential(
    (0): Linear(in_features=1152, out_features=128, bias=True)
    (1): ReLU()
    (2): Linear(in_features=128, out_features=64, bias=True)
    (3): ReLU()
    (4): Linear(in_features=64, out_features=32, bias=True)
    (5): ReLU()
    (6): Linear(in_features=32, out_features=4, bias=True)
  )
)
INFO: Learning...
INFO: Number of parameters: 177348
INFO: QNetwork(
  (conv_feature): Sequential(
    (0): Conv2d(1, 64, kernel_size=(3, 3), stride=(1, 1))
    (1): ReLU()
    (2): BatchNorm2d(64, eps=1e-05, momentum=0.1, affine=True, track_running_stats=True)
    (3): Conv2d(64, 32, kernel_size=(3, 3), stride=(1, 1))
    (4): ReLU()
    (5): BatchNorm2d(32, eps=1e-05, momentum=0.1, affine=True, track_running_stats=True)
  )
  (fc_feature): Sequential(
    (0): Linear(in_features=1152, out_features=128, bias=True)
    (1): ReLU()
    (2): Linear(in_features=128, out_features=64, bias=True)
    (3): ReLU()
    (4): Linear(in_features=64, out_features=32, bias=True)
    (5): ReLU()
    (6): Linear(in_features=32, out_features=4, bias=True)
  )
)
INFO: Learning...
INFO: Number of parameters: 177348
INFO: QNetwork(
  (conv_feature): Sequential(
    (0): Conv2d(1, 64, kernel_size=(3, 3), stride=(1, 1))
    (1): ReLU()
    (2): BatchNorm2d(64, eps=1e-05, momentum=0.1, affine=True, track_running_stats=True)
    (3): Conv2d(64, 32, kernel_size=(3, 3), stride=(1, 1))
    (4): ReLU()
    (5): BatchNorm2d(32, eps=1e-05, momentum=0.1, affine=True, track_running_stats=True)
  )
  (fc_feature): Sequential(
    (0): Linear(in_features=1152, out_features=128, bias=True)
    (1): ReLU()
    (2): Linear(in_features=128, out_features=64, bias=True)
    (3): ReLU()
    (4): Linear(in_features=64, out_features=32, bias=True)
    (5): ReLU()
    (6): Linear(in_features=32, out_features=4, bias=True)
  )
)
INFO: Learning...
INFO: Number of parameters: 177348
INFO: QNetwork(
  (conv_feature): Sequential(
    (0): Conv2d(1, 64, kernel_size=(3, 3), stride=(1, 1))
    (1): ReLU()
    (2): BatchNorm2d(64, eps=1e-05, momentum=0.1, affine=True, track_running_stats=True)
    (3): Conv2d(64, 32, kernel_size=(3, 3), stride=(1, 1))
    (4): ReLU()
    (5): BatchNorm2d(32, eps=1e-05, momentum=0.1, affine=True, track_running_stats=True)
  )
  (fc_feature): Sequential(
    (0): Linear(in_features=1152, out_features=128, bias=True)
    (1): ReLU()
    (2): Linear(in_features=128, out_features=64, bias=True)
    (3): ReLU()
    (4): Linear(in_features=64, out_features=32, bias=True)
    (5): ReLU()
    (6): Linear(in_features=32, out_features=4, bias=True)
  )
)
INFO: Learning...
INFO: Number of parameters: 177348
INFO: QNetwork(
  (conv_feature): Sequential(
    (0): Conv2d(1, 64, kernel_size=(3, 3), stride=(1, 1))
    (1): ReLU()
    (2): BatchNorm2d(64, eps=1e-05, momentum=0.1, affine=True, track_running_stats=True)
    (3): Conv2d(64, 32, kernel_size=(3, 3), stride=(1, 1))
    (4): ReLU()
    (5): BatchNorm2d(32, eps=1e-05, momentum=0.1, affine=True, track_running_stats=True)
  )
  (fc_feature): Sequential(
    (0): Linear(in_features=1152, out_features=128, bias=True)
    (1): ReLU()
    (2): Linear(in_features=128, out_features=64, bias=True)
    (3): ReLU()
    (4): Linear(in_features=64, out_features=32, bias=True)
    (5): ReLU()
    (6): Linear(in_features=32, out_features=4, bias=True)
  )
)
INFO: Learning...
INFO: Number of parameters: 177348
INFO: QNetwork(
  (conv_feature): Sequential(
    (0): Conv2d(1, 64, kernel_size=(3, 3), stride=(1, 1))
    (1): ReLU()
    (2): BatchNorm2d(64, eps=1e-05, momentum=0.1, affine=True, track_running_stats=True)
    (3): Conv2d(64, 32, kernel_size=(3, 3), stride=(1, 1))
    (4): ReLU()
    (5): BatchNorm2d(32, eps=1e-05, momentum=0.1, affine=True, track_running_stats=True)
  )
  (fc_feature): Sequential(
    (0): Linear(in_features=1152, out_features=128, bias=True)
    (1): ReLU()
    (2): Linear(in_features=128, out_features=64, bias=True)
    (3): ReLU()
    (4): Linear(in_features=64, out_features=32, bias=True)
    (5): ReLU()
    (6): Linear(in_features=32, out_features=4, bias=True)
  )
)
INFO: Learning...
INFO: Number of parameters: 177348
INFO: QNetwork(
  (conv_feature): Sequential(
    (0): Conv2d(1, 64, kernel_size=(3, 3), stride=(1, 1))
    (1): ReLU()
    (2): BatchNorm2d(64, eps=1e-05, momentum=0.1, affine=True, track_running_stats=True)
    (3): Conv2d(64, 32, kernel_size=(3, 3), stride=(1, 1))
    (4): ReLU()
    (5): BatchNorm2d(32, eps=1e-05, momentum=0.1, affine=True, track_running_stats=True)
  )
  (fc_feature): Sequential(
    (0): Linear(in_features=1152, out_features=128, bias=True)
    (1): ReLU()
    (2): Linear(in_features=128, out_features=64, bias=True)
    (3): ReLU()
    (4): Linear(in_features=64, out_features=32, bias=True)
    (5): ReLU()
    (6): Linear(in_features=32, out_features=4, bias=True)
  )
)
INFO: Learning...
INFO: Number of parameters: 177348
INFO: QNetwork(
  (conv_feature): Sequential(
    (0): Conv2d(1, 64, kernel_size=(3, 3), stride=(1, 1))
    (1): ReLU()
    (2): BatchNorm2d(64, eps=1e-05, momentum=0.1, affine=True, track_running_stats=True)
    (3): Conv2d(64, 32, kernel_size=(3, 3), stride=(1, 1))
    (4): ReLU()
    (5): BatchNorm2d(32, eps=1e-05, momentum=0.1, affine=True, track_running_stats=True)
  )
  (fc_feature): Sequential(
    (0): Linear(in_features=1152, out_features=128, bias=True)
    (1): ReLU()
    (2): Linear(in_features=128, out_features=64, bias=True)
    (3): ReLU()
    (4): Linear(in_features=64, out_features=32, bias=True)
    (5): ReLU()
    (6): Linear(in_features=32, out_features=4, bias=True)
  )
)
INFO: Learning...
INFO: Number of parameters: 177348
INFO: QNetwork(
  (conv_feature): Sequential(
    (0): Conv2d(1, 64, kernel_size=(3, 3), stride=(1, 1))
    (1): ReLU()
    (2): BatchNorm2d(64, eps=1e-05, momentum=0.1, affine=True, track_running_stats=True)
    (3): Conv2d(64, 32, kernel_size=(3, 3), stride=(1, 1))
    (4): ReLU()
    (5): BatchNorm2d(32, eps=1e-05, momentum=0.1, affine=True, track_running_stats=True)
  )
  (fc_feature): Sequential(
    (0): Linear(in_features=1152, out_features=128, bias=True)
    (1): ReLU()
    (2): Linear(in_features=128, out_features=64, bias=True)
    (3): ReLU()
    (4): Linear(in_features=64, out_features=32, bias=True)
    (5): ReLU()
    (6): Linear(in_features=32, out_features=4, bias=True)
  )
)
INFO: Learning...
INFO: Number of parameters: 177348
INFO: QNetwork(
  (conv_feature): Sequential(
    (0): Conv2d(1, 64, kernel_size=(3, 3), stride=(1, 1))
    (1): ReLU()
    (2): BatchNorm2d(64, eps=1e-05, momentum=0.1, affine=True, track_running_stats=True)
    (3): Conv2d(64, 32, kernel_size=(3, 3), stride=(1, 1))
    (4): ReLU()
    (5): BatchNorm2d(32, eps=1e-05, momentum=0.1, affine=True, track_running_stats=True)
  )
  (fc_feature): Sequential(
    (0): Linear(in_features=1152, out_features=128, bias=True)
    (1): ReLU()
    (2): Linear(in_features=128, out_features=64, bias=True)
    (3): ReLU()
    (4): Linear(in_features=64, out_features=32, bias=True)
    (5): ReLU()
    (6): Linear(in_features=32, out_features=4, bias=True)
  )
)
INFO: Learning...
INFO: Number of parameters: 177348
INFO: QNetwork(
  (conv_feature): Sequential(
    (0): Conv2d(1, 64, kernel_size=(3, 3), stride=(1, 1))
    (1): ReLU()
    (2): BatchNorm2d(64, eps=1e-05, momentum=0.1, affine=True, track_running_stats=True)
    (3): Conv2d(64, 32, kernel_size=(3, 3), stride=(1, 1))
    (4): ReLU()
    (5): BatchNorm2d(32, eps=1e-05, momentum=0.1, affine=True, track_running_stats=True)
  )
  (fc_feature): Sequential(
    (0): Linear(in_features=1152, out_features=128, bias=True)
    (1): ReLU()
    (2): Linear(in_features=128, out_features=64, bias=True)
    (3): ReLU()
    (4): Linear(in_features=64, out_features=32, bias=True)
    (5): ReLU()
    (6): Linear(in_features=32, out_features=4, bias=True)
  )
)
INFO: Learning...
INFO: Number of parameters: 177348
INFO: QNetwork(
  (conv_feature): Sequential(
    (0): Conv2d(1, 64, kernel_size=(3, 3), stride=(1, 1))
    (1): ReLU()
    (2): BatchNorm2d(64, eps=1e-05, momentum=0.1, affine=True, track_running_stats=True)
    (3): Conv2d(64, 32, kernel_size=(3, 3), stride=(1, 1))
    (4): ReLU()
    (5): BatchNorm2d(32, eps=1e-05, momentum=0.1, affine=True, track_running_stats=True)
  )
  (fc_feature): Sequential(
    (0): Linear(in_features=1152, out_features=128, bias=True)
    (1): ReLU()
    (2): Linear(in_features=128, out_features=64, bias=True)
    (3): ReLU()
    (4): Linear(in_features=64, out_features=32, bias=True)
    (5): ReLU()
    (6): Linear(in_features=32, out_features=4, bias=True)
  )
)
INFO: Learning...
INFO: Number of parameters: 66756
INFO: QNetwork(
  (conv_feature): Sequential(
    (0): Conv2d(1, 64, kernel_size=(3, 3), stride=(1, 1))
    (1): ReLU()
    (2): BatchNorm2d(64, eps=1e-05, momentum=0.1, affine=True, track_running_stats=True)
    (3): Conv2d(64, 32, kernel_size=(3, 3), stride=(1, 1))
    (4): ReLU()
    (5): BatchNorm2d(32, eps=1e-05, momentum=0.1, affine=True, track_running_stats=True)
  )
  (fc_feature): Sequential(
    (0): Linear(in_features=288, out_features=128, bias=True)
    (1): ReLU()
    (2): Linear(in_features=128, out_features=64, bias=True)
    (3): ReLU()
    (4): Linear(in_features=64, out_features=32, bias=True)
    (5): ReLU()
    (6): Linear(in_features=32, out_features=4, bias=True)
  )
)
WARNING: GIF is enabled but the environment does not support RGB array rendering.
INFO: Learning...
INFO: BootcampName.HIDER bootcamp completed, starting BootcampName.SEEKER bootcamp
ERROR: boolean index did not match indexed array along dimension 0; dimension is 10 but corresponding boolean dimension is 7
WARNING: Error: Could not find wandb directory: ./wandb
INFO: Number of parameters: 66756
INFO: QNetwork(
  (conv_feature): Sequential(
    (0): Conv2d(1, 64, kernel_size=(3, 3), stride=(1, 1))
    (1): ReLU()
    (2): BatchNorm2d(64, eps=1e-05, momentum=0.1, affine=True, track_running_stats=True)
    (3): Conv2d(64, 32, kernel_size=(3, 3), stride=(1, 1))
    (4): ReLU()
    (5): BatchNorm2d(32, eps=1e-05, momentum=0.1, affine=True, track_running_stats=True)
  )
  (fc_feature): Sequential(
    (0): Linear(in_features=288, out_features=128, bias=True)
    (1): ReLU()
    (2): Linear(in_features=128, out_features=64, bias=True)
    (3): ReLU()
    (4): Linear(in_features=64, out_features=32, bias=True)
    (5): ReLU()
    (6): Linear(in_features=32, out_features=4, bias=True)
  )
)
WARNING: GIF is enabled but the environment does not support RGB array rendering.
INFO: Learning...
INFO: BootcampName.HIDER bootcamp completed, starting BootcampName.SEEKER bootcamp
ERROR: boolean index did not match indexed array along dimension 0; dimension is 10 but corresponding boolean dimension is 7
WARNING: Error: Could not find wandb directory: ./wandb
INFO: Number of parameters: 66756
INFO: QNetwork(
  (conv_feature): Sequential(
    (0): Conv2d(1, 64, kernel_size=(3, 3), stride=(1, 1))
    (1): ReLU()
    (2): BatchNorm2d(64, eps=1e-05, momentum=0.1, affine=True, track_running_stats=True)
    (3): Conv2d(64, 32, kernel_size=(3, 3), stride=(1, 1))
    (4): ReLU()
    (5): BatchNorm2d(32, eps=1e-05, momentum=0.1, affine=True, track_running_stats=True)
  )
  (fc_feature): Sequential(
    (0): Linear(in_features=288, out_features=128, bias=True)
    (1): ReLU()
    (2): Linear(in_features=128, out_features=64, bias=True)
    (3): ReLU()
    (4): Linear(in_features=64, out_features=32, bias=True)
    (5): ReLU()
    (6): Linear(in_features=32, out_features=4, bias=True)
  )
)
WARNING: GIF is enabled but the environment does not support RGB array rendering.
INFO: Learning...
INFO: BootcampName.HIDER bootcamp completed, starting BootcampName.SEEKER bootcamp
ERROR: boolean index did not match indexed array along dimension 0; dimension is 10 but corresponding boolean dimension is 7
ERROR: Traceback (most recent call last):
  File "/home/eirik/Projects/XAI/rl/src/dqn/wrapper/multi_agent_dqn.py", line 74, in learn
…
  File "/home/eirik/Projects/XAI/environments/gymnasium/envs/tag/tag_renderer.py", line 64, in render
    self.apply_color_masks(color_matrix, state)
  File "/home/eirik/Projects/XAI/environments/gymnasium/envs/tag/tag_renderer.py", line 94, in apply_color_masks
    color_matrix[full_state == TileType.OBSTACLE.value] = Color.BLACK.value
    ~~~~~~~~~~~~^^^^^^^^^^^^^^^^^^^^^^^^^^^^^^^^^^^^^^^
IndexError: boolean index did not match indexed array along dimension 0; dimension is 10 but corresponding boolean dimension is 7

WARNING: Error: Could not find wandb directory: ./wandb
INFO: Number of parameters: 177348
INFO: QNetwork(
  (conv_feature): Sequential(
    (0): Conv2d(1, 64, kernel_size=(3, 3), stride=(1, 1))
    (1): ReLU()
    (2): BatchNorm2d(64, eps=1e-05, momentum=0.1, affine=True, track_running_stats=True)
    (3): Conv2d(64, 32, kernel_size=(3, 3), stride=(1, 1))
    (4): ReLU()
    (5): BatchNorm2d(32, eps=1e-05, momentum=0.1, affine=True, track_running_stats=True)
  )
  (fc_feature): Sequential(
    (0): Linear(in_features=1152, out_features=128, bias=True)
    (1): ReLU()
    (2): Linear(in_features=128, out_features=64, bias=True)
    (3): ReLU()
    (4): Linear(in_features=64, out_features=32, bias=True)
    (5): ReLU()
    (6): Linear(in_features=32, out_features=4, bias=True)
  )
)
WARNING: GIF is enabled but the environment does not support RGB array rendering.
INFO: Learning...
INFO: BootcampName.HIDER bootcamp completed, starting BootcampName.SEEKER bootcamp
WARNING: No frames in gif to save.
WARNING: No frames in gif to save.
WARNING: No frames in gif to save.
WARNING: No frames in gif to save.
WARNING: No frames in gif to save.
…
WARNING: No frames in gif to save.
WARNING: No frames in gif to save.
WARNING: No frames in gif to save.
WARNING: No frames in gif to save.
WARNING: No frames in gif to save.
WARNING: No frames in gif to save.
INFO: BootcampName.SEEKER bootcamp completed, starting BootcampName.SLOW_HIDER bootcamp
WARNING: No frames in gif to save.
WARNING: No frames in gif to save.
INFO: Cleaning cache: /home/eirik/.cache/wandb/artifacts/obj 0.00390625 MB
INFO: cleaning local: /home/eirik/.local/share/wandb/artifacts/staging 0.00390625 MB
INFO: Number of parameters: 177348
INFO: QNetwork(
  (conv_feature): Sequential(
    (0): Conv2d(1, 64, kernel_size=(3, 3), stride=(1, 1))
    (1): ReLU()
    (2): BatchNorm2d(64, eps=1e-05, momentum=0.1, affine=True, track_running_stats=True)
    (3): Conv2d(64, 32, kernel_size=(3, 3), stride=(1, 1))
    (4): ReLU()
    (5): BatchNorm2d(32, eps=1e-05, momentum=0.1, affine=True, track_running_stats=True)
  )
  (fc_feature): Sequential(
    (0): Linear(in_features=1152, out_features=128, bias=True)
    (1): ReLU()
    (2): Linear(in_features=128, out_features=64, bias=True)
    (3): ReLU()
    (4): Linear(in_features=64, out_features=32, bias=True)
    (5): ReLU()
    (6): Linear(in_features=32, out_features=4, bias=True)
  )
)
WARNING: GIF is enabled but the environment does not support RGB array rendering.
INFO: Learning...
INFO: BootcampName.HIDER bootcamp completed, starting BootcampName.SEEKER bootcamp
INFO: Number of parameters: 177348
INFO: QNetwork(
  (conv_feature): Sequential(
    (0): Conv2d(1, 64, kernel_size=(3, 3), stride=(1, 1))
    (1): ReLU()
    (2): BatchNorm2d(64, eps=1e-05, momentum=0.1, affine=True, track_running_stats=True)
    (3): Conv2d(64, 32, kernel_size=(3, 3), stride=(1, 1))
    (4): ReLU()
    (5): BatchNorm2d(32, eps=1e-05, momentum=0.1, affine=True, track_running_stats=True)
  )
  (fc_feature): Sequential(
    (0): Linear(in_features=1152, out_features=128, bias=True)
    (1): ReLU()
    (2): Linear(in_features=128, out_features=64, bias=True)
    (3): ReLU()
    (4): Linear(in_features=64, out_features=32, bias=True)
    (5): ReLU()
    (6): Linear(in_features=32, out_features=4, bias=True)
  )
)
WARNING: GIF is enabled but the environment does not support RGB array rendering.
INFO: Learning...
INFO: BootcampName.HIDER bootcamp completed, starting BootcampName.SEEKER bootcamp
INFO: Number of parameters: 177348
INFO: QNetwork(
  (conv_feature): Sequential(
    (0): Conv2d(1, 64, kernel_size=(3, 3), stride=(1, 1))
    (1): ReLU()
    (2): BatchNorm2d(64, eps=1e-05, momentum=0.1, affine=True, track_running_stats=True)
    (3): Conv2d(64, 32, kernel_size=(3, 3), stride=(1, 1))
    (4): ReLU()
    (5): BatchNorm2d(32, eps=1e-05, momentum=0.1, affine=True, track_running_stats=True)
  )
  (fc_feature): Sequential(
    (0): Linear(in_features=1152, out_features=128, bias=True)
    (1): ReLU()
    (2): Linear(in_features=128, out_features=64, bias=True)
    (3): ReLU()
    (4): Linear(in_features=64, out_features=32, bias=True)
    (5): ReLU()
    (6): Linear(in_features=32, out_features=4, bias=True)
  )
)
WARNING: GIF is enabled but the environment does not support RGB array rendering.
INFO: Learning...
INFO: BootcampName.HIDER bootcamp completed, starting BootcampName.SEEKER bootcamp
INFO: Number of parameters: 177348
INFO: QNetwork(
  (conv_feature): Sequential(
    (0): Conv2d(1, 64, kernel_size=(3, 3), stride=(1, 1))
    (1): ReLU()
    (2): BatchNorm2d(64, eps=1e-05, momentum=0.1, affine=True, track_running_stats=True)
    (3): Conv2d(64, 32, kernel_size=(3, 3), stride=(1, 1))
    (4): ReLU()
    (5): BatchNorm2d(32, eps=1e-05, momentum=0.1, affine=True, track_running_stats=True)
  )
  (fc_feature): Sequential(
    (0): Linear(in_features=1152, out_features=128, bias=True)
    (1): ReLU()
    (2): Linear(in_features=128, out_features=64, bias=True)
    (3): ReLU()
    (4): Linear(in_features=64, out_features=32, bias=True)
    (5): ReLU()
    (6): Linear(in_features=32, out_features=4, bias=True)
  )
)
WARNING: GIF is enabled but the environment does not support RGB array rendering.
INFO: Learning...
INFO: BootcampName.HIDER bootcamp completed, starting BootcampName.SEEKER bootcamp
INFO: Number of parameters: 177348
INFO: QNetwork(
  (conv_feature): Sequential(
    (0): Conv2d(1, 64, kernel_size=(3, 3), stride=(1, 1))
    (1): ReLU()
    (2): BatchNorm2d(64, eps=1e-05, momentum=0.1, affine=True, track_running_stats=True)
    (3): Conv2d(64, 32, kernel_size=(3, 3), stride=(1, 1))
    (4): ReLU()
    (5): BatchNorm2d(32, eps=1e-05, momentum=0.1, affine=True, track_running_stats=True)
  )
  (fc_feature): Sequential(
    (0): Linear(in_features=1152, out_features=128, bias=True)
    (1): ReLU()
    (2): Linear(in_features=128, out_features=64, bias=True)
    (3): ReLU()
    (4): Linear(in_features=64, out_features=32, bias=True)
    (5): ReLU()
    (6): Linear(in_features=32, out_features=4, bias=True)
  )
)
WARNING: GIF is enabled but the environment does not support RGB array rendering.
INFO: Learning...
INFO: BootcampName.HIDER bootcamp completed, starting BootcampName.SEEKER bootcamp
INFO: Number of parameters: 177348
INFO: QNetwork(
  (conv_feature): Sequential(
    (0): Conv2d(1, 64, kernel_size=(3, 3), stride=(1, 1))
    (1): ReLU()
    (2): BatchNorm2d(64, eps=1e-05, momentum=0.1, affine=True, track_running_stats=True)
    (3): Conv2d(64, 32, kernel_size=(3, 3), stride=(1, 1))
    (4): ReLU()
    (5): BatchNorm2d(32, eps=1e-05, momentum=0.1, affine=True, track_running_stats=True)
  )
  (fc_feature): Sequential(
    (0): Linear(in_features=1152, out_features=128, bias=True)
    (1): ReLU()
    (2): Linear(in_features=128, out_features=64, bias=True)
    (3): ReLU()
    (4): Linear(in_features=64, out_features=32, bias=True)
    (5): ReLU()
    (6): Linear(in_features=32, out_features=4, bias=True)
  )
)
WARNING: GIF is enabled but the environment does not support RGB array rendering.
INFO: Learning...
INFO: BootcampName.HIDER bootcamp completed, starting BootcampName.SEEKER bootcamp
INFO: Number of parameters: 177348
INFO: QNetwork(
  (conv_feature): Sequential(
    (0): Conv2d(1, 64, kernel_size=(3, 3), stride=(1, 1))
    (1): ReLU()
    (2): BatchNorm2d(64, eps=1e-05, momentum=0.1, affine=True, track_running_stats=True)
    (3): Conv2d(64, 32, kernel_size=(3, 3), stride=(1, 1))
    (4): ReLU()
    (5): BatchNorm2d(32, eps=1e-05, momentum=0.1, affine=True, track_running_stats=True)
  )
  (fc_feature): Sequential(
    (0): Linear(in_features=1152, out_features=128, bias=True)
    (1): ReLU()
    (2): Linear(in_features=128, out_features=64, bias=True)
    (3): ReLU()
    (4): Linear(in_features=64, out_features=32, bias=True)
    (5): ReLU()
    (6): Linear(in_features=32, out_features=4, bias=True)
  )
)
WARNING: GIF is enabled but the environment does not support RGB array rendering.
INFO: Learning...
INFO: BootcampName.HIDER bootcamp completed, starting BootcampName.SEEKER bootcamp
INFO: Number of parameters: 177348
INFO: QNetwork(
  (conv_feature): Sequential(
    (0): Conv2d(1, 64, kernel_size=(3, 3), stride=(1, 1))
    (1): ReLU()
    (2): BatchNorm2d(64, eps=1e-05, momentum=0.1, affine=True, track_running_stats=True)
    (3): Conv2d(64, 32, kernel_size=(3, 3), stride=(1, 1))
    (4): ReLU()
    (5): BatchNorm2d(32, eps=1e-05, momentum=0.1, affine=True, track_running_stats=True)
  )
  (fc_feature): Sequential(
    (0): Linear(in_features=1152, out_features=128, bias=True)
    (1): ReLU()
    (2): Linear(in_features=128, out_features=64, bias=True)
    (3): ReLU()
    (4): Linear(in_features=64, out_features=32, bias=True)
    (5): ReLU()
    (6): Linear(in_features=32, out_features=4, bias=True)
  )
)
WARNING: GIF is enabled but the environment does not support RGB array rendering.
INFO: Learning...
INFO: BootcampName.HIDER bootcamp completed, starting BootcampName.SEEKER bootcamp
INFO: Number of parameters: 177348
INFO: QNetwork(
  (conv_feature): Sequential(
    (0): Conv2d(1, 64, kernel_size=(3, 3), stride=(1, 1))
    (1): ReLU()
    (2): BatchNorm2d(64, eps=1e-05, momentum=0.1, affine=True, track_running_stats=True)
    (3): Conv2d(64, 32, kernel_size=(3, 3), stride=(1, 1))
    (4): ReLU()
    (5): BatchNorm2d(32, eps=1e-05, momentum=0.1, affine=True, track_running_stats=True)
  )
  (fc_feature): Sequential(
    (0): Linear(in_features=1152, out_features=128, bias=True)
    (1): ReLU()
    (2): Linear(in_features=128, out_features=64, bias=True)
    (3): ReLU()
    (4): Linear(in_features=64, out_features=32, bias=True)
    (5): ReLU()
    (6): Linear(in_features=32, out_features=4, bias=True)
  )
)
WARNING: GIF is enabled but the environment does not support RGB array rendering.
INFO: Learning...
INFO: BootcampName.HIDER bootcamp completed, starting BootcampName.SEEKER bootcamp
ERROR: can only concatenate tuple (not "float") to tuple
ERROR: Traceback (most recent call last):
  File "/home/eirik/Projects/XAI/rl/src/dqn/wrapper/multi_agent_dqn.py", line 74, in learn
…
  File "/home/eirik/Projects/XAI/environments/gymnasium/envs/tag/tag.py", line 230, in concatenate_states
    rewards, tag_terminated = self.tag_rewards.get_tag_reward(
                              ^^^^^^^^^^^^^^^^^^^^^^^^^^^^^^^^
  File "/home/eirik/Projects/XAI/environments/gymnasium/envs/tag/tag_rewards.py", line 37, in get_tag_reward
    self.not_tagged_reward + exp_distance,
    ~~~~~~~~~~~~~~~~~~~~~~~^~~~~~~~~~~~~~
TypeError: can only concatenate tuple (not "float") to tuple

WARNING: Error: Could not find wandb directory: ./wandb
INFO: Number of parameters: 177348
INFO: QNetwork(
  (conv_feature): Sequential(
    (0): Conv2d(1, 64, kernel_size=(3, 3), stride=(1, 1))
    (1): ReLU()
    (2): BatchNorm2d(64, eps=1e-05, momentum=0.1, affine=True, track_running_stats=True)
    (3): Conv2d(64, 32, kernel_size=(3, 3), stride=(1, 1))
    (4): ReLU()
    (5): BatchNorm2d(32, eps=1e-05, momentum=0.1, affine=True, track_running_stats=True)
  )
  (fc_feature): Sequential(
    (0): Linear(in_features=1152, out_features=128, bias=True)
    (1): ReLU()
    (2): Linear(in_features=128, out_features=64, bias=True)
    (3): ReLU()
    (4): Linear(in_features=64, out_features=32, bias=True)
    (5): ReLU()
    (6): Linear(in_features=32, out_features=4, bias=True)
  )
)
WARNING: GIF is enabled but the environment does not support RGB array rendering.
INFO: Learning...
INFO: BootcampName.HIDER bootcamp completed, starting BootcampName.SEEKER bootcamp
WARNING: No frames in gif to save.
WARNING: No frames in gif to save.
WARNING: No frames in gif to save.
WARNING: No frames in gif to save.
WARNING: No frames in gif to save.
WARNING: No frames in gif to save.
INFO: Number of parameters: 177348
INFO: QNetwork(
  (conv_feature): Sequential(
    (0): Conv2d(1, 64, kernel_size=(3, 3), stride=(1, 1))
    (1): ReLU()
    (2): BatchNorm2d(64, eps=1e-05, momentum=0.1, affine=True, track_running_stats=True)
    (3): Conv2d(64, 32, kernel_size=(3, 3), stride=(1, 1))
    (4): ReLU()
    (5): BatchNorm2d(32, eps=1e-05, momentum=0.1, affine=True, track_running_stats=True)
  )
  (fc_feature): Sequential(
    (0): Linear(in_features=1152, out_features=128, bias=True)
    (1): ReLU()
    (2): Linear(in_features=128, out_features=64, bias=True)
    (3): ReLU()
    (4): Linear(in_features=64, out_features=32, bias=True)
    (5): ReLU()
    (6): Linear(in_features=32, out_features=4, bias=True)
  )
)
WARNING: GIF is enabled but the environment does not support RGB array rendering.
INFO: Learning...
INFO: BootcampName.HIDER bootcamp completed, starting BootcampName.SEEKER bootcamp
ERROR: not enough values to unpack (expected 6, got 4)
ERROR: Traceback (most recent call last):
  File "/home/eirik/Projects/XAI/rl/src/dqn/wrapper/multi_agent_dqn.py", line 75, in learn
    self._collect_rollouts()
  File "/home/eirik/Projects/XAI/rl/src/dqn/wrapper/multi_agent_dqn.py", line 139, in _collect_rollouts
    ) = self.env.get_wrapper_attr("step_multiple")(actions)
        ^^^^^^^^^^^^^^^^^^^^^^^^^^^^^^^^^^^^^^^^^^^^^^^^^^^
  File "/home/eirik/Projects/XAI/environments/gymnasium/wrappers/multi_agent_env.py", line 37, in step_multiple
    (
ValueError: not enough values to unpack (expected 6, got 4)

WARNING: Error: Could not find wandb directory: ./wandb
INFO: Number of parameters: 177348
INFO: QNetwork(
  (conv_feature): Sequential(
    (0): Conv2d(1, 64, kernel_size=(3, 3), stride=(1, 1))
    (1): ReLU()
    (2): BatchNorm2d(64, eps=1e-05, momentum=0.1, affine=True, track_running_stats=True)
    (3): Conv2d(64, 32, kernel_size=(3, 3), stride=(1, 1))
    (4): ReLU()
    (5): BatchNorm2d(32, eps=1e-05, momentum=0.1, affine=True, track_running_stats=True)
  )
  (fc_feature): Sequential(
    (0): Linear(in_features=1152, out_features=128, bias=True)
    (1): ReLU()
    (2): Linear(in_features=128, out_features=64, bias=True)
    (3): ReLU()
    (4): Linear(in_features=64, out_features=32, bias=True)
    (5): ReLU()
    (6): Linear(in_features=32, out_features=4, bias=True)
  )
)
WARNING: GIF is enabled but the environment does not support RGB array rendering.
INFO: Learning...
INFO: BootcampName.HIDER bootcamp completed, starting BootcampName.SEEKER bootcamp
WARNING: No frames in gif to save.
WARNING: No frames in gif to save.
WARNING: No frames in gif to save.
WARNING: No frames in gif to save.
WARNING: No frames in gif to save.
WARNING: No frames in gif to save.
INFO: Number of parameters: 177348
INFO: QNetwork(
  (conv_feature): Sequential(
    (0): Conv2d(1, 64, kernel_size=(3, 3), stride=(1, 1))
    (1): ReLU()
    (2): BatchNorm2d(64, eps=1e-05, momentum=0.1, affine=True, track_running_stats=True)
    (3): Conv2d(64, 32, kernel_size=(3, 3), stride=(1, 1))
    (4): ReLU()
    (5): BatchNorm2d(32, eps=1e-05, momentum=0.1, affine=True, track_running_stats=True)
  )
  (fc_feature): Sequential(
    (0): Linear(in_features=1152, out_features=128, bias=True)
    (1): ReLU()
    (2): Linear(in_features=128, out_features=64, bias=True)
    (3): ReLU()
    (4): Linear(in_features=64, out_features=32, bias=True)
    (5): ReLU()
    (6): Linear(in_features=32, out_features=4, bias=True)
  )
)
WARNING: GIF is enabled but the environment does not support RGB array rendering.
INFO: Learning...
INFO: BootcampName.HIDER bootcamp completed, starting BootcampName.SEEKER bootcamp
WARNING: No frames in gif to save.
WARNING: No frames in gif to save.
WARNING: No frames in gif to save.
WARNING: No frames in gif to save.
WARNING: No frames in gif to save.
WARNING: No frames in gif to save.
WARNING: No frames in gif to save.
WARNING: No frames in gif to save.
INFO: Number of parameters: 177348
INFO: QNetwork(
  (conv_feature): Sequential(
    (0): Conv2d(1, 64, kernel_size=(3, 3), stride=(1, 1))
    (1): ReLU()
    (2): BatchNorm2d(64, eps=1e-05, momentum=0.1, affine=True, track_running_stats=True)
    (3): Conv2d(64, 32, kernel_size=(3, 3), stride=(1, 1))
    (4): ReLU()
    (5): BatchNorm2d(32, eps=1e-05, momentum=0.1, affine=True, track_running_stats=True)
  )
  (fc_feature): Sequential(
    (0): Linear(in_features=1152, out_features=128, bias=True)
    (1): ReLU()
    (2): Linear(in_features=128, out_features=64, bias=True)
    (3): ReLU()
    (4): Linear(in_features=64, out_features=32, bias=True)
    (5): ReLU()
    (6): Linear(in_features=32, out_features=4, bias=True)
  )
)
WARNING: GIF is enabled but the environment does not support RGB array rendering.
INFO: Learning...
INFO: BootcampName.HIDER bootcamp completed, starting BootcampName.SEEKER bootcamp
INFO: Number of parameters: 177348
INFO: QNetwork(
  (conv_feature): Sequential(
    (0): Conv2d(1, 64, kernel_size=(3, 3), stride=(1, 1))
    (1): ReLU()
    (2): BatchNorm2d(64, eps=1e-05, momentum=0.1, affine=True, track_running_stats=True)
    (3): Conv2d(64, 32, kernel_size=(3, 3), stride=(1, 1))
    (4): ReLU()
    (5): BatchNorm2d(32, eps=1e-05, momentum=0.1, affine=True, track_running_stats=True)
  )
  (fc_feature): Sequential(
    (0): Linear(in_features=1152, out_features=128, bias=True)
    (1): ReLU()
    (2): Linear(in_features=128, out_features=64, bias=True)
    (3): ReLU()
    (4): Linear(in_features=64, out_features=32, bias=True)
    (5): ReLU()
    (6): Linear(in_features=32, out_features=4, bias=True)
  )
)
WARNING: GIF is enabled but the environment does not support RGB array rendering.
INFO: Learning...
INFO: BootcampName.HIDER bootcamp completed, starting BootcampName.SEEKER bootcamp
WARNING: No frames in gif to save.
WARNING: No frames in gif to save.
WARNING: No frames in gif to save.
WARNING: No frames in gif to save.
WARNING: No frames in gif to save.
WARNING: No frames in gif to save.
WARNING: No frames in gif to save.
WARNING: No frames in gif to save.
WARNING: No frames in gif to save.
WARNING: No frames in gif to save.
INFO: Number of parameters: 177348
INFO: QNetwork(
  (conv_feature): Sequential(
    (0): Conv2d(1, 64, kernel_size=(3, 3), stride=(1, 1))
    (1): ReLU()
    (2): BatchNorm2d(64, eps=1e-05, momentum=0.1, affine=True, track_running_stats=True)
    (3): Conv2d(64, 32, kernel_size=(3, 3), stride=(1, 1))
    (4): ReLU()
    (5): BatchNorm2d(32, eps=1e-05, momentum=0.1, affine=True, track_running_stats=True)
  )
  (fc_feature): Sequential(
    (0): Linear(in_features=1152, out_features=128, bias=True)
    (1): ReLU()
    (2): Linear(in_features=128, out_features=64, bias=True)
    (3): ReLU()
    (4): Linear(in_features=64, out_features=32, bias=True)
    (5): ReLU()
    (6): Linear(in_features=32, out_features=4, bias=True)
  )
)
WARNING: GIF is enabled but the environment does not support RGB array rendering.
INFO: Learning...
INFO: BootcampName.HIDER bootcamp completed, starting BootcampName.SEEKER bootcamp
WARNING: No frames in gif to save.
WARNING: No frames in gif to save.
WARNING: No frames in gif to save.
WARNING: No frames in gif to save.
WARNING: No frames in gif to save.
WARNING: No frames in gif to save.
WARNING: No frames in gif to save.
WARNING: No frames in gif to save.
WARNING: No frames in gif to save.
WARNING: No frames in gif to save.
WARNING: No frames in gif to save.
WARNING: No frames in gif to save.
WARNING: No frames in gif to save.
WARNING: No frames in gif to save.
WARNING: No frames in gif to save.
WARNING: No frames in gif to save.
WARNING: No frames in gif to save.
WARNING: No frames in gif to save.
INFO: Number of parameters: 177348
INFO: QNetwork(
  (conv_feature): Sequential(
    (0): Conv2d(1, 64, kernel_size=(3, 3), stride=(1, 1))
    (1): ReLU()
    (2): BatchNorm2d(64, eps=1e-05, momentum=0.1, affine=True, track_running_stats=True)
    (3): Conv2d(64, 32, kernel_size=(3, 3), stride=(1, 1))
    (4): ReLU()
    (5): BatchNorm2d(32, eps=1e-05, momentum=0.1, affine=True, track_running_stats=True)
  )
  (fc_feature): Sequential(
    (0): Linear(in_features=1152, out_features=128, bias=True)
    (1): ReLU()
    (2): Linear(in_features=128, out_features=64, bias=True)
    (3): ReLU()
    (4): Linear(in_features=64, out_features=32, bias=True)
    (5): ReLU()
    (6): Linear(in_features=32, out_features=4, bias=True)
  )
)
WARNING: GIF is enabled but the environment does not support RGB array rendering.
INFO: Learning...
INFO: BootcampName.HIDER bootcamp completed, starting BootcampName.SEEKER bootcamp
WARNING: No frames in gif to save.
WARNING: No frames in gif to save.
WARNING: No frames in gif to save.
WARNING: No frames in gif to save.
WARNING: No frames in gif to save.
WARNING: No frames in gif to save.
WARNING: No frames in gif to save.
WARNING: No frames in gif to save.
WARNING: No frames in gif to save.
WARNING: No frames in gif to save.
WARNING: No frames in gif to save.
WARNING: No frames in gif to save.
INFO: Number of parameters: 29956
INFO: QNetwork(
  (conv_feature): Sequential()
  (fc_feature): Sequential(
    (0): Linear(in_features=100, out_features=128, bias=True)
    (1): ReLU()
    (2): Linear(in_features=128, out_features=128, bias=True)
    (3): ReLU()
    (4): Linear(in_features=128, out_features=4, bias=True)
  )
)
WARNING: GIF is enabled but the environment does not support RGB array rendering.
INFO: Learning...
INFO: BootcampName.HIDER bootcamp completed, starting BootcampName.SEEKER bootcamp
WARNING: No frames in gif to save.
WARNING: No frames in gif to save.
WARNING: No frames in gif to save.
WARNING: No frames in gif to save.
WARNING: No frames in gif to save.
WARNING: No frames in gif to save.
WARNING: No frames in gif to save.
WARNING: No frames in gif to save.
WARNING: No frames in gif to save.
WARNING: No frames in gif to save.
INFO: Number of parameters: 29956
INFO: QNetwork(
  (conv_feature): Sequential()
  (fc_feature): Sequential(
    (0): Linear(in_features=100, out_features=128, bias=True)
    (1): ReLU()
    (2): Linear(in_features=128, out_features=128, bias=True)
    (3): ReLU()
    (4): Linear(in_features=128, out_features=4, bias=True)
  )
)
WARNING: GIF is enabled but the environment does not support RGB array rendering.
INFO: Learning...
INFO: BootcampName.HIDER bootcamp completed, starting BootcampName.SEEKER bootcamp
WARNING: No frames in gif to save.
WARNING: No frames in gif to save.
WARNING: No frames in gif to save.
WARNING: No frames in gif to save.
WARNING: No frames in gif to save.
…
WARNING: No frames in gif to save.
WARNING: No frames in gif to save.
INFO: Cleaning cache: /home/eirik/.cache/wandb/artifacts/obj 0.00390625 MB
INFO: cleaning local: /home/eirik/.local/share/wandb/artifacts/staging 0.00390625 MB
WARNING: No frames in gif to save.
WARNING: No frames in gif to save.
WARNING: No frames in gif to save.
WARNING: No frames in gif to save.
WARNING: No frames in gif to save.
WARNING: No frames in gif to save.
WARNING: No frames in gif to save.
WARNING: No frames in gif to save.
INFO: Number of parameters: 29956
INFO: QNetwork(
  (conv_feature): Sequential()
  (fc_feature): Sequential(
    (0): Linear(in_features=100, out_features=128, bias=True)
    (1): ReLU()
    (2): Linear(in_features=128, out_features=128, bias=True)
    (3): ReLU()
    (4): Linear(in_features=128, out_features=4, bias=True)
  )
)
WARNING: GIF is enabled but the environment does not support RGB array rendering.
INFO: Learning...
INFO: BootcampName.HIDER bootcamp completed, starting BootcampName.SEEKER bootcamp
WARNING: No frames in gif to save.
WARNING: No frames in gif to save.
INFO: Number of parameters: 29956
INFO: QNetwork(
  (conv_feature): Sequential()
  (fc_feature): Sequential(
    (0): Linear(in_features=100, out_features=128, bias=True)
    (1): ReLU()
    (2): Linear(in_features=128, out_features=128, bias=True)
    (3): ReLU()
    (4): Linear(in_features=128, out_features=4, bias=True)
  )
)
WARNING: GIF is enabled but the environment does not support RGB array rendering.
INFO: Learning...
INFO: BootcampName.HIDER bootcamp completed, starting BootcampName.SEEKER bootcamp
WARNING: No frames in gif to save.
WARNING: No frames in gif to save.
WARNING: No frames in gif to save.
WARNING: No frames in gif to save.
INFO: Number of parameters: 29956
INFO: QNetwork(
  (conv_feature): Sequential()
  (fc_feature): Sequential(
    (0): Linear(in_features=100, out_features=128, bias=True)
    (1): ReLU()
    (2): Linear(in_features=128, out_features=128, bias=True)
    (3): ReLU()
    (4): Linear(in_features=128, out_features=4, bias=True)
  )
)
WARNING: GIF is enabled but the environment does not support RGB array rendering.
INFO: Learning...
INFO: BootcampName.HIDER bootcamp completed, starting BootcampName.SEEKER bootcamp
WARNING: No frames in gif to save.
WARNING: No frames in gif to save.
INFO: Number of parameters: 29956
INFO: QNetwork(
  (conv_feature): Sequential()
  (fc_feature): Sequential(
    (0): Linear(in_features=100, out_features=128, bias=True)
    (1): ReLU()
    (2): Linear(in_features=128, out_features=128, bias=True)
    (3): ReLU()
    (4): Linear(in_features=128, out_features=4, bias=True)
  )
)
WARNING: GIF is enabled but the environment does not support RGB array rendering.
INFO: Learning...
INFO: BootcampName.HIDER bootcamp completed, starting BootcampName.SEEKER bootcamp
WARNING: No frames in gif to save.
WARNING: No frames in gif to save.
WARNING: No frames in gif to save.
WARNING: No frames in gif to save.
INFO: Number of parameters: 29956
INFO: QNetwork(
  (conv_feature): Sequential()
  (fc_feature): Sequential(
    (0): Linear(in_features=100, out_features=128, bias=True)
    (1): ReLU()
    (2): Linear(in_features=128, out_features=128, bias=True)
    (3): ReLU()
    (4): Linear(in_features=128, out_features=4, bias=True)
  )
)
WARNING: GIF is enabled but the environment does not support RGB array rendering.
INFO: Learning...
INFO: BootcampName.HIDER bootcamp completed, starting BootcampName.SEEKER bootcamp
WARNING: No frames in gif to save.
WARNING: No frames in gif to save.
WARNING: No frames in gif to save.
WARNING: No frames in gif to save.
INFO: Number of parameters: 29956
INFO: QNetwork(
  (conv_feature): Sequential()
  (fc_feature): Sequential(
    (0): Linear(in_features=100, out_features=128, bias=True)
    (1): ReLU()
    (2): Linear(in_features=128, out_features=128, bias=True)
    (3): ReLU()
    (4): Linear(in_features=128, out_features=4, bias=True)
  )
)
WARNING: GIF is enabled but the environment does not support RGB array rendering.
INFO: Learning...
INFO: BootcampName.HIDER bootcamp completed, starting BootcampName.SEEKER bootcamp
INFO: Number of parameters: 29956
INFO: QNetwork(
  (conv_feature): Sequential()
  (fc_feature): Sequential(
    (0): Linear(in_features=100, out_features=128, bias=True)
    (1): ReLU()
    (2): Linear(in_features=128, out_features=128, bias=True)
    (3): ReLU()
    (4): Linear(in_features=128, out_features=4, bias=True)
  )
)
WARNING: GIF is enabled but the environment does not support RGB array rendering.
INFO: Learning...
INFO: BootcampName.HIDER bootcamp completed, starting BootcampName.SEEKER bootcamp
WARNING: No frames in gif to save.
WARNING: No frames in gif to save.
INFO: Number of parameters: 29956
INFO: QNetwork(
  (conv_feature): Sequential()
  (fc_feature): Sequential(
    (0): Linear(in_features=100, out_features=128, bias=True)
    (1): ReLU()
    (2): Linear(in_features=128, out_features=128, bias=True)
    (3): ReLU()
    (4): Linear(in_features=128, out_features=4, bias=True)
  )
)
WARNING: GIF is enabled but the environment does not support RGB array rendering.
INFO: Learning...
INFO: BootcampName.HIDER bootcamp completed, starting BootcampName.SEEKER bootcamp
WARNING: No frames in gif to save.
WARNING: No frames in gif to save.
WARNING: No frames in gif to save.
WARNING: No frames in gif to save.
INFO: Number of parameters: 29956
INFO: QNetwork(
  (conv_feature): Sequential()
  (fc_feature): Sequential(
    (0): Linear(in_features=100, out_features=128, bias=True)
    (1): ReLU()
    (2): Linear(in_features=128, out_features=128, bias=True)
    (3): ReLU()
    (4): Linear(in_features=128, out_features=4, bias=True)
  )
)
WARNING: GIF is enabled but the environment does not support RGB array rendering.
INFO: Learning...
INFO: BootcampName.HIDER bootcamp completed, starting BootcampName.SEEKER bootcamp
INFO: Number of parameters: 29956
INFO: QNetwork(
  (conv_feature): Sequential()
  (fc_feature): Sequential(
    (0): Linear(in_features=100, out_features=128, bias=True)
    (1): ReLU()
    (2): Linear(in_features=128, out_features=128, bias=True)
    (3): ReLU()
    (4): Linear(in_features=128, out_features=4, bias=True)
  )
)
WARNING: GIF is enabled but the environment does not support RGB array rendering.
INFO: Learning...
INFO: BootcampName.HIDER bootcamp completed, starting BootcampName.SEEKER bootcamp
INFO: Number of parameters: 29956
INFO: QNetwork(
  (conv_feature): Sequential()
  (fc_feature): Sequential(
    (0): Linear(in_features=100, out_features=128, bias=True)
    (1): ReLU()
    (2): Linear(in_features=128, out_features=128, bias=True)
    (3): ReLU()
    (4): Linear(in_features=128, out_features=4, bias=True)
  )
)
WARNING: GIF is enabled but the environment does not support RGB array rendering.
INFO: Learning...
INFO: BootcampName.HIDER bootcamp completed, starting BootcampName.SEEKER bootcamp
WARNING: No frames in gif to save.
WARNING: No frames in gif to save.
WARNING: No frames in gif to save.
WARNING: No frames in gif to save.
WARNING: No frames in gif to save.
WARNING: No frames in gif to save.
WARNING: No frames in gif to save.
WARNING: No frames in gif to save.
WARNING: No frames in gif to save.
WARNING: No frames in gif to save.
WARNING: No frames in gif to save.
WARNING: No frames in gif to save.
INFO: Number of parameters: 29956
INFO: QNetwork(
  (conv_feature): Sequential()
  (fc_feature): Sequential(
    (0): Linear(in_features=100, out_features=128, bias=True)
    (1): ReLU()
    (2): Linear(in_features=128, out_features=128, bias=True)
    (3): ReLU()
    (4): Linear(in_features=128, out_features=4, bias=True)
  )
)
WARNING: GIF is enabled but the environment does not support RGB array rendering.
INFO: Learning...
INFO: BootcampName.HIDER bootcamp completed, starting BootcampName.SEEKER bootcamp
WARNING: No frames in gif to save.
WARNING: No frames in gif to save.
WARNING: No frames in gif to save.
WARNING: No frames in gif to save.
WARNING: No frames in gif to save.
…
WARNING: No frames in gif to save.
WARNING: No frames in gif to save.
WARNING: No frames in gif to save.
WARNING: No frames in gif to save.
WARNING: No frames in gif to save.
WARNING: No frames in gif to save.
INFO: Cleaning cache: /home/eirik/.cache/wandb/artifacts/obj 0.00390625 MB
INFO: cleaning local: /home/eirik/.local/share/wandb/artifacts/staging 0.00390625 MB
WARNING: No frames in gif to save.
WARNING: No frames in gif to save.
WARNING: No frames in gif to save.
WARNING: No frames in gif to save.
INFO: Number of parameters: 29956
INFO: QNetwork(
  (conv_feature): Sequential()
  (fc_feature): Sequential(
    (0): Linear(in_features=100, out_features=128, bias=True)
    (1): ReLU()
    (2): Linear(in_features=128, out_features=128, bias=True)
    (3): ReLU()
    (4): Linear(in_features=128, out_features=4, bias=True)
  )
)
WARNING: GIF is enabled but the environment does not support RGB array rendering.
INFO: Learning...
INFO: BootcampName.HIDER bootcamp completed, starting BootcampName.SEEKER bootcamp
WARNING: No frames in gif to save.
WARNING: No frames in gif to save.
INFO: Number of parameters: 29956
INFO: QNetwork(
  (conv_feature): Sequential()
  (fc_feature): Sequential(
    (0): Linear(in_features=100, out_features=128, bias=True)
    (1): ReLU()
    (2): Linear(in_features=128, out_features=128, bias=True)
    (3): ReLU()
    (4): Linear(in_features=128, out_features=4, bias=True)
  )
)
WARNING: GIF is enabled but the environment does not support RGB array rendering.
INFO: Learning...
INFO: BootcampName.HIDER bootcamp completed, starting BootcampName.SEEKER bootcamp
WARNING: No frames in gif to save.
WARNING: No frames in gif to save.
WARNING: No frames in gif to save.
WARNING: No frames in gif to save.
WARNING: No frames in gif to save.
WARNING: No frames in gif to save.
WARNING: No frames in gif to save.
WARNING: No frames in gif to save.
INFO: Number of parameters: 29956
INFO: QNetwork(
  (conv_feature): Sequential()
  (fc_feature): Sequential(
    (0): Linear(in_features=100, out_features=128, bias=True)
    (1): ReLU()
    (2): Linear(in_features=128, out_features=128, bias=True)
    (3): ReLU()
    (4): Linear(in_features=128, out_features=4, bias=True)
  )
)
WARNING: GIF is enabled but the environment does not support RGB array rendering.
INFO: Learning...
INFO: BootcampName.HIDER bootcamp completed, starting BootcampName.SEEKER bootcamp
WARNING: No frames in gif to save.
WARNING: No frames in gif to save.
WARNING: No frames in gif to save.
WARNING: No frames in gif to save.
WARNING: No frames in gif to save.
…
WARNING: No frames in gif to save.
WARNING: No frames in gif to save.
WARNING: No frames in gif to save.
WARNING: No frames in gif to save.
WARNING: No frames in gif to save.
WARNING: No frames in gif to save.
INFO: Cleaning cache: /home/eirik/.cache/wandb/artifacts/obj 0.00390625 MB
INFO: cleaning local: /home/eirik/.local/share/wandb/artifacts/staging 0.00390625 MB
WARNING: No frames in gif to save.
WARNING: No frames in gif to save.
WARNING: No frames in gif to save.
WARNING: No frames in gif to save.
INFO: Number of parameters: 29956
INFO: QNetwork(
  (conv_feature): Sequential()
  (fc_feature): Sequential(
    (0): Linear(in_features=100, out_features=128, bias=True)
    (1): ReLU()
    (2): Linear(in_features=128, out_features=128, bias=True)
    (3): ReLU()
    (4): Linear(in_features=128, out_features=4, bias=True)
  )
)
WARNING: GIF is enabled but the environment does not support RGB array rendering.
INFO: Learning...
INFO: BootcampName.HIDER bootcamp completed, starting BootcampName.SEEKER bootcamp
INFO: Number of parameters: 29956
INFO: QNetwork(
  (conv_feature): Sequential()
  (fc_feature): Sequential(
    (0): Linear(in_features=100, out_features=128, bias=True)
    (1): ReLU()
    (2): Linear(in_features=128, out_features=128, bias=True)
    (3): ReLU()
    (4): Linear(in_features=128, out_features=4, bias=True)
  )
)
WARNING: GIF is enabled but the environment does not support RGB array rendering.
INFO: Learning...
INFO: BootcampName.HIDER bootcamp completed, starting BootcampName.SEEKER bootcamp
WARNING: No frames in gif to save.
WARNING: No frames in gif to save.
WARNING: No frames in gif to save.
WARNING: No frames in gif to save.
WARNING: No frames in gif to save.
…
WARNING: No frames in gif to save.
WARNING: No frames in gif to save.
WARNING: No frames in gif to save.
WARNING: No frames in gif to save.
WARNING: No frames in gif to save.
WARNING: No frames in gif to save.
WARNING: No frames in gif to save.
WARNING: No frames in gif to save.
WARNING: No frames in gif to save.
WARNING: No frames in gif to save.
INFO: Cleaning cache: /home/eirik/.cache/wandb/artifacts/obj 0.00390625 MB
INFO: cleaning local: /home/eirik/.local/share/wandb/artifacts/staging 0.00390625 MB
INFO: Number of parameters: 30085
INFO: QNetwork(
  (conv_feature): Sequential()
  (fc_feature): Sequential(
    (0): Linear(in_features=100, out_features=128, bias=True)
    (1): ReLU()
    (2): Linear(in_features=128, out_features=128, bias=True)
    (3): ReLU()
    (4): Linear(in_features=128, out_features=5, bias=True)
  )
)
WARNING: GIF is enabled but the environment does not support RGB array rendering.
INFO: Learning...
INFO: BootcampName.HIDER bootcamp completed, starting BootcampName.SEEKER bootcamp
INFO: BootcampName.SEEKER bootcamp completed, starting BootcampName.SLOW_HIDER bootcamp
INFO: Number of parameters: 30085
INFO: QNetwork(
  (conv_feature): Sequential()
  (fc_feature): Sequential(
    (0): Linear(in_features=100, out_features=128, bias=True)
    (1): ReLU()
    (2): Linear(in_features=128, out_features=128, bias=True)
    (3): ReLU()
    (4): Linear(in_features=128, out_features=5, bias=True)
  )
)
WARNING: GIF is enabled but the environment does not support RGB array rendering.
INFO: Learning...
INFO: BootcampName.HIDER bootcamp completed, starting BootcampName.SEEKER bootcamp
INFO: BootcampName.SEEKER bootcamp completed, starting BootcampName.SLOW_HIDER bootcamp
INFO: Continuing with bootcamp BootcampName.SLOW_HIDER with slow hider factor: 19
…
INFO: Continuing with bootcamp BootcampName.SLOW_HIDER with slow hider factor: 4
INFO: Continuing with bootcamp BootcampName.SLOW_HIDER with slow hider factor: 3
WARNING: No frames in gif to save.
WARNING: No frames in gif to save.
INFO: Continuing with bootcamp BootcampName.SLOW_HIDER with slow hider factor: 2
INFO: BootcampName.SLOW_HIDER bootcamp completed, starting BootcampName.COMBINED bootcamp
WARNING: No frames in gif to save.
WARNING: No frames in gif to save.
WARNING: No frames in gif to save.
WARNING: No frames in gif to save.
INFO: Number of parameters: 30085
INFO: QNetwork(
  (conv_feature): Sequential()
  (fc_feature): Sequential(
    (0): Linear(in_features=100, out_features=128, bias=True)
    (1): ReLU()
    (2): Linear(in_features=128, out_features=128, bias=True)
    (3): ReLU()
    (4): Linear(in_features=128, out_features=5, bias=True)
  )
)
WARNING: GIF is enabled but the environment does not support RGB array rendering.
INFO: Learning...
INFO: BootcampName.HIDER bootcamp completed, starting BootcampName.SEEKER bootcamp
INFO: Number of parameters: 30085
INFO: QNetwork(
  (conv_feature): Sequential()
  (fc_feature): Sequential(
    (0): Linear(in_features=100, out_features=128, bias=True)
    (1): ReLU()
    (2): Linear(in_features=128, out_features=128, bias=True)
    (3): ReLU()
    (4): Linear(in_features=128, out_features=5, bias=True)
  )
)
WARNING: GIF is enabled but the environment does not support RGB array rendering.
INFO: Learning...
INFO: BootcampName.HIDER bootcamp completed, starting BootcampName.SEEKER bootcamp
INFO: Number of parameters: 30085
INFO: QNetwork(
  (conv_feature): Sequential()
  (fc_feature): Sequential(
    (0): Linear(in_features=100, out_features=128, bias=True)
    (1): ReLU()
    (2): Linear(in_features=128, out_features=128, bias=True)
    (3): ReLU()
    (4): Linear(in_features=128, out_features=5, bias=True)
  )
)
WARNING: GIF is enabled but the environment does not support RGB array rendering.
INFO: Learning...
INFO: BootcampName.HIDER bootcamp completed, starting BootcampName.SEEKER bootcamp
ERROR: You must call wandb.init() before wandb.log()
ERROR: Traceback (most recent call last):
  File "/home/eirik/Projects/XAI/rl/src/dqn/wrapper/multi_agent_dqn.py", line 106, in learn
…
  File "/home/eirik/Projects/XAI/rl/src/managers/wandb_manager.py", line 60, in log
    wandb.log(data)
  File "/home/eirik/.cache/pypoetry/virtualenvs/xai-is73Zs3s-py3.11/lib/python3.11/site-packages/wandb/sdk/lib/preinit.py", line 36, in preinit_wrapper
    raise wandb.Error(f"You must call wandb.init() before {name}()")
wandb.errors.errors.Error: You must call wandb.init() before wandb.log()

WARNING: Error: Could not find wandb directory: ./wandb
WARNING: Error: Could not find wandb directory: ./wandb
WARNING: Error: Could not find wandb directory: ./wandb
INFO: Number of parameters: 30085
INFO: QNetwork(
  (conv_feature): Sequential()
  (fc_feature): Sequential(
    (0): Linear(in_features=100, out_features=128, bias=True)
    (1): ReLU()
    (2): Linear(in_features=128, out_features=128, bias=True)
    (3): ReLU()
    (4): Linear(in_features=128, out_features=5, bias=True)
  )
)
WARNING: GIF is enabled but the environment does not support RGB array rendering.
INFO: Learning...
INFO: BootcampName.HIDER bootcamp completed, starting BootcampName.SEEKER bootcamp
INFO: BootcampName.SEEKER bootcamp completed, starting BootcampName.SLOW_HIDER bootcamp
INFO: Continuing with bootcamp BootcampName.SLOW_HIDER with slow factor: 20
INFO: Continuing with bootcamp BootcampName.SLOW_HIDER with slow factor: 20
INFO: Continuing with bootcamp BootcampName.SLOW_HIDER with slow factor: 20
INFO: Number of parameters: 30085
INFO: QNetwork(
  (conv_feature): Sequential()
  (fc_feature): Sequential(
    (0): Linear(in_features=100, out_features=128, bias=True)
    (1): ReLU()
    (2): Linear(in_features=128, out_features=128, bias=True)
    (3): ReLU()
    (4): Linear(in_features=128, out_features=5, bias=True)
  )
)
WARNING: GIF is enabled but the environment does not support RGB array rendering.
INFO: Learning...
INFO: BootcampName.HIDER bootcamp completed, starting BootcampName.SEEKER bootcamp
INFO: BootcampName.SEEKER bootcamp completed, starting BootcampName.SLOW_AGENT bootcamp
WARNING: No frames in gif to save.
WARNING: No frames in gif to save.
INFO: Continuing with bootcamp BootcampName.SLOW_AGENT with slow factor: 20
WARNING: No frames in gif to save.
WARNING: No frames in gif to save.
INFO: Continuing with bootcamp BootcampName.SLOW_AGENT with slow factor: 20
WARNING: No frames in gif to save.
WARNING: No frames in gif to save.
INFO: Number of parameters: 30085
INFO: QNetwork(
  (conv_feature): Sequential()
  (fc_feature): Sequential(
    (0): Linear(in_features=100, out_features=128, bias=True)
    (1): ReLU()
    (2): Linear(in_features=128, out_features=128, bias=True)
    (3): ReLU()
    (4): Linear(in_features=128, out_features=5, bias=True)
  )
)
WARNING: GIF is enabled but the environment does not support RGB array rendering.
INFO: Learning...
INFO: BootcampName.HIDER bootcamp completed, starting BootcampName.SEEKER bootcamp
INFO: BootcampName.SEEKER bootcamp completed, starting BootcampName.SLOW_AGENT bootcamp
INFO: Continuing with bootcamp BootcampName.SLOW_AGENT with slow factor: 20
INFO: Continuing with bootcamp BootcampName.SLOW_AGENT with slow factor: 20
INFO: Continuing with bootcamp BootcampName.SLOW_AGENT with slow factor: 20
INFO: Continuing with bootcamp BootcampName.SLOW_AGENT with slow factor: 20
INFO: Continuing with bootcamp BootcampName.SLOW_AGENT with slow factor: 20
INFO: Continuing with bootcamp BootcampName.SLOW_AGENT with slow factor: 20
INFO: Number of parameters: 30085
INFO: QNetwork(
  (conv_feature): Sequential()
  (fc_feature): Sequential(
    (0): Linear(in_features=100, out_features=128, bias=True)
    (1): ReLU()
    (2): Linear(in_features=128, out_features=128, bias=True)
    (3): ReLU()
    (4): Linear(in_features=128, out_features=5, bias=True)
  )
)
WARNING: GIF is enabled but the environment does not support RGB array rendering.
INFO: Learning...
INFO: BootcampName.HIDER bootcamp completed, starting BootcampName.SEEKER bootcamp
INFO: Number of parameters: 30085
INFO: QNetwork(
  (conv_feature): Sequential()
  (fc_feature): Sequential(
    (0): Linear(in_features=100, out_features=128, bias=True)
    (1): ReLU()
    (2): Linear(in_features=128, out_features=128, bias=True)
    (3): ReLU()
    (4): Linear(in_features=128, out_features=5, bias=True)
  )
)
WARNING: GIF is enabled but the environment does not support RGB array rendering.
INFO: Learning...
INFO: BootcampName.HIDER bootcamp completed, starting BootcampName.SEEKER bootcamp
INFO: BootcampName.SEEKER bootcamp completed, starting BootcampName.SLOW_AGENT bootcamp
INFO: Continuing with bootcamp BootcampName.SLOW_AGENT with slow factor: 20
INFO: Continuing with bootcamp BootcampName.SLOW_AGENT with slow factor: 20
…
INFO: Continuing with bootcamp BootcampName.SLOW_AGENT with slow factor: 20 for agent 0
WARNING: No frames in gif to save.
WARNING: No frames in gif to save.
INFO: Continuing with bootcamp BootcampName.SLOW_AGENT with slow factor: 20 for agent 0
INFO: Continuing with bootcamp BootcampName.SLOW_AGENT with slow factor: 20 for agent 0
INFO: Continuing with bootcamp BootcampName.SLOW_AGENT with slow factor: 20 for agent 0
WARNING: No frames in gif to save.
WARNING: No frames in gif to save.
INFO: Number of parameters: 30085
INFO: QNetwork(
  (conv_feature): Sequential()
  (fc_feature): Sequential(
    (0): Linear(in_features=100, out_features=128, bias=True)
    (1): ReLU()
    (2): Linear(in_features=128, out_features=128, bias=True)
    (3): ReLU()
    (4): Linear(in_features=128, out_features=5, bias=True)
  )
)
WARNING: GIF is enabled but the environment does not support RGB array rendering.
INFO: Learning...
INFO: BootcampName.HIDER bootcamp completed, starting BootcampName.SEEKER bootcamp
INFO: BootcampName.SEEKER bootcamp completed, starting BootcampName.SLOW_AGENT bootcamp
INFO: Continuing with bootcamp BootcampName.SLOW_AGENT with slow factor: 20 for agent 0
INFO: Continuing with bootcamp BootcampName.SLOW_AGENT with slow factor: 20 for agent 0
INFO: Continuing with bootcamp BootcampName.SLOW_AGENT with slow factor: 20 for agent 0
INFO: Continuing with bootcamp BootcampName.SLOW_AGENT with slow factor: 20 for agent 0
INFO: Continuing with bootcamp BootcampName.SLOW_AGENT with slow factor: 20 for agent 0
INFO: Number of parameters: 30085
INFO: QNetwork(
  (conv_feature): Sequential()
  (fc_feature): Sequential(
    (0): Linear(in_features=100, out_features=128, bias=True)
    (1): ReLU()
    (2): Linear(in_features=128, out_features=128, bias=True)
    (3): ReLU()
    (4): Linear(in_features=128, out_features=5, bias=True)
  )
)
WARNING: GIF is enabled but the environment does not support RGB array rendering.
INFO: Learning...
INFO: BootcampName.HIDER bootcamp completed, starting BootcampName.SEEKER bootcamp
INFO: BootcampName.SEEKER bootcamp completed, starting BootcampName.SLOW_AGENT bootcamp
INFO: Continuing with bootcamp BootcampName.SLOW_AGENT with slow factor: 20 for agent 0
INFO: Number of parameters: 30085
INFO: QNetwork(
  (conv_feature): Sequential()
  (fc_feature): Sequential(
    (0): Linear(in_features=100, out_features=128, bias=True)
    (1): ReLU()
    (2): Linear(in_features=128, out_features=128, bias=True)
    (3): ReLU()
    (4): Linear(in_features=128, out_features=5, bias=True)
  )
)
WARNING: GIF is enabled but the environment does not support RGB array rendering.
INFO: Learning...
INFO: BootcampName.HIDER bootcamp completed, starting BootcampName.SEEKER bootcamp
INFO: BootcampName.SEEKER bootcamp completed, starting BootcampName.SLOW_AGENT bootcamp
INFO: Continuing with bootcamp BootcampName.SLOW_AGENT with slow factor: 20 for agent 0
INFO: Continuing with bootcamp BootcampName.SLOW_AGENT with slow factor: 20 for agent 0
INFO: Number of parameters: 30085
INFO: QNetwork(
  (conv_feature): Sequential()
  (fc_feature): Sequential(
    (0): Linear(in_features=100, out_features=128, bias=True)
    (1): ReLU()
    (2): Linear(in_features=128, out_features=128, bias=True)
    (3): ReLU()
    (4): Linear(in_features=128, out_features=5, bias=True)
  )
)
WARNING: GIF is enabled but the environment does not support RGB array rendering.
INFO: Learning...
INFO: BootcampName.HIDER bootcamp completed, starting BootcampName.SEEKER bootcamp
INFO: BootcampName.SEEKER bootcamp completed, starting BootcampName.SLOW_AGENT bootcamp
INFO: Continuing with bootcamp BootcampName.SLOW_AGENT with slow factor: 19 for agent 1
…
