<<<<<<< HEAD
<<<<<<< HEAD
=======
INFO: Number of parameters: 177348
INFO: QNetwork(
  (conv_feature): Sequential(
    (0): Conv2d(1, 64, kernel_size=(3, 3), stride=(1, 1))
    (1): ReLU()
    (2): BatchNorm2d(64, eps=1e-05, momentum=0.1, affine=True, track_running_stats=True)
    (3): Conv2d(64, 32, kernel_size=(3, 3), stride=(1, 1))
    (4): ReLU()
    (5): BatchNorm2d(32, eps=1e-05, momentum=0.1, affine=True, track_running_stats=True)
  )
  (fc_feature): Sequential(
    (0): Linear(in_features=1152, out_features=128, bias=True)
    (1): ReLU()
    (2): Linear(in_features=128, out_features=64, bias=True)
    (3): ReLU()
    (4): Linear(in_features=64, out_features=32, bias=True)
    (5): ReLU()
    (6): Linear(in_features=32, out_features=4, bias=True)
  )
)
INFO: Learning...
ERROR: can only concatenate tuple (not "float") to tuple
INFO: Number of parameters: 177348
INFO: QNetwork(
  (conv_feature): Sequential(
    (0): Conv2d(1, 64, kernel_size=(3, 3), stride=(1, 1))
    (1): ReLU()
    (2): BatchNorm2d(64, eps=1e-05, momentum=0.1, affine=True, track_running_stats=True)
    (3): Conv2d(64, 32, kernel_size=(3, 3), stride=(1, 1))
    (4): ReLU()
    (5): BatchNorm2d(32, eps=1e-05, momentum=0.1, affine=True, track_running_stats=True)
  )
  (fc_feature): Sequential(
    (0): Linear(in_features=1152, out_features=128, bias=True)
    (1): ReLU()
    (2): Linear(in_features=128, out_features=64, bias=True)
    (3): ReLU()
    (4): Linear(in_features=64, out_features=32, bias=True)
    (5): ReLU()
    (6): Linear(in_features=32, out_features=4, bias=True)
  )
)
INFO: Learning...
INFO: Number of parameters: 177348
INFO: QNetwork(
  (conv_feature): Sequential(
    (0): Conv2d(1, 64, kernel_size=(3, 3), stride=(1, 1))
    (1): ReLU()
    (2): BatchNorm2d(64, eps=1e-05, momentum=0.1, affine=True, track_running_stats=True)
    (3): Conv2d(64, 32, kernel_size=(3, 3), stride=(1, 1))
    (4): ReLU()
    (5): BatchNorm2d(32, eps=1e-05, momentum=0.1, affine=True, track_running_stats=True)
  )
  (fc_feature): Sequential(
    (0): Linear(in_features=1152, out_features=128, bias=True)
    (1): ReLU()
    (2): Linear(in_features=128, out_features=64, bias=True)
    (3): ReLU()
    (4): Linear(in_features=64, out_features=32, bias=True)
    (5): ReLU()
    (6): Linear(in_features=32, out_features=4, bias=True)
  )
)
INFO: Learning...
INFO: Number of parameters: 177348
INFO: QNetwork(
  (conv_feature): Sequential(
    (0): Conv2d(1, 64, kernel_size=(3, 3), stride=(1, 1))
    (1): ReLU()
    (2): BatchNorm2d(64, eps=1e-05, momentum=0.1, affine=True, track_running_stats=True)
    (3): Conv2d(64, 32, kernel_size=(3, 3), stride=(1, 1))
    (4): ReLU()
    (5): BatchNorm2d(32, eps=1e-05, momentum=0.1, affine=True, track_running_stats=True)
  )
  (fc_feature): Sequential(
    (0): Linear(in_features=1152, out_features=128, bias=True)
    (1): ReLU()
    (2): Linear(in_features=128, out_features=64, bias=True)
    (3): ReLU()
    (4): Linear(in_features=64, out_features=32, bias=True)
    (5): ReLU()
    (6): Linear(in_features=32, out_features=4, bias=True)
  )
)
INFO: Learning...
INFO: Number of parameters: 177348
INFO: QNetwork(
  (conv_feature): Sequential(
    (0): Conv2d(1, 64, kernel_size=(3, 3), stride=(1, 1))
    (1): ReLU()
    (2): BatchNorm2d(64, eps=1e-05, momentum=0.1, affine=True, track_running_stats=True)
    (3): Conv2d(64, 32, kernel_size=(3, 3), stride=(1, 1))
    (4): ReLU()
    (5): BatchNorm2d(32, eps=1e-05, momentum=0.1, affine=True, track_running_stats=True)
  )
  (fc_feature): Sequential(
    (0): Linear(in_features=1152, out_features=128, bias=True)
    (1): ReLU()
    (2): Linear(in_features=128, out_features=64, bias=True)
    (3): ReLU()
    (4): Linear(in_features=64, out_features=32, bias=True)
    (5): ReLU()
    (6): Linear(in_features=32, out_features=4, bias=True)
  )
)
INFO: Learning...
INFO: Number of parameters: 177348
INFO: QNetwork(
  (conv_feature): Sequential(
    (0): Conv2d(1, 64, kernel_size=(3, 3), stride=(1, 1))
    (1): ReLU()
    (2): BatchNorm2d(64, eps=1e-05, momentum=0.1, affine=True, track_running_stats=True)
    (3): Conv2d(64, 32, kernel_size=(3, 3), stride=(1, 1))
    (4): ReLU()
    (5): BatchNorm2d(32, eps=1e-05, momentum=0.1, affine=True, track_running_stats=True)
  )
  (fc_feature): Sequential(
    (0): Linear(in_features=1152, out_features=128, bias=True)
    (1): ReLU()
    (2): Linear(in_features=128, out_features=64, bias=True)
    (3): ReLU()
    (4): Linear(in_features=64, out_features=32, bias=True)
    (5): ReLU()
    (6): Linear(in_features=32, out_features=4, bias=True)
  )
)
INFO: Learning...
INFO: Number of parameters: 177348
INFO: QNetwork(
  (conv_feature): Sequential(
    (0): Conv2d(1, 64, kernel_size=(3, 3), stride=(1, 1))
    (1): ReLU()
    (2): BatchNorm2d(64, eps=1e-05, momentum=0.1, affine=True, track_running_stats=True)
    (3): Conv2d(64, 32, kernel_size=(3, 3), stride=(1, 1))
    (4): ReLU()
    (5): BatchNorm2d(32, eps=1e-05, momentum=0.1, affine=True, track_running_stats=True)
  )
  (fc_feature): Sequential(
    (0): Linear(in_features=1152, out_features=128, bias=True)
    (1): ReLU()
    (2): Linear(in_features=128, out_features=64, bias=True)
    (3): ReLU()
    (4): Linear(in_features=64, out_features=32, bias=True)
    (5): ReLU()
    (6): Linear(in_features=32, out_features=4, bias=True)
  )
)
INFO: Learning...
INFO: Number of parameters: 177348
INFO: QNetwork(
  (conv_feature): Sequential(
    (0): Conv2d(1, 64, kernel_size=(3, 3), stride=(1, 1))
    (1): ReLU()
    (2): BatchNorm2d(64, eps=1e-05, momentum=0.1, affine=True, track_running_stats=True)
    (3): Conv2d(64, 32, kernel_size=(3, 3), stride=(1, 1))
    (4): ReLU()
    (5): BatchNorm2d(32, eps=1e-05, momentum=0.1, affine=True, track_running_stats=True)
  )
  (fc_feature): Sequential(
    (0): Linear(in_features=1152, out_features=128, bias=True)
    (1): ReLU()
    (2): Linear(in_features=128, out_features=64, bias=True)
    (3): ReLU()
    (4): Linear(in_features=64, out_features=32, bias=True)
    (5): ReLU()
    (6): Linear(in_features=32, out_features=4, bias=True)
  )
)
INFO: Learning...
INFO: Number of parameters: 177348
INFO: QNetwork(
  (conv_feature): Sequential(
    (0): Conv2d(1, 64, kernel_size=(3, 3), stride=(1, 1))
    (1): ReLU()
    (2): BatchNorm2d(64, eps=1e-05, momentum=0.1, affine=True, track_running_stats=True)
    (3): Conv2d(64, 32, kernel_size=(3, 3), stride=(1, 1))
    (4): ReLU()
    (5): BatchNorm2d(32, eps=1e-05, momentum=0.1, affine=True, track_running_stats=True)
  )
  (fc_feature): Sequential(
    (0): Linear(in_features=1152, out_features=128, bias=True)
    (1): ReLU()
    (2): Linear(in_features=128, out_features=64, bias=True)
    (3): ReLU()
    (4): Linear(in_features=64, out_features=32, bias=True)
    (5): ReLU()
    (6): Linear(in_features=32, out_features=4, bias=True)
  )
)
INFO: Learning...
INFO: Number of parameters: 177348
INFO: QNetwork(
  (conv_feature): Sequential(
    (0): Conv2d(1, 64, kernel_size=(3, 3), stride=(1, 1))
    (1): ReLU()
    (2): BatchNorm2d(64, eps=1e-05, momentum=0.1, affine=True, track_running_stats=True)
    (3): Conv2d(64, 32, kernel_size=(3, 3), stride=(1, 1))
    (4): ReLU()
    (5): BatchNorm2d(32, eps=1e-05, momentum=0.1, affine=True, track_running_stats=True)
  )
  (fc_feature): Sequential(
    (0): Linear(in_features=1152, out_features=128, bias=True)
    (1): ReLU()
    (2): Linear(in_features=128, out_features=64, bias=True)
    (3): ReLU()
    (4): Linear(in_features=64, out_features=32, bias=True)
    (5): ReLU()
    (6): Linear(in_features=32, out_features=4, bias=True)
  )
)
INFO: Learning...
INFO: Number of parameters: 177348
INFO: QNetwork(
  (conv_feature): Sequential(
    (0): Conv2d(1, 64, kernel_size=(3, 3), stride=(1, 1))
    (1): ReLU()
    (2): BatchNorm2d(64, eps=1e-05, momentum=0.1, affine=True, track_running_stats=True)
    (3): Conv2d(64, 32, kernel_size=(3, 3), stride=(1, 1))
    (4): ReLU()
    (5): BatchNorm2d(32, eps=1e-05, momentum=0.1, affine=True, track_running_stats=True)
  )
  (fc_feature): Sequential(
    (0): Linear(in_features=1152, out_features=128, bias=True)
    (1): ReLU()
    (2): Linear(in_features=128, out_features=64, bias=True)
    (3): ReLU()
    (4): Linear(in_features=64, out_features=32, bias=True)
    (5): ReLU()
    (6): Linear(in_features=32, out_features=4, bias=True)
  )
)
INFO: Learning...
INFO: Number of parameters: 177348
INFO: QNetwork(
  (conv_feature): Sequential(
    (0): Conv2d(1, 64, kernel_size=(3, 3), stride=(1, 1))
    (1): ReLU()
    (2): BatchNorm2d(64, eps=1e-05, momentum=0.1, affine=True, track_running_stats=True)
    (3): Conv2d(64, 32, kernel_size=(3, 3), stride=(1, 1))
    (4): ReLU()
    (5): BatchNorm2d(32, eps=1e-05, momentum=0.1, affine=True, track_running_stats=True)
  )
  (fc_feature): Sequential(
    (0): Linear(in_features=1152, out_features=128, bias=True)
    (1): ReLU()
    (2): Linear(in_features=128, out_features=64, bias=True)
    (3): ReLU()
    (4): Linear(in_features=64, out_features=32, bias=True)
    (5): ReLU()
    (6): Linear(in_features=32, out_features=4, bias=True)
  )
)
INFO: Learning...
INFO: Number of parameters: 177348
INFO: QNetwork(
  (conv_feature): Sequential(
    (0): Conv2d(1, 64, kernel_size=(3, 3), stride=(1, 1))
    (1): ReLU()
    (2): BatchNorm2d(64, eps=1e-05, momentum=0.1, affine=True, track_running_stats=True)
    (3): Conv2d(64, 32, kernel_size=(3, 3), stride=(1, 1))
    (4): ReLU()
    (5): BatchNorm2d(32, eps=1e-05, momentum=0.1, affine=True, track_running_stats=True)
  )
  (fc_feature): Sequential(
    (0): Linear(in_features=1152, out_features=128, bias=True)
    (1): ReLU()
    (2): Linear(in_features=128, out_features=64, bias=True)
    (3): ReLU()
    (4): Linear(in_features=64, out_features=32, bias=True)
    (5): ReLU()
    (6): Linear(in_features=32, out_features=4, bias=True)
  )
)
INFO: Learning...
INFO: Number of parameters: 177348
INFO: QNetwork(
  (conv_feature): Sequential(
    (0): Conv2d(1, 64, kernel_size=(3, 3), stride=(1, 1))
    (1): ReLU()
    (2): BatchNorm2d(64, eps=1e-05, momentum=0.1, affine=True, track_running_stats=True)
    (3): Conv2d(64, 32, kernel_size=(3, 3), stride=(1, 1))
    (4): ReLU()
    (5): BatchNorm2d(32, eps=1e-05, momentum=0.1, affine=True, track_running_stats=True)
  )
  (fc_feature): Sequential(
    (0): Linear(in_features=1152, out_features=128, bias=True)
    (1): ReLU()
    (2): Linear(in_features=128, out_features=64, bias=True)
    (3): ReLU()
    (4): Linear(in_features=64, out_features=32, bias=True)
    (5): ReLU()
    (6): Linear(in_features=32, out_features=4, bias=True)
  )
)
INFO: Learning...
INFO: Number of parameters: 177348
INFO: QNetwork(
  (conv_feature): Sequential(
    (0): Conv2d(1, 64, kernel_size=(3, 3), stride=(1, 1))
    (1): ReLU()
    (2): BatchNorm2d(64, eps=1e-05, momentum=0.1, affine=True, track_running_stats=True)
    (3): Conv2d(64, 32, kernel_size=(3, 3), stride=(1, 1))
    (4): ReLU()
    (5): BatchNorm2d(32, eps=1e-05, momentum=0.1, affine=True, track_running_stats=True)
  )
  (fc_feature): Sequential(
    (0): Linear(in_features=1152, out_features=128, bias=True)
    (1): ReLU()
    (2): Linear(in_features=128, out_features=64, bias=True)
    (3): ReLU()
    (4): Linear(in_features=64, out_features=32, bias=True)
    (5): ReLU()
    (6): Linear(in_features=32, out_features=4, bias=True)
  )
)
INFO: Learning...
INFO: Number of parameters: 66756
INFO: QNetwork(
  (conv_feature): Sequential(
    (0): Conv2d(1, 64, kernel_size=(3, 3), stride=(1, 1))
    (1): ReLU()
    (2): BatchNorm2d(64, eps=1e-05, momentum=0.1, affine=True, track_running_stats=True)
    (3): Conv2d(64, 32, kernel_size=(3, 3), stride=(1, 1))
    (4): ReLU()
    (5): BatchNorm2d(32, eps=1e-05, momentum=0.1, affine=True, track_running_stats=True)
  )
  (fc_feature): Sequential(
    (0): Linear(in_features=288, out_features=128, bias=True)
    (1): ReLU()
    (2): Linear(in_features=128, out_features=64, bias=True)
    (3): ReLU()
    (4): Linear(in_features=64, out_features=32, bias=True)
    (5): ReLU()
    (6): Linear(in_features=32, out_features=4, bias=True)
  )
)
WARNING: GIF is enabled but the environment does not support RGB array rendering.
INFO: Learning...
INFO: BootcampName.HIDER bootcamp completed, starting BootcampName.SEEKER bootcamp
ERROR: boolean index did not match indexed array along dimension 0; dimension is 10 but corresponding boolean dimension is 7
WARNING: Error: Could not find wandb directory: ./wandb
INFO: Number of parameters: 66756
INFO: QNetwork(
  (conv_feature): Sequential(
    (0): Conv2d(1, 64, kernel_size=(3, 3), stride=(1, 1))
    (1): ReLU()
    (2): BatchNorm2d(64, eps=1e-05, momentum=0.1, affine=True, track_running_stats=True)
    (3): Conv2d(64, 32, kernel_size=(3, 3), stride=(1, 1))
    (4): ReLU()
    (5): BatchNorm2d(32, eps=1e-05, momentum=0.1, affine=True, track_running_stats=True)
  )
  (fc_feature): Sequential(
    (0): Linear(in_features=288, out_features=128, bias=True)
    (1): ReLU()
    (2): Linear(in_features=128, out_features=64, bias=True)
    (3): ReLU()
    (4): Linear(in_features=64, out_features=32, bias=True)
    (5): ReLU()
    (6): Linear(in_features=32, out_features=4, bias=True)
  )
)
WARNING: GIF is enabled but the environment does not support RGB array rendering.
INFO: Learning...
INFO: BootcampName.HIDER bootcamp completed, starting BootcampName.SEEKER bootcamp
ERROR: boolean index did not match indexed array along dimension 0; dimension is 10 but corresponding boolean dimension is 7
WARNING: Error: Could not find wandb directory: ./wandb
INFO: Number of parameters: 66756
INFO: QNetwork(
  (conv_feature): Sequential(
    (0): Conv2d(1, 64, kernel_size=(3, 3), stride=(1, 1))
    (1): ReLU()
    (2): BatchNorm2d(64, eps=1e-05, momentum=0.1, affine=True, track_running_stats=True)
    (3): Conv2d(64, 32, kernel_size=(3, 3), stride=(1, 1))
    (4): ReLU()
    (5): BatchNorm2d(32, eps=1e-05, momentum=0.1, affine=True, track_running_stats=True)
  )
  (fc_feature): Sequential(
    (0): Linear(in_features=288, out_features=128, bias=True)
    (1): ReLU()
    (2): Linear(in_features=128, out_features=64, bias=True)
    (3): ReLU()
    (4): Linear(in_features=64, out_features=32, bias=True)
    (5): ReLU()
    (6): Linear(in_features=32, out_features=4, bias=True)
  )
)
WARNING: GIF is enabled but the environment does not support RGB array rendering.
INFO: Learning...
INFO: BootcampName.HIDER bootcamp completed, starting BootcampName.SEEKER bootcamp
ERROR: boolean index did not match indexed array along dimension 0; dimension is 10 but corresponding boolean dimension is 7
ERROR: Traceback (most recent call last):
  File "/home/eirik/Projects/XAI/rl/src/dqn/wrapper/multi_agent_dqn.py", line 74, in learn
…
  File "/home/eirik/Projects/XAI/environments/gymnasium/envs/tag/tag_renderer.py", line 64, in render
    self.apply_color_masks(color_matrix, state)
  File "/home/eirik/Projects/XAI/environments/gymnasium/envs/tag/tag_renderer.py", line 94, in apply_color_masks
    color_matrix[full_state == TileType.OBSTACLE.value] = Color.BLACK.value
    ~~~~~~~~~~~~^^^^^^^^^^^^^^^^^^^^^^^^^^^^^^^^^^^^^^^
IndexError: boolean index did not match indexed array along dimension 0; dimension is 10 but corresponding boolean dimension is 7

WARNING: Error: Could not find wandb directory: ./wandb
INFO: Number of parameters: 177348
INFO: QNetwork(
  (conv_feature): Sequential(
    (0): Conv2d(1, 64, kernel_size=(3, 3), stride=(1, 1))
    (1): ReLU()
    (2): BatchNorm2d(64, eps=1e-05, momentum=0.1, affine=True, track_running_stats=True)
    (3): Conv2d(64, 32, kernel_size=(3, 3), stride=(1, 1))
    (4): ReLU()
    (5): BatchNorm2d(32, eps=1e-05, momentum=0.1, affine=True, track_running_stats=True)
  )
  (fc_feature): Sequential(
    (0): Linear(in_features=1152, out_features=128, bias=True)
    (1): ReLU()
    (2): Linear(in_features=128, out_features=64, bias=True)
    (3): ReLU()
    (4): Linear(in_features=64, out_features=32, bias=True)
    (5): ReLU()
    (6): Linear(in_features=32, out_features=4, bias=True)
  )
)
WARNING: GIF is enabled but the environment does not support RGB array rendering.
INFO: Learning...
INFO: BootcampName.HIDER bootcamp completed, starting BootcampName.SEEKER bootcamp
WARNING: No frames in gif to save.
WARNING: No frames in gif to save.
WARNING: No frames in gif to save.
WARNING: No frames in gif to save.
WARNING: No frames in gif to save.
…
WARNING: No frames in gif to save.
WARNING: No frames in gif to save.
WARNING: No frames in gif to save.
WARNING: No frames in gif to save.
WARNING: No frames in gif to save.
WARNING: No frames in gif to save.
INFO: BootcampName.SEEKER bootcamp completed, starting BootcampName.SLOW_HIDER bootcamp
WARNING: No frames in gif to save.
WARNING: No frames in gif to save.
INFO: Cleaning cache: /home/eirik/.cache/wandb/artifacts/obj 0.00390625 MB
INFO: cleaning local: /home/eirik/.local/share/wandb/artifacts/staging 0.00390625 MB
INFO: Number of parameters: 177348
INFO: QNetwork(
  (conv_feature): Sequential(
    (0): Conv2d(1, 64, kernel_size=(3, 3), stride=(1, 1))
    (1): ReLU()
    (2): BatchNorm2d(64, eps=1e-05, momentum=0.1, affine=True, track_running_stats=True)
    (3): Conv2d(64, 32, kernel_size=(3, 3), stride=(1, 1))
    (4): ReLU()
    (5): BatchNorm2d(32, eps=1e-05, momentum=0.1, affine=True, track_running_stats=True)
  )
  (fc_feature): Sequential(
    (0): Linear(in_features=1152, out_features=128, bias=True)
    (1): ReLU()
    (2): Linear(in_features=128, out_features=64, bias=True)
    (3): ReLU()
    (4): Linear(in_features=64, out_features=32, bias=True)
    (5): ReLU()
    (6): Linear(in_features=32, out_features=4, bias=True)
  )
)
WARNING: GIF is enabled but the environment does not support RGB array rendering.
INFO: Learning...
INFO: BootcampName.HIDER bootcamp completed, starting BootcampName.SEEKER bootcamp
INFO: Number of parameters: 177348
INFO: QNetwork(
  (conv_feature): Sequential(
    (0): Conv2d(1, 64, kernel_size=(3, 3), stride=(1, 1))
    (1): ReLU()
    (2): BatchNorm2d(64, eps=1e-05, momentum=0.1, affine=True, track_running_stats=True)
    (3): Conv2d(64, 32, kernel_size=(3, 3), stride=(1, 1))
    (4): ReLU()
    (5): BatchNorm2d(32, eps=1e-05, momentum=0.1, affine=True, track_running_stats=True)
  )
  (fc_feature): Sequential(
    (0): Linear(in_features=1152, out_features=128, bias=True)
    (1): ReLU()
    (2): Linear(in_features=128, out_features=64, bias=True)
    (3): ReLU()
    (4): Linear(in_features=64, out_features=32, bias=True)
    (5): ReLU()
    (6): Linear(in_features=32, out_features=4, bias=True)
  )
)
WARNING: GIF is enabled but the environment does not support RGB array rendering.
INFO: Learning...
INFO: BootcampName.HIDER bootcamp completed, starting BootcampName.SEEKER bootcamp
INFO: Number of parameters: 177348
INFO: QNetwork(
  (conv_feature): Sequential(
    (0): Conv2d(1, 64, kernel_size=(3, 3), stride=(1, 1))
    (1): ReLU()
    (2): BatchNorm2d(64, eps=1e-05, momentum=0.1, affine=True, track_running_stats=True)
    (3): Conv2d(64, 32, kernel_size=(3, 3), stride=(1, 1))
    (4): ReLU()
    (5): BatchNorm2d(32, eps=1e-05, momentum=0.1, affine=True, track_running_stats=True)
  )
  (fc_feature): Sequential(
    (0): Linear(in_features=1152, out_features=128, bias=True)
    (1): ReLU()
    (2): Linear(in_features=128, out_features=64, bias=True)
    (3): ReLU()
    (4): Linear(in_features=64, out_features=32, bias=True)
    (5): ReLU()
    (6): Linear(in_features=32, out_features=4, bias=True)
  )
)
WARNING: GIF is enabled but the environment does not support RGB array rendering.
INFO: Learning...
INFO: BootcampName.HIDER bootcamp completed, starting BootcampName.SEEKER bootcamp
INFO: Number of parameters: 177348
INFO: QNetwork(
  (conv_feature): Sequential(
    (0): Conv2d(1, 64, kernel_size=(3, 3), stride=(1, 1))
    (1): ReLU()
    (2): BatchNorm2d(64, eps=1e-05, momentum=0.1, affine=True, track_running_stats=True)
    (3): Conv2d(64, 32, kernel_size=(3, 3), stride=(1, 1))
    (4): ReLU()
    (5): BatchNorm2d(32, eps=1e-05, momentum=0.1, affine=True, track_running_stats=True)
  )
  (fc_feature): Sequential(
    (0): Linear(in_features=1152, out_features=128, bias=True)
    (1): ReLU()
    (2): Linear(in_features=128, out_features=64, bias=True)
    (3): ReLU()
    (4): Linear(in_features=64, out_features=32, bias=True)
    (5): ReLU()
    (6): Linear(in_features=32, out_features=4, bias=True)
  )
)
WARNING: GIF is enabled but the environment does not support RGB array rendering.
INFO: Learning...
INFO: BootcampName.HIDER bootcamp completed, starting BootcampName.SEEKER bootcamp
INFO: Number of parameters: 177348
INFO: QNetwork(
  (conv_feature): Sequential(
    (0): Conv2d(1, 64, kernel_size=(3, 3), stride=(1, 1))
    (1): ReLU()
    (2): BatchNorm2d(64, eps=1e-05, momentum=0.1, affine=True, track_running_stats=True)
    (3): Conv2d(64, 32, kernel_size=(3, 3), stride=(1, 1))
    (4): ReLU()
    (5): BatchNorm2d(32, eps=1e-05, momentum=0.1, affine=True, track_running_stats=True)
  )
  (fc_feature): Sequential(
    (0): Linear(in_features=1152, out_features=128, bias=True)
    (1): ReLU()
    (2): Linear(in_features=128, out_features=64, bias=True)
    (3): ReLU()
    (4): Linear(in_features=64, out_features=32, bias=True)
    (5): ReLU()
    (6): Linear(in_features=32, out_features=4, bias=True)
  )
)
WARNING: GIF is enabled but the environment does not support RGB array rendering.
INFO: Learning...
INFO: BootcampName.HIDER bootcamp completed, starting BootcampName.SEEKER bootcamp
INFO: Number of parameters: 177348
INFO: QNetwork(
  (conv_feature): Sequential(
    (0): Conv2d(1, 64, kernel_size=(3, 3), stride=(1, 1))
    (1): ReLU()
    (2): BatchNorm2d(64, eps=1e-05, momentum=0.1, affine=True, track_running_stats=True)
    (3): Conv2d(64, 32, kernel_size=(3, 3), stride=(1, 1))
    (4): ReLU()
    (5): BatchNorm2d(32, eps=1e-05, momentum=0.1, affine=True, track_running_stats=True)
  )
  (fc_feature): Sequential(
    (0): Linear(in_features=1152, out_features=128, bias=True)
    (1): ReLU()
    (2): Linear(in_features=128, out_features=64, bias=True)
    (3): ReLU()
    (4): Linear(in_features=64, out_features=32, bias=True)
    (5): ReLU()
    (6): Linear(in_features=32, out_features=4, bias=True)
  )
)
WARNING: GIF is enabled but the environment does not support RGB array rendering.
INFO: Learning...
INFO: BootcampName.HIDER bootcamp completed, starting BootcampName.SEEKER bootcamp
INFO: Number of parameters: 177348
INFO: QNetwork(
  (conv_feature): Sequential(
    (0): Conv2d(1, 64, kernel_size=(3, 3), stride=(1, 1))
    (1): ReLU()
    (2): BatchNorm2d(64, eps=1e-05, momentum=0.1, affine=True, track_running_stats=True)
    (3): Conv2d(64, 32, kernel_size=(3, 3), stride=(1, 1))
    (4): ReLU()
    (5): BatchNorm2d(32, eps=1e-05, momentum=0.1, affine=True, track_running_stats=True)
  )
  (fc_feature): Sequential(
    (0): Linear(in_features=1152, out_features=128, bias=True)
    (1): ReLU()
    (2): Linear(in_features=128, out_features=64, bias=True)
    (3): ReLU()
    (4): Linear(in_features=64, out_features=32, bias=True)
    (5): ReLU()
    (6): Linear(in_features=32, out_features=4, bias=True)
  )
)
WARNING: GIF is enabled but the environment does not support RGB array rendering.
INFO: Learning...
INFO: BootcampName.HIDER bootcamp completed, starting BootcampName.SEEKER bootcamp
INFO: Number of parameters: 177348
INFO: QNetwork(
  (conv_feature): Sequential(
    (0): Conv2d(1, 64, kernel_size=(3, 3), stride=(1, 1))
    (1): ReLU()
    (2): BatchNorm2d(64, eps=1e-05, momentum=0.1, affine=True, track_running_stats=True)
    (3): Conv2d(64, 32, kernel_size=(3, 3), stride=(1, 1))
    (4): ReLU()
    (5): BatchNorm2d(32, eps=1e-05, momentum=0.1, affine=True, track_running_stats=True)
  )
  (fc_feature): Sequential(
    (0): Linear(in_features=1152, out_features=128, bias=True)
    (1): ReLU()
    (2): Linear(in_features=128, out_features=64, bias=True)
    (3): ReLU()
    (4): Linear(in_features=64, out_features=32, bias=True)
    (5): ReLU()
    (6): Linear(in_features=32, out_features=4, bias=True)
  )
)
WARNING: GIF is enabled but the environment does not support RGB array rendering.
INFO: Learning...
INFO: BootcampName.HIDER bootcamp completed, starting BootcampName.SEEKER bootcamp
INFO: Number of parameters: 177348
INFO: QNetwork(
  (conv_feature): Sequential(
    (0): Conv2d(1, 64, kernel_size=(3, 3), stride=(1, 1))
    (1): ReLU()
    (2): BatchNorm2d(64, eps=1e-05, momentum=0.1, affine=True, track_running_stats=True)
    (3): Conv2d(64, 32, kernel_size=(3, 3), stride=(1, 1))
    (4): ReLU()
    (5): BatchNorm2d(32, eps=1e-05, momentum=0.1, affine=True, track_running_stats=True)
  )
  (fc_feature): Sequential(
    (0): Linear(in_features=1152, out_features=128, bias=True)
    (1): ReLU()
    (2): Linear(in_features=128, out_features=64, bias=True)
    (3): ReLU()
    (4): Linear(in_features=64, out_features=32, bias=True)
    (5): ReLU()
    (6): Linear(in_features=32, out_features=4, bias=True)
  )
)
WARNING: GIF is enabled but the environment does not support RGB array rendering.
INFO: Learning...
INFO: BootcampName.HIDER bootcamp completed, starting BootcampName.SEEKER bootcamp
ERROR: can only concatenate tuple (not "float") to tuple
ERROR: Traceback (most recent call last):
  File "/home/eirik/Projects/XAI/rl/src/dqn/wrapper/multi_agent_dqn.py", line 74, in learn
…
  File "/home/eirik/Projects/XAI/environments/gymnasium/envs/tag/tag.py", line 230, in concatenate_states
    rewards, tag_terminated = self.tag_rewards.get_tag_reward(
                              ^^^^^^^^^^^^^^^^^^^^^^^^^^^^^^^^
  File "/home/eirik/Projects/XAI/environments/gymnasium/envs/tag/tag_rewards.py", line 37, in get_tag_reward
    self.not_tagged_reward + exp_distance,
    ~~~~~~~~~~~~~~~~~~~~~~~^~~~~~~~~~~~~~
TypeError: can only concatenate tuple (not "float") to tuple

WARNING: Error: Could not find wandb directory: ./wandb
INFO: Number of parameters: 177348
INFO: QNetwork(
  (conv_feature): Sequential(
    (0): Conv2d(1, 64, kernel_size=(3, 3), stride=(1, 1))
    (1): ReLU()
    (2): BatchNorm2d(64, eps=1e-05, momentum=0.1, affine=True, track_running_stats=True)
    (3): Conv2d(64, 32, kernel_size=(3, 3), stride=(1, 1))
    (4): ReLU()
    (5): BatchNorm2d(32, eps=1e-05, momentum=0.1, affine=True, track_running_stats=True)
  )
  (fc_feature): Sequential(
    (0): Linear(in_features=1152, out_features=128, bias=True)
    (1): ReLU()
    (2): Linear(in_features=128, out_features=64, bias=True)
    (3): ReLU()
    (4): Linear(in_features=64, out_features=32, bias=True)
    (5): ReLU()
    (6): Linear(in_features=32, out_features=4, bias=True)
  )
)
WARNING: GIF is enabled but the environment does not support RGB array rendering.
INFO: Learning...
INFO: BootcampName.HIDER bootcamp completed, starting BootcampName.SEEKER bootcamp
WARNING: No frames in gif to save.
WARNING: No frames in gif to save.
WARNING: No frames in gif to save.
WARNING: No frames in gif to save.
WARNING: No frames in gif to save.
WARNING: No frames in gif to save.
INFO: Number of parameters: 177348
INFO: QNetwork(
  (conv_feature): Sequential(
    (0): Conv2d(1, 64, kernel_size=(3, 3), stride=(1, 1))
    (1): ReLU()
    (2): BatchNorm2d(64, eps=1e-05, momentum=0.1, affine=True, track_running_stats=True)
    (3): Conv2d(64, 32, kernel_size=(3, 3), stride=(1, 1))
    (4): ReLU()
    (5): BatchNorm2d(32, eps=1e-05, momentum=0.1, affine=True, track_running_stats=True)
  )
  (fc_feature): Sequential(
    (0): Linear(in_features=1152, out_features=128, bias=True)
    (1): ReLU()
    (2): Linear(in_features=128, out_features=64, bias=True)
    (3): ReLU()
    (4): Linear(in_features=64, out_features=32, bias=True)
    (5): ReLU()
    (6): Linear(in_features=32, out_features=4, bias=True)
  )
)
WARNING: GIF is enabled but the environment does not support RGB array rendering.
INFO: Learning...
INFO: BootcampName.HIDER bootcamp completed, starting BootcampName.SEEKER bootcamp
ERROR: not enough values to unpack (expected 6, got 4)
ERROR: Traceback (most recent call last):
  File "/home/eirik/Projects/XAI/rl/src/dqn/wrapper/multi_agent_dqn.py", line 75, in learn
    self._collect_rollouts()
  File "/home/eirik/Projects/XAI/rl/src/dqn/wrapper/multi_agent_dqn.py", line 139, in _collect_rollouts
    ) = self.env.get_wrapper_attr("step_multiple")(actions)
        ^^^^^^^^^^^^^^^^^^^^^^^^^^^^^^^^^^^^^^^^^^^^^^^^^^^
  File "/home/eirik/Projects/XAI/environments/gymnasium/wrappers/multi_agent_env.py", line 37, in step_multiple
    (
ValueError: not enough values to unpack (expected 6, got 4)

WARNING: Error: Could not find wandb directory: ./wandb
INFO: Number of parameters: 177348
INFO: QNetwork(
  (conv_feature): Sequential(
    (0): Conv2d(1, 64, kernel_size=(3, 3), stride=(1, 1))
    (1): ReLU()
    (2): BatchNorm2d(64, eps=1e-05, momentum=0.1, affine=True, track_running_stats=True)
    (3): Conv2d(64, 32, kernel_size=(3, 3), stride=(1, 1))
    (4): ReLU()
    (5): BatchNorm2d(32, eps=1e-05, momentum=0.1, affine=True, track_running_stats=True)
  )
  (fc_feature): Sequential(
    (0): Linear(in_features=1152, out_features=128, bias=True)
    (1): ReLU()
    (2): Linear(in_features=128, out_features=64, bias=True)
    (3): ReLU()
    (4): Linear(in_features=64, out_features=32, bias=True)
    (5): ReLU()
    (6): Linear(in_features=32, out_features=4, bias=True)
  )
)
WARNING: GIF is enabled but the environment does not support RGB array rendering.
INFO: Learning...
INFO: BootcampName.HIDER bootcamp completed, starting BootcampName.SEEKER bootcamp
WARNING: No frames in gif to save.
WARNING: No frames in gif to save.
WARNING: No frames in gif to save.
WARNING: No frames in gif to save.
WARNING: No frames in gif to save.
WARNING: No frames in gif to save.
INFO: Number of parameters: 177348
INFO: QNetwork(
  (conv_feature): Sequential(
    (0): Conv2d(1, 64, kernel_size=(3, 3), stride=(1, 1))
    (1): ReLU()
    (2): BatchNorm2d(64, eps=1e-05, momentum=0.1, affine=True, track_running_stats=True)
    (3): Conv2d(64, 32, kernel_size=(3, 3), stride=(1, 1))
    (4): ReLU()
    (5): BatchNorm2d(32, eps=1e-05, momentum=0.1, affine=True, track_running_stats=True)
  )
  (fc_feature): Sequential(
    (0): Linear(in_features=1152, out_features=128, bias=True)
    (1): ReLU()
    (2): Linear(in_features=128, out_features=64, bias=True)
    (3): ReLU()
    (4): Linear(in_features=64, out_features=32, bias=True)
    (5): ReLU()
    (6): Linear(in_features=32, out_features=4, bias=True)
  )
)
WARNING: GIF is enabled but the environment does not support RGB array rendering.
INFO: Learning...
INFO: BootcampName.HIDER bootcamp completed, starting BootcampName.SEEKER bootcamp
WARNING: No frames in gif to save.
WARNING: No frames in gif to save.
WARNING: No frames in gif to save.
WARNING: No frames in gif to save.
WARNING: No frames in gif to save.
WARNING: No frames in gif to save.
WARNING: No frames in gif to save.
WARNING: No frames in gif to save.
INFO: Number of parameters: 177348
INFO: QNetwork(
  (conv_feature): Sequential(
    (0): Conv2d(1, 64, kernel_size=(3, 3), stride=(1, 1))
    (1): ReLU()
    (2): BatchNorm2d(64, eps=1e-05, momentum=0.1, affine=True, track_running_stats=True)
    (3): Conv2d(64, 32, kernel_size=(3, 3), stride=(1, 1))
    (4): ReLU()
    (5): BatchNorm2d(32, eps=1e-05, momentum=0.1, affine=True, track_running_stats=True)
  )
  (fc_feature): Sequential(
    (0): Linear(in_features=1152, out_features=128, bias=True)
    (1): ReLU()
    (2): Linear(in_features=128, out_features=64, bias=True)
    (3): ReLU()
    (4): Linear(in_features=64, out_features=32, bias=True)
    (5): ReLU()
    (6): Linear(in_features=32, out_features=4, bias=True)
  )
)
WARNING: GIF is enabled but the environment does not support RGB array rendering.
INFO: Learning...
INFO: BootcampName.HIDER bootcamp completed, starting BootcampName.SEEKER bootcamp
INFO: Number of parameters: 177348
INFO: QNetwork(
  (conv_feature): Sequential(
    (0): Conv2d(1, 64, kernel_size=(3, 3), stride=(1, 1))
    (1): ReLU()
    (2): BatchNorm2d(64, eps=1e-05, momentum=0.1, affine=True, track_running_stats=True)
    (3): Conv2d(64, 32, kernel_size=(3, 3), stride=(1, 1))
    (4): ReLU()
    (5): BatchNorm2d(32, eps=1e-05, momentum=0.1, affine=True, track_running_stats=True)
  )
  (fc_feature): Sequential(
    (0): Linear(in_features=1152, out_features=128, bias=True)
    (1): ReLU()
    (2): Linear(in_features=128, out_features=64, bias=True)
    (3): ReLU()
    (4): Linear(in_features=64, out_features=32, bias=True)
    (5): ReLU()
    (6): Linear(in_features=32, out_features=4, bias=True)
  )
)
WARNING: GIF is enabled but the environment does not support RGB array rendering.
INFO: Learning...
INFO: BootcampName.HIDER bootcamp completed, starting BootcampName.SEEKER bootcamp
WARNING: No frames in gif to save.
WARNING: No frames in gif to save.
WARNING: No frames in gif to save.
WARNING: No frames in gif to save.
WARNING: No frames in gif to save.
WARNING: No frames in gif to save.
WARNING: No frames in gif to save.
WARNING: No frames in gif to save.
WARNING: No frames in gif to save.
WARNING: No frames in gif to save.
INFO: Number of parameters: 177348
INFO: QNetwork(
  (conv_feature): Sequential(
    (0): Conv2d(1, 64, kernel_size=(3, 3), stride=(1, 1))
    (1): ReLU()
    (2): BatchNorm2d(64, eps=1e-05, momentum=0.1, affine=True, track_running_stats=True)
    (3): Conv2d(64, 32, kernel_size=(3, 3), stride=(1, 1))
    (4): ReLU()
    (5): BatchNorm2d(32, eps=1e-05, momentum=0.1, affine=True, track_running_stats=True)
  )
  (fc_feature): Sequential(
    (0): Linear(in_features=1152, out_features=128, bias=True)
    (1): ReLU()
    (2): Linear(in_features=128, out_features=64, bias=True)
    (3): ReLU()
    (4): Linear(in_features=64, out_features=32, bias=True)
    (5): ReLU()
    (6): Linear(in_features=32, out_features=4, bias=True)
  )
)
WARNING: GIF is enabled but the environment does not support RGB array rendering.
INFO: Learning...
INFO: BootcampName.HIDER bootcamp completed, starting BootcampName.SEEKER bootcamp
WARNING: No frames in gif to save.
WARNING: No frames in gif to save.
WARNING: No frames in gif to save.
WARNING: No frames in gif to save.
WARNING: No frames in gif to save.
WARNING: No frames in gif to save.
WARNING: No frames in gif to save.
WARNING: No frames in gif to save.
WARNING: No frames in gif to save.
WARNING: No frames in gif to save.
WARNING: No frames in gif to save.
WARNING: No frames in gif to save.
WARNING: No frames in gif to save.
WARNING: No frames in gif to save.
WARNING: No frames in gif to save.
WARNING: No frames in gif to save.
WARNING: No frames in gif to save.
WARNING: No frames in gif to save.
INFO: Number of parameters: 177348
INFO: QNetwork(
  (conv_feature): Sequential(
    (0): Conv2d(1, 64, kernel_size=(3, 3), stride=(1, 1))
    (1): ReLU()
    (2): BatchNorm2d(64, eps=1e-05, momentum=0.1, affine=True, track_running_stats=True)
    (3): Conv2d(64, 32, kernel_size=(3, 3), stride=(1, 1))
    (4): ReLU()
    (5): BatchNorm2d(32, eps=1e-05, momentum=0.1, affine=True, track_running_stats=True)
  )
  (fc_feature): Sequential(
    (0): Linear(in_features=1152, out_features=128, bias=True)
    (1): ReLU()
    (2): Linear(in_features=128, out_features=64, bias=True)
    (3): ReLU()
    (4): Linear(in_features=64, out_features=32, bias=True)
    (5): ReLU()
    (6): Linear(in_features=32, out_features=4, bias=True)
  )
)
WARNING: GIF is enabled but the environment does not support RGB array rendering.
INFO: Learning...
INFO: BootcampName.HIDER bootcamp completed, starting BootcampName.SEEKER bootcamp
WARNING: No frames in gif to save.
WARNING: No frames in gif to save.
WARNING: No frames in gif to save.
WARNING: No frames in gif to save.
WARNING: No frames in gif to save.
WARNING: No frames in gif to save.
WARNING: No frames in gif to save.
WARNING: No frames in gif to save.
WARNING: No frames in gif to save.
WARNING: No frames in gif to save.
WARNING: No frames in gif to save.
WARNING: No frames in gif to save.
INFO: Number of parameters: 29956
INFO: QNetwork(
  (conv_feature): Sequential()
  (fc_feature): Sequential(
    (0): Linear(in_features=100, out_features=128, bias=True)
    (1): ReLU()
    (2): Linear(in_features=128, out_features=128, bias=True)
    (3): ReLU()
    (4): Linear(in_features=128, out_features=4, bias=True)
  )
)
WARNING: GIF is enabled but the environment does not support RGB array rendering.
INFO: Learning...
INFO: BootcampName.HIDER bootcamp completed, starting BootcampName.SEEKER bootcamp
WARNING: No frames in gif to save.
WARNING: No frames in gif to save.
WARNING: No frames in gif to save.
WARNING: No frames in gif to save.
WARNING: No frames in gif to save.
WARNING: No frames in gif to save.
WARNING: No frames in gif to save.
WARNING: No frames in gif to save.
WARNING: No frames in gif to save.
WARNING: No frames in gif to save.
INFO: Number of parameters: 29956
INFO: QNetwork(
  (conv_feature): Sequential()
  (fc_feature): Sequential(
    (0): Linear(in_features=100, out_features=128, bias=True)
    (1): ReLU()
    (2): Linear(in_features=128, out_features=128, bias=True)
    (3): ReLU()
    (4): Linear(in_features=128, out_features=4, bias=True)
  )
)
WARNING: GIF is enabled but the environment does not support RGB array rendering.
INFO: Learning...
INFO: BootcampName.HIDER bootcamp completed, starting BootcampName.SEEKER bootcamp
WARNING: No frames in gif to save.
WARNING: No frames in gif to save.
WARNING: No frames in gif to save.
WARNING: No frames in gif to save.
WARNING: No frames in gif to save.
…
WARNING: No frames in gif to save.
WARNING: No frames in gif to save.
INFO: Cleaning cache: /home/eirik/.cache/wandb/artifacts/obj 0.00390625 MB
INFO: cleaning local: /home/eirik/.local/share/wandb/artifacts/staging 0.00390625 MB
WARNING: No frames in gif to save.
WARNING: No frames in gif to save.
WARNING: No frames in gif to save.
WARNING: No frames in gif to save.
WARNING: No frames in gif to save.
WARNING: No frames in gif to save.
WARNING: No frames in gif to save.
WARNING: No frames in gif to save.
INFO: Number of parameters: 29956
INFO: QNetwork(
  (conv_feature): Sequential()
  (fc_feature): Sequential(
    (0): Linear(in_features=100, out_features=128, bias=True)
    (1): ReLU()
    (2): Linear(in_features=128, out_features=128, bias=True)
    (3): ReLU()
    (4): Linear(in_features=128, out_features=4, bias=True)
  )
)
WARNING: GIF is enabled but the environment does not support RGB array rendering.
INFO: Learning...
INFO: BootcampName.HIDER bootcamp completed, starting BootcampName.SEEKER bootcamp
WARNING: No frames in gif to save.
WARNING: No frames in gif to save.
INFO: Number of parameters: 29956
INFO: QNetwork(
  (conv_feature): Sequential()
  (fc_feature): Sequential(
    (0): Linear(in_features=100, out_features=128, bias=True)
    (1): ReLU()
    (2): Linear(in_features=128, out_features=128, bias=True)
    (3): ReLU()
    (4): Linear(in_features=128, out_features=4, bias=True)
  )
)
WARNING: GIF is enabled but the environment does not support RGB array rendering.
INFO: Learning...
INFO: BootcampName.HIDER bootcamp completed, starting BootcampName.SEEKER bootcamp
WARNING: No frames in gif to save.
WARNING: No frames in gif to save.
WARNING: No frames in gif to save.
WARNING: No frames in gif to save.
INFO: Number of parameters: 29956
INFO: QNetwork(
  (conv_feature): Sequential()
  (fc_feature): Sequential(
    (0): Linear(in_features=100, out_features=128, bias=True)
    (1): ReLU()
    (2): Linear(in_features=128, out_features=128, bias=True)
    (3): ReLU()
    (4): Linear(in_features=128, out_features=4, bias=True)
  )
)
WARNING: GIF is enabled but the environment does not support RGB array rendering.
INFO: Learning...
INFO: BootcampName.HIDER bootcamp completed, starting BootcampName.SEEKER bootcamp
WARNING: No frames in gif to save.
WARNING: No frames in gif to save.
INFO: Number of parameters: 29956
INFO: QNetwork(
  (conv_feature): Sequential()
  (fc_feature): Sequential(
    (0): Linear(in_features=100, out_features=128, bias=True)
    (1): ReLU()
    (2): Linear(in_features=128, out_features=128, bias=True)
    (3): ReLU()
    (4): Linear(in_features=128, out_features=4, bias=True)
  )
)
WARNING: GIF is enabled but the environment does not support RGB array rendering.
INFO: Learning...
INFO: BootcampName.HIDER bootcamp completed, starting BootcampName.SEEKER bootcamp
WARNING: No frames in gif to save.
WARNING: No frames in gif to save.
WARNING: No frames in gif to save.
WARNING: No frames in gif to save.
INFO: Number of parameters: 29956
INFO: QNetwork(
  (conv_feature): Sequential()
  (fc_feature): Sequential(
    (0): Linear(in_features=100, out_features=128, bias=True)
    (1): ReLU()
    (2): Linear(in_features=128, out_features=128, bias=True)
    (3): ReLU()
    (4): Linear(in_features=128, out_features=4, bias=True)
  )
)
WARNING: GIF is enabled but the environment does not support RGB array rendering.
INFO: Learning...
INFO: BootcampName.HIDER bootcamp completed, starting BootcampName.SEEKER bootcamp
WARNING: No frames in gif to save.
WARNING: No frames in gif to save.
WARNING: No frames in gif to save.
WARNING: No frames in gif to save.
INFO: Number of parameters: 29956
INFO: QNetwork(
  (conv_feature): Sequential()
  (fc_feature): Sequential(
    (0): Linear(in_features=100, out_features=128, bias=True)
    (1): ReLU()
    (2): Linear(in_features=128, out_features=128, bias=True)
    (3): ReLU()
    (4): Linear(in_features=128, out_features=4, bias=True)
  )
)
WARNING: GIF is enabled but the environment does not support RGB array rendering.
INFO: Learning...
INFO: BootcampName.HIDER bootcamp completed, starting BootcampName.SEEKER bootcamp
INFO: Number of parameters: 29956
INFO: QNetwork(
  (conv_feature): Sequential()
  (fc_feature): Sequential(
    (0): Linear(in_features=100, out_features=128, bias=True)
    (1): ReLU()
    (2): Linear(in_features=128, out_features=128, bias=True)
    (3): ReLU()
    (4): Linear(in_features=128, out_features=4, bias=True)
  )
)
WARNING: GIF is enabled but the environment does not support RGB array rendering.
INFO: Learning...
INFO: BootcampName.HIDER bootcamp completed, starting BootcampName.SEEKER bootcamp
WARNING: No frames in gif to save.
WARNING: No frames in gif to save.
INFO: Number of parameters: 29956
INFO: QNetwork(
  (conv_feature): Sequential()
  (fc_feature): Sequential(
    (0): Linear(in_features=100, out_features=128, bias=True)
    (1): ReLU()
    (2): Linear(in_features=128, out_features=128, bias=True)
    (3): ReLU()
    (4): Linear(in_features=128, out_features=4, bias=True)
  )
)
WARNING: GIF is enabled but the environment does not support RGB array rendering.
INFO: Learning...
INFO: BootcampName.HIDER bootcamp completed, starting BootcampName.SEEKER bootcamp
WARNING: No frames in gif to save.
WARNING: No frames in gif to save.
WARNING: No frames in gif to save.
WARNING: No frames in gif to save.
INFO: Number of parameters: 29956
INFO: QNetwork(
  (conv_feature): Sequential()
  (fc_feature): Sequential(
    (0): Linear(in_features=100, out_features=128, bias=True)
    (1): ReLU()
    (2): Linear(in_features=128, out_features=128, bias=True)
    (3): ReLU()
    (4): Linear(in_features=128, out_features=4, bias=True)
  )
)
WARNING: GIF is enabled but the environment does not support RGB array rendering.
INFO: Learning...
INFO: BootcampName.HIDER bootcamp completed, starting BootcampName.SEEKER bootcamp
INFO: Number of parameters: 29956
INFO: QNetwork(
  (conv_feature): Sequential()
  (fc_feature): Sequential(
    (0): Linear(in_features=100, out_features=128, bias=True)
    (1): ReLU()
    (2): Linear(in_features=128, out_features=128, bias=True)
    (3): ReLU()
    (4): Linear(in_features=128, out_features=4, bias=True)
  )
)
WARNING: GIF is enabled but the environment does not support RGB array rendering.
INFO: Learning...
INFO: BootcampName.HIDER bootcamp completed, starting BootcampName.SEEKER bootcamp
INFO: Number of parameters: 29956
INFO: QNetwork(
  (conv_feature): Sequential()
  (fc_feature): Sequential(
    (0): Linear(in_features=100, out_features=128, bias=True)
    (1): ReLU()
    (2): Linear(in_features=128, out_features=128, bias=True)
    (3): ReLU()
    (4): Linear(in_features=128, out_features=4, bias=True)
  )
)
WARNING: GIF is enabled but the environment does not support RGB array rendering.
INFO: Learning...
INFO: BootcampName.HIDER bootcamp completed, starting BootcampName.SEEKER bootcamp
WARNING: No frames in gif to save.
WARNING: No frames in gif to save.
WARNING: No frames in gif to save.
WARNING: No frames in gif to save.
WARNING: No frames in gif to save.
WARNING: No frames in gif to save.
WARNING: No frames in gif to save.
WARNING: No frames in gif to save.
WARNING: No frames in gif to save.
WARNING: No frames in gif to save.
WARNING: No frames in gif to save.
WARNING: No frames in gif to save.
INFO: Number of parameters: 29956
INFO: QNetwork(
  (conv_feature): Sequential()
  (fc_feature): Sequential(
    (0): Linear(in_features=100, out_features=128, bias=True)
    (1): ReLU()
    (2): Linear(in_features=128, out_features=128, bias=True)
    (3): ReLU()
    (4): Linear(in_features=128, out_features=4, bias=True)
  )
)
WARNING: GIF is enabled but the environment does not support RGB array rendering.
INFO: Learning...
INFO: BootcampName.HIDER bootcamp completed, starting BootcampName.SEEKER bootcamp
WARNING: No frames in gif to save.
WARNING: No frames in gif to save.
WARNING: No frames in gif to save.
WARNING: No frames in gif to save.
WARNING: No frames in gif to save.
…
WARNING: No frames in gif to save.
WARNING: No frames in gif to save.
WARNING: No frames in gif to save.
WARNING: No frames in gif to save.
WARNING: No frames in gif to save.
WARNING: No frames in gif to save.
INFO: Cleaning cache: /home/eirik/.cache/wandb/artifacts/obj 0.00390625 MB
INFO: cleaning local: /home/eirik/.local/share/wandb/artifacts/staging 0.00390625 MB
WARNING: No frames in gif to save.
WARNING: No frames in gif to save.
WARNING: No frames in gif to save.
WARNING: No frames in gif to save.
INFO: Number of parameters: 29956
INFO: QNetwork(
  (conv_feature): Sequential()
  (fc_feature): Sequential(
    (0): Linear(in_features=100, out_features=128, bias=True)
    (1): ReLU()
    (2): Linear(in_features=128, out_features=128, bias=True)
    (3): ReLU()
    (4): Linear(in_features=128, out_features=4, bias=True)
  )
)
WARNING: GIF is enabled but the environment does not support RGB array rendering.
INFO: Learning...
INFO: BootcampName.HIDER bootcamp completed, starting BootcampName.SEEKER bootcamp
WARNING: No frames in gif to save.
WARNING: No frames in gif to save.
INFO: Number of parameters: 29956
INFO: QNetwork(
  (conv_feature): Sequential()
  (fc_feature): Sequential(
    (0): Linear(in_features=100, out_features=128, bias=True)
    (1): ReLU()
    (2): Linear(in_features=128, out_features=128, bias=True)
    (3): ReLU()
    (4): Linear(in_features=128, out_features=4, bias=True)
  )
)
WARNING: GIF is enabled but the environment does not support RGB array rendering.
INFO: Learning...
INFO: BootcampName.HIDER bootcamp completed, starting BootcampName.SEEKER bootcamp
WARNING: No frames in gif to save.
WARNING: No frames in gif to save.
WARNING: No frames in gif to save.
WARNING: No frames in gif to save.
WARNING: No frames in gif to save.
WARNING: No frames in gif to save.
WARNING: No frames in gif to save.
WARNING: No frames in gif to save.
INFO: Number of parameters: 29956
INFO: QNetwork(
  (conv_feature): Sequential()
  (fc_feature): Sequential(
    (0): Linear(in_features=100, out_features=128, bias=True)
    (1): ReLU()
    (2): Linear(in_features=128, out_features=128, bias=True)
    (3): ReLU()
    (4): Linear(in_features=128, out_features=4, bias=True)
  )
)
WARNING: GIF is enabled but the environment does not support RGB array rendering.
INFO: Learning...
INFO: BootcampName.HIDER bootcamp completed, starting BootcampName.SEEKER bootcamp
WARNING: No frames in gif to save.
WARNING: No frames in gif to save.
WARNING: No frames in gif to save.
WARNING: No frames in gif to save.
WARNING: No frames in gif to save.
…
WARNING: No frames in gif to save.
WARNING: No frames in gif to save.
WARNING: No frames in gif to save.
WARNING: No frames in gif to save.
WARNING: No frames in gif to save.
WARNING: No frames in gif to save.
INFO: Cleaning cache: /home/eirik/.cache/wandb/artifacts/obj 0.00390625 MB
INFO: cleaning local: /home/eirik/.local/share/wandb/artifacts/staging 0.00390625 MB
WARNING: No frames in gif to save.
WARNING: No frames in gif to save.
WARNING: No frames in gif to save.
WARNING: No frames in gif to save.
INFO: Number of parameters: 29956
INFO: QNetwork(
  (conv_feature): Sequential()
  (fc_feature): Sequential(
    (0): Linear(in_features=100, out_features=128, bias=True)
    (1): ReLU()
    (2): Linear(in_features=128, out_features=128, bias=True)
    (3): ReLU()
    (4): Linear(in_features=128, out_features=4, bias=True)
  )
)
WARNING: GIF is enabled but the environment does not support RGB array rendering.
INFO: Learning...
INFO: BootcampName.HIDER bootcamp completed, starting BootcampName.SEEKER bootcamp
INFO: Number of parameters: 29956
INFO: QNetwork(
  (conv_feature): Sequential()
  (fc_feature): Sequential(
    (0): Linear(in_features=100, out_features=128, bias=True)
    (1): ReLU()
    (2): Linear(in_features=128, out_features=128, bias=True)
    (3): ReLU()
    (4): Linear(in_features=128, out_features=4, bias=True)
  )
)
WARNING: GIF is enabled but the environment does not support RGB array rendering.
INFO: Learning...
INFO: BootcampName.HIDER bootcamp completed, starting BootcampName.SEEKER bootcamp
WARNING: No frames in gif to save.
WARNING: No frames in gif to save.
WARNING: No frames in gif to save.
WARNING: No frames in gif to save.
WARNING: No frames in gif to save.
…
WARNING: No frames in gif to save.
WARNING: No frames in gif to save.
WARNING: No frames in gif to save.
WARNING: No frames in gif to save.
WARNING: No frames in gif to save.
WARNING: No frames in gif to save.
WARNING: No frames in gif to save.
WARNING: No frames in gif to save.
WARNING: No frames in gif to save.
WARNING: No frames in gif to save.
INFO: Cleaning cache: /home/eirik/.cache/wandb/artifacts/obj 0.00390625 MB
INFO: cleaning local: /home/eirik/.local/share/wandb/artifacts/staging 0.00390625 MB
INFO: Number of parameters: 30085
INFO: QNetwork(
  (conv_feature): Sequential()
  (fc_feature): Sequential(
    (0): Linear(in_features=100, out_features=128, bias=True)
    (1): ReLU()
    (2): Linear(in_features=128, out_features=128, bias=True)
    (3): ReLU()
    (4): Linear(in_features=128, out_features=5, bias=True)
  )
)
WARNING: GIF is enabled but the environment does not support RGB array rendering.
INFO: Learning...
INFO: BootcampName.HIDER bootcamp completed, starting BootcampName.SEEKER bootcamp
INFO: BootcampName.SEEKER bootcamp completed, starting BootcampName.SLOW_HIDER bootcamp
INFO: Number of parameters: 30085
INFO: QNetwork(
  (conv_feature): Sequential()
  (fc_feature): Sequential(
    (0): Linear(in_features=100, out_features=128, bias=True)
    (1): ReLU()
    (2): Linear(in_features=128, out_features=128, bias=True)
    (3): ReLU()
    (4): Linear(in_features=128, out_features=5, bias=True)
  )
)
WARNING: GIF is enabled but the environment does not support RGB array rendering.
INFO: Learning...
INFO: BootcampName.HIDER bootcamp completed, starting BootcampName.SEEKER bootcamp
INFO: BootcampName.SEEKER bootcamp completed, starting BootcampName.SLOW_HIDER bootcamp
INFO: Continuing with bootcamp BootcampName.SLOW_HIDER with slow hider factor: 19
…
INFO: Continuing with bootcamp BootcampName.SLOW_HIDER with slow hider factor: 4
INFO: Continuing with bootcamp BootcampName.SLOW_HIDER with slow hider factor: 3
WARNING: No frames in gif to save.
WARNING: No frames in gif to save.
INFO: Continuing with bootcamp BootcampName.SLOW_HIDER with slow hider factor: 2
INFO: BootcampName.SLOW_HIDER bootcamp completed, starting BootcampName.COMBINED bootcamp
WARNING: No frames in gif to save.
WARNING: No frames in gif to save.
WARNING: No frames in gif to save.
WARNING: No frames in gif to save.
INFO: Number of parameters: 30085
INFO: QNetwork(
  (conv_feature): Sequential()
  (fc_feature): Sequential(
    (0): Linear(in_features=100, out_features=128, bias=True)
    (1): ReLU()
    (2): Linear(in_features=128, out_features=128, bias=True)
    (3): ReLU()
    (4): Linear(in_features=128, out_features=5, bias=True)
  )
)
WARNING: GIF is enabled but the environment does not support RGB array rendering.
INFO: Learning...
INFO: BootcampName.HIDER bootcamp completed, starting BootcampName.SEEKER bootcamp
INFO: Number of parameters: 30085
INFO: QNetwork(
  (conv_feature): Sequential()
  (fc_feature): Sequential(
    (0): Linear(in_features=100, out_features=128, bias=True)
    (1): ReLU()
    (2): Linear(in_features=128, out_features=128, bias=True)
    (3): ReLU()
    (4): Linear(in_features=128, out_features=5, bias=True)
  )
)
WARNING: GIF is enabled but the environment does not support RGB array rendering.
INFO: Learning...
INFO: BootcampName.HIDER bootcamp completed, starting BootcampName.SEEKER bootcamp
INFO: Number of parameters: 30085
INFO: QNetwork(
  (conv_feature): Sequential()
  (fc_feature): Sequential(
    (0): Linear(in_features=100, out_features=128, bias=True)
    (1): ReLU()
    (2): Linear(in_features=128, out_features=128, bias=True)
    (3): ReLU()
    (4): Linear(in_features=128, out_features=5, bias=True)
  )
)
WARNING: GIF is enabled but the environment does not support RGB array rendering.
INFO: Learning...
INFO: BootcampName.HIDER bootcamp completed, starting BootcampName.SEEKER bootcamp
ERROR: You must call wandb.init() before wandb.log()
ERROR: Traceback (most recent call last):
  File "/home/eirik/Projects/XAI/rl/src/dqn/wrapper/multi_agent_dqn.py", line 106, in learn
…
  File "/home/eirik/Projects/XAI/rl/src/managers/wandb_manager.py", line 60, in log
    wandb.log(data)
  File "/home/eirik/.cache/pypoetry/virtualenvs/xai-is73Zs3s-py3.11/lib/python3.11/site-packages/wandb/sdk/lib/preinit.py", line 36, in preinit_wrapper
    raise wandb.Error(f"You must call wandb.init() before {name}()")
wandb.errors.errors.Error: You must call wandb.init() before wandb.log()

WARNING: Error: Could not find wandb directory: ./wandb
WARNING: Error: Could not find wandb directory: ./wandb
WARNING: Error: Could not find wandb directory: ./wandb
INFO: Number of parameters: 30085
INFO: QNetwork(
  (conv_feature): Sequential()
  (fc_feature): Sequential(
    (0): Linear(in_features=100, out_features=128, bias=True)
    (1): ReLU()
    (2): Linear(in_features=128, out_features=128, bias=True)
    (3): ReLU()
    (4): Linear(in_features=128, out_features=5, bias=True)
  )
)
WARNING: GIF is enabled but the environment does not support RGB array rendering.
INFO: Learning...
INFO: BootcampName.HIDER bootcamp completed, starting BootcampName.SEEKER bootcamp
INFO: BootcampName.SEEKER bootcamp completed, starting BootcampName.SLOW_HIDER bootcamp
INFO: Continuing with bootcamp BootcampName.SLOW_HIDER with slow factor: 20
INFO: Continuing with bootcamp BootcampName.SLOW_HIDER with slow factor: 20
INFO: Continuing with bootcamp BootcampName.SLOW_HIDER with slow factor: 20
INFO: Number of parameters: 30085
INFO: QNetwork(
  (conv_feature): Sequential()
  (fc_feature): Sequential(
    (0): Linear(in_features=100, out_features=128, bias=True)
    (1): ReLU()
    (2): Linear(in_features=128, out_features=128, bias=True)
    (3): ReLU()
    (4): Linear(in_features=128, out_features=5, bias=True)
  )
)
WARNING: GIF is enabled but the environment does not support RGB array rendering.
INFO: Learning...
INFO: BootcampName.HIDER bootcamp completed, starting BootcampName.SEEKER bootcamp
INFO: BootcampName.SEEKER bootcamp completed, starting BootcampName.SLOW_AGENT bootcamp
WARNING: No frames in gif to save.
WARNING: No frames in gif to save.
INFO: Continuing with bootcamp BootcampName.SLOW_AGENT with slow factor: 20
WARNING: No frames in gif to save.
WARNING: No frames in gif to save.
INFO: Continuing with bootcamp BootcampName.SLOW_AGENT with slow factor: 20
WARNING: No frames in gif to save.
WARNING: No frames in gif to save.
INFO: Number of parameters: 30085
INFO: QNetwork(
  (conv_feature): Sequential()
  (fc_feature): Sequential(
    (0): Linear(in_features=100, out_features=128, bias=True)
    (1): ReLU()
    (2): Linear(in_features=128, out_features=128, bias=True)
    (3): ReLU()
    (4): Linear(in_features=128, out_features=5, bias=True)
  )
)
WARNING: GIF is enabled but the environment does not support RGB array rendering.
INFO: Learning...
INFO: BootcampName.HIDER bootcamp completed, starting BootcampName.SEEKER bootcamp
INFO: BootcampName.SEEKER bootcamp completed, starting BootcampName.SLOW_AGENT bootcamp
INFO: Continuing with bootcamp BootcampName.SLOW_AGENT with slow factor: 20
INFO: Continuing with bootcamp BootcampName.SLOW_AGENT with slow factor: 20
INFO: Continuing with bootcamp BootcampName.SLOW_AGENT with slow factor: 20
INFO: Continuing with bootcamp BootcampName.SLOW_AGENT with slow factor: 20
INFO: Continuing with bootcamp BootcampName.SLOW_AGENT with slow factor: 20
INFO: Continuing with bootcamp BootcampName.SLOW_AGENT with slow factor: 20
INFO: Number of parameters: 30085
INFO: QNetwork(
  (conv_feature): Sequential()
  (fc_feature): Sequential(
    (0): Linear(in_features=100, out_features=128, bias=True)
    (1): ReLU()
    (2): Linear(in_features=128, out_features=128, bias=True)
    (3): ReLU()
    (4): Linear(in_features=128, out_features=5, bias=True)
  )
)
WARNING: GIF is enabled but the environment does not support RGB array rendering.
INFO: Learning...
INFO: BootcampName.HIDER bootcamp completed, starting BootcampName.SEEKER bootcamp
INFO: Number of parameters: 30085
INFO: QNetwork(
  (conv_feature): Sequential()
  (fc_feature): Sequential(
    (0): Linear(in_features=100, out_features=128, bias=True)
    (1): ReLU()
    (2): Linear(in_features=128, out_features=128, bias=True)
    (3): ReLU()
    (4): Linear(in_features=128, out_features=5, bias=True)
  )
)
WARNING: GIF is enabled but the environment does not support RGB array rendering.
INFO: Learning...
INFO: BootcampName.HIDER bootcamp completed, starting BootcampName.SEEKER bootcamp
INFO: BootcampName.SEEKER bootcamp completed, starting BootcampName.SLOW_AGENT bootcamp
INFO: Continuing with bootcamp BootcampName.SLOW_AGENT with slow factor: 20
INFO: Continuing with bootcamp BootcampName.SLOW_AGENT with slow factor: 20
…
INFO: Continuing with bootcamp BootcampName.SLOW_AGENT with slow factor: 20 for agent 0
WARNING: No frames in gif to save.
WARNING: No frames in gif to save.
INFO: Continuing with bootcamp BootcampName.SLOW_AGENT with slow factor: 20 for agent 0
INFO: Continuing with bootcamp BootcampName.SLOW_AGENT with slow factor: 20 for agent 0
INFO: Continuing with bootcamp BootcampName.SLOW_AGENT with slow factor: 20 for agent 0
WARNING: No frames in gif to save.
WARNING: No frames in gif to save.
INFO: Number of parameters: 30085
INFO: QNetwork(
  (conv_feature): Sequential()
  (fc_feature): Sequential(
    (0): Linear(in_features=100, out_features=128, bias=True)
    (1): ReLU()
    (2): Linear(in_features=128, out_features=128, bias=True)
    (3): ReLU()
    (4): Linear(in_features=128, out_features=5, bias=True)
  )
)
WARNING: GIF is enabled but the environment does not support RGB array rendering.
INFO: Learning...
INFO: BootcampName.HIDER bootcamp completed, starting BootcampName.SEEKER bootcamp
INFO: BootcampName.SEEKER bootcamp completed, starting BootcampName.SLOW_AGENT bootcamp
INFO: Continuing with bootcamp BootcampName.SLOW_AGENT with slow factor: 20 for agent 0
INFO: Continuing with bootcamp BootcampName.SLOW_AGENT with slow factor: 20 for agent 0
INFO: Continuing with bootcamp BootcampName.SLOW_AGENT with slow factor: 20 for agent 0
INFO: Continuing with bootcamp BootcampName.SLOW_AGENT with slow factor: 20 for agent 0
INFO: Continuing with bootcamp BootcampName.SLOW_AGENT with slow factor: 20 for agent 0
INFO: Number of parameters: 30085
INFO: QNetwork(
  (conv_feature): Sequential()
  (fc_feature): Sequential(
    (0): Linear(in_features=100, out_features=128, bias=True)
    (1): ReLU()
    (2): Linear(in_features=128, out_features=128, bias=True)
    (3): ReLU()
    (4): Linear(in_features=128, out_features=5, bias=True)
  )
)
WARNING: GIF is enabled but the environment does not support RGB array rendering.
INFO: Learning...
INFO: BootcampName.HIDER bootcamp completed, starting BootcampName.SEEKER bootcamp
INFO: BootcampName.SEEKER bootcamp completed, starting BootcampName.SLOW_AGENT bootcamp
INFO: Continuing with bootcamp BootcampName.SLOW_AGENT with slow factor: 20 for agent 0
INFO: Number of parameters: 30085
INFO: QNetwork(
  (conv_feature): Sequential()
  (fc_feature): Sequential(
    (0): Linear(in_features=100, out_features=128, bias=True)
    (1): ReLU()
    (2): Linear(in_features=128, out_features=128, bias=True)
    (3): ReLU()
    (4): Linear(in_features=128, out_features=5, bias=True)
  )
)
WARNING: GIF is enabled but the environment does not support RGB array rendering.
INFO: Learning...
INFO: BootcampName.HIDER bootcamp completed, starting BootcampName.SEEKER bootcamp
INFO: BootcampName.SEEKER bootcamp completed, starting BootcampName.SLOW_AGENT bootcamp
INFO: Continuing with bootcamp BootcampName.SLOW_AGENT with slow factor: 20 for agent 0
INFO: Continuing with bootcamp BootcampName.SLOW_AGENT with slow factor: 20 for agent 0
INFO: Number of parameters: 30085
INFO: QNetwork(
  (conv_feature): Sequential()
  (fc_feature): Sequential(
    (0): Linear(in_features=100, out_features=128, bias=True)
    (1): ReLU()
    (2): Linear(in_features=128, out_features=128, bias=True)
    (3): ReLU()
    (4): Linear(in_features=128, out_features=5, bias=True)
  )
)
WARNING: GIF is enabled but the environment does not support RGB array rendering.
INFO: Learning...
INFO: BootcampName.HIDER bootcamp completed, starting BootcampName.SEEKER bootcamp
INFO: BootcampName.SEEKER bootcamp completed, starting BootcampName.SLOW_AGENT bootcamp
INFO: Continuing with bootcamp BootcampName.SLOW_AGENT with slow factor: 19 for agent 1
…
INFO: Bootcamp #3 BootcampName.FINISHED finished
INFO: Bootcamp #3 BootcampName.FINISHED finished
INFO: Bootcamp #3 BootcampName.FINISHED finished
INFO: Bootcamp #3 BootcampName.FINISHED finished
INFO: Hyperparameters: lr=0.0001, gamma=0.99, eps_start=0.9, eps_end=0.05, eps_decay=50000, batch_size=32, tau=0.005,hidden_layers=[128, 128], conv_layers=[]
INFO: Hyperparameters: lr=0.0001, gamma=0.99, eps_start=0.9, eps_end=0.05, eps_decay=50000, batch_size=32, tau=0.005,hidden_layers=[128, 128], conv_layers=[]
INFO: Number of parameters: 30085
INFO: QNetwork(
  (conv_feature): Sequential()
  (fc_feature): Sequential(
    (0): Linear(in_features=100, out_features=128, bias=True)
    (1): ReLU()
    (2): Linear(in_features=128, out_features=128, bias=True)
    (3): ReLU()
    (4): Linear(in_features=128, out_features=5, bias=True)
  )
)
INFO: Hyperparameters: lr=0.0001, gamma=0.99, eps_start=0.9, eps_end=0.05, eps_decay=50000, batch_size=32, tau=0.005,hidden_layers=[128, 128], conv_layers=[]
INFO: Learning...
INFO: BootcampName.HIDER Bootcamp completed, starting BootcampName.SEEKER Bootcamp #0 for 500 days
INFO: Hyperparameters: lr=0.0001, gamma=0.99, eps_start=0.9, eps_end=0.05, eps_decay=50000, batch_size=32, tau=0.005,hidden_layers=[128, 128], conv_layers=[]
INFO: Number of parameters: 30085
INFO: QNetwork(
  (conv_feature): Sequential()
  (fc_feature): Sequential(
    (0): Linear(in_features=100, out_features=128, bias=True)
    (1): ReLU()
    (2): Linear(in_features=128, out_features=128, bias=True)
    (3): ReLU()
    (4): Linear(in_features=128, out_features=5, bias=True)
  )
)
INFO: Hyperparameters: lr=0.0001, gamma=0.99, eps_start=0.9, eps_end=0.05, eps_decay=50000, batch_size=32, tau=0.005,hidden_layers=[128, 128], conv_layers=[]
INFO: Learning...
INFO: Hyperparameters: lr=0.0001, gamma=0.99, eps_start=0.9, eps_end=0.05, eps_decay=50000, batch_size=32, tau=0.005,hidden_layers=[128, 128], conv_layers=[]
INFO: Number of parameters: 30085
INFO: QNetwork(
  (conv_feature): Sequential()
  (fc_feature): Sequential(
    (0): Linear(in_features=100, out_features=128, bias=True)
    (1): ReLU()
    (2): Linear(in_features=128, out_features=128, bias=True)
    (3): ReLU()
    (4): Linear(in_features=128, out_features=5, bias=True)
  )
)
INFO: Hyperparameters: lr=0.0001, gamma=0.99, eps_start=0.9, eps_end=0.05, eps_decay=50000, batch_size=32, tau=0.005,hidden_layers=[128, 128], conv_layers=[]
INFO: Learning...
INFO: Hyperparameters: lr=0.0001, gamma=0.99, eps_start=0.9, eps_end=0.05, eps_decay=50000, batch_size=32, tau=0.005,hidden_layers=[128, 128], conv_layers=[]
INFO: Number of parameters: 30085
INFO: QNetwork(
  (conv_feature): Sequential()
  (fc_feature): Sequential(
    (0): Linear(in_features=100, out_features=128, bias=True)
    (1): ReLU()
    (2): Linear(in_features=128, out_features=128, bias=True)
    (3): ReLU()
    (4): Linear(in_features=128, out_features=5, bias=True)
  )
)
INFO: Hyperparameters: lr=0.0001, gamma=0.99, eps_start=0.9, eps_end=0.05, eps_decay=50000, batch_size=32, tau=0.005,hidden_layers=[128, 128], conv_layers=[]
INFO: Learning...
INFO: Hyperparameters: lr=0.0001, gamma=0.99, eps_start=0.9, eps_end=0.05, eps_decay=50000, batch_size=32, tau=0.005,hidden_layers=[128, 128], conv_layers=[]
INFO: Number of parameters: 30085
INFO: QNetwork(
  (conv_feature): Sequential()
  (fc_feature): Sequential(
    (0): Linear(in_features=100, out_features=128, bias=True)
    (1): ReLU()
    (2): Linear(in_features=128, out_features=128, bias=True)
    (3): ReLU()
    (4): Linear(in_features=128, out_features=5, bias=True)
  )
)
INFO: Hyperparameters: lr=0.0001, gamma=0.99, eps_start=0.9, eps_end=0.05, eps_decay=50000, batch_size=32, tau=0.005,hidden_layers=[128, 128], conv_layers=[]
INFO: Learning...
INFO: Hyperparameters: lr=0.0001, gamma=0.99, eps_start=0.9, eps_end=0.05, eps_decay=50000, batch_size=32, tau=0.005,hidden_layers=[128, 128], conv_layers=[]
INFO: Number of parameters: 30085
INFO: QNetwork(
  (conv_feature): Sequential()
  (fc_feature): Sequential(
    (0): Linear(in_features=100, out_features=128, bias=True)
    (1): ReLU()
    (2): Linear(in_features=128, out_features=128, bias=True)
    (3): ReLU()
    (4): Linear(in_features=128, out_features=5, bias=True)
  )
)
INFO: Hyperparameters: lr=0.0001, gamma=0.99, eps_start=0.9, eps_end=0.05, eps_decay=50000, batch_size=32, tau=0.005,hidden_layers=[128, 128], conv_layers=[]
INFO: Learning...
INFO: Hyperparameters: lr=0.0001, gamma=0.99, eps_start=0.9, eps_end=0.05, eps_decay=50000, batch_size=32, tau=0.005,hidden_layers=[128, 128], conv_layers=[]
INFO: Number of parameters: 30085
INFO: QNetwork(
  (conv_feature): Sequential()
  (fc_feature): Sequential(
    (0): Linear(in_features=100, out_features=128, bias=True)
    (1): ReLU()
    (2): Linear(in_features=128, out_features=128, bias=True)
    (3): ReLU()
    (4): Linear(in_features=128, out_features=5, bias=True)
  )
)
INFO: Hyperparameters: lr=0.0001, gamma=0.99, eps_start=0.9, eps_end=0.05, eps_decay=50000, batch_size=32, tau=0.005,hidden_layers=[128, 128], conv_layers=[]
INFO: Learning...
INFO: Hyperparameters: lr=0.0001, gamma=0.99, eps_start=0.9, eps_end=0.05, eps_decay=50000, batch_size=32, tau=0.005,hidden_layers=[128, 128], conv_layers=[]
INFO: Number of parameters: 30085
INFO: QNetwork(
  (conv_feature): Sequential()
  (fc_feature): Sequential(
    (0): Linear(in_features=100, out_features=128, bias=True)
    (1): ReLU()
    (2): Linear(in_features=128, out_features=128, bias=True)
    (3): ReLU()
    (4): Linear(in_features=128, out_features=5, bias=True)
  )
)
INFO: Hyperparameters: lr=0.0001, gamma=0.99, eps_start=0.9, eps_end=0.05, eps_decay=50000, batch_size=32, tau=0.005,hidden_layers=[128, 128], conv_layers=[]
INFO: Learning...
INFO: Hyperparameters: lr=0.0001, gamma=0.99, eps_start=0.9, eps_end=0.05, eps_decay=50000, batch_size=32, tau=0.005,hidden_layers=[128, 128], conv_layers=[]
INFO: Number of parameters: 30085
INFO: QNetwork(
  (conv_feature): Sequential()
  (fc_feature): Sequential(
    (0): Linear(in_features=100, out_features=128, bias=True)
    (1): ReLU()
    (2): Linear(in_features=128, out_features=128, bias=True)
    (3): ReLU()
    (4): Linear(in_features=128, out_features=5, bias=True)
  )
)
INFO: Hyperparameters: lr=0.0001, gamma=0.99, eps_start=0.9, eps_end=0.05, eps_decay=50000, batch_size=32, tau=0.005,hidden_layers=[128, 128], conv_layers=[]
INFO: Learning...
INFO: Hyperparameters: lr=0.0001, gamma=0.99, eps_start=0.9, eps_end=0.05, eps_decay=50000, batch_size=32, tau=0.005,hidden_layers=[128, 128], conv_layers=[]
INFO: Number of parameters: 30085
INFO: QNetwork(
  (conv_feature): Sequential()
  (fc_feature): Sequential(
    (0): Linear(in_features=100, out_features=128, bias=True)
    (1): ReLU()
    (2): Linear(in_features=128, out_features=128, bias=True)
    (3): ReLU()
    (4): Linear(in_features=128, out_features=5, bias=True)
  )
)
INFO: Hyperparameters: lr=0.0001, gamma=0.99, eps_start=0.9, eps_end=0.05, eps_decay=50000, batch_size=32, tau=0.005,hidden_layers=[128, 128], conv_layers=[]
INFO: Learning...
INFO: Hyperparameters: lr=0.0001, gamma=0.99, eps_start=0.9, eps_end=0.05, eps_decay=50000, batch_size=32, tau=0.005,hidden_layers=[128, 128], conv_layers=[]
INFO: Number of parameters: 30085
INFO: QNetwork(
  (conv_feature): Sequential()
  (fc_feature): Sequential(
    (0): Linear(in_features=100, out_features=128, bias=True)
    (1): ReLU()
    (2): Linear(in_features=128, out_features=128, bias=True)
    (3): ReLU()
    (4): Linear(in_features=128, out_features=5, bias=True)
  )
)
INFO: Hyperparameters: lr=0.0001, gamma=0.99, eps_start=0.9, eps_end=0.05, eps_decay=50000, batch_size=32, tau=0.005,hidden_layers=[128, 128], conv_layers=[]
INFO: Learning...
INFO: Hyperparameters: lr=0.0001, gamma=0.99, eps_start=0.9, eps_end=0.05, eps_decay=50000, batch_size=32, tau=0.005,hidden_layers=[128, 128], conv_layers=[]
INFO: Number of parameters: 30085
INFO: QNetwork(
  (conv_feature): Sequential()
  (fc_feature): Sequential(
    (0): Linear(in_features=100, out_features=128, bias=True)
    (1): ReLU()
    (2): Linear(in_features=128, out_features=128, bias=True)
    (3): ReLU()
    (4): Linear(in_features=128, out_features=5, bias=True)
  )
)
INFO: Hyperparameters: lr=0.0001, gamma=0.99, eps_start=0.9, eps_end=0.05, eps_decay=50000, batch_size=32, tau=0.005,hidden_layers=[128, 128], conv_layers=[]
INFO: Learning...
INFO: Hyperparameters: lr=0.0001, gamma=0.99, eps_start=0.9, eps_end=0.05, eps_decay=50000, batch_size=32, tau=0.005,hidden_layers=[128, 128], conv_layers=[]
INFO: Number of parameters: 30085
INFO: QNetwork(
  (conv_feature): Sequential()
  (fc_feature): Sequential(
    (0): Linear(in_features=100, out_features=128, bias=True)
    (1): ReLU()
    (2): Linear(in_features=128, out_features=128, bias=True)
    (3): ReLU()
    (4): Linear(in_features=128, out_features=5, bias=True)
  )
)
INFO: Hyperparameters: lr=0.0001, gamma=0.99, eps_start=0.9, eps_end=0.05, eps_decay=50000, batch_size=32, tau=0.005,hidden_layers=[128, 128], conv_layers=[]
INFO: Learning...
ERROR: [Errno 32] Broken pipe
ERROR: Traceback (most recent call last):
  File "/home/eirik/Projects/XAI/rl/src/dqn/wrapper/multi_agent_dqn.py", line 108, in learn
    self.wandb_manager.log(log)
…
  File "/home/eirik/.cache/pypoetry/virtualenvs/xai-is73Zs3s-py3.11/lib/python3.11/site-packages/wandb/sdk/lib/sock_client.py", line 154, in _send_message
    self._sendall_with_error_handle(header + data)
  File "/home/eirik/.cache/pypoetry/virtualenvs/xai-is73Zs3s-py3.11/lib/python3.11/site-packages/wandb/sdk/lib/sock_client.py", line 132, in _sendall_with_error_handle
    sent = self._sock.send(data)
           ^^^^^^^^^^^^^^^^^^^^^
BrokenPipeError: [Errno 32] Broken pipe

INFO: Hyperparameters: lr=0.0001, gamma=0.99, eps_start=0.9, eps_end=0.05, eps_decay=50000, batch_size=32, tau=0.005,hidden_layers=[128, 128], conv_layers=[]
INFO: Number of parameters: 18052
INFO: QNetwork(
  (conv_feature): Sequential()
  (fc_feature): Sequential(
    (0): Linear(in_features=7, out_features=128, bias=True)
    (1): ReLU()
    (2): Linear(in_features=128, out_features=128, bias=True)
    (3): ReLU()
    (4): Linear(in_features=128, out_features=4, bias=True)
  )
)
ERROR: Error: Could not load model with artifact: eirikreiestad-ntnu/maze-v0-local/model_200:latest
ERROR: Error: artifact 'model_200:latest' not found in 'eirikreiestad-ntnu/maze-v0-local'
INFO: Complete
INFO: Hyperparameters: lr=0.0001, gamma=0.99, eps_start=0.9, eps_end=0.05, eps_decay=50000, batch_size=32, tau=0.005,hidden_layers=[128, 128], conv_layers=[]
INFO: Number of parameters: 30085
INFO: QNetwork(
  (conv_feature): Sequential()
  (fc_feature): Sequential(
    (0): Linear(in_features=100, out_features=128, bias=True)
    (1): ReLU()
    (2): Linear(in_features=128, out_features=128, bias=True)
    (3): ReLU()
    (4): Linear(in_features=128, out_features=5, bias=True)
  )
)
INFO: Hyperparameters: lr=0.0001, gamma=0.99, eps_start=0.9, eps_end=0.05, eps_decay=50000, batch_size=32, tau=0.005,hidden_layers=[128, 128], conv_layers=[]
INFO: Learning...
ERROR: [Errno 32] Broken pipe
ERROR: Traceback (most recent call last):
  File "/home/eirik/Projects/XAI/rl/src/dqn/wrapper/multi_agent_dqn.py", line 109, in learn
    self.wandb_manager.log(log)
…
    self._sendall_with_error_handle(header + data)
  File "/home/eirik/.cache/pypoetry/virtualenvs/xai-is73Zs3s-py3.11/lib/python3.11/site-packages/wandb/sdk/lib/sock_client.py", line 132, in _sendall_with_error_handle
    sent = self._sock.send(data)
           ^^^^^^^^^^^^^^^^^^^^^
BrokenPipeError: [Errno 32] Broken pipe

INFO: Learning...
INFO: Hyperparameters: lr=0.0001, gamma=0.99, eps_start=0.9, eps_end=0.05, eps_decay=50000, batch_size=32, tau=0.005,hidden_layers=[128, 128], conv_layers=[]
INFO: Number of parameters: 18052
INFO: QNetwork(
  (conv_feature): Sequential()
  (fc_feature): Sequential(
    (0): Linear(in_features=7, out_features=128, bias=True)
    (1): ReLU()
    (2): Linear(in_features=128, out_features=128, bias=True)
    (3): ReLU()
    (4): Linear(in_features=128, out_features=4, bias=True)
  )
)
ERROR: Error: Could not load model with artifact: eirikreiestad-ntnu/maze-v0-local/model_200:latest
ERROR: Error: artifact 'model_200:latest' not found in 'eirikreiestad-ntnu/maze-v0-local'
INFO: Hyperparameters: lr=0.0001, gamma=0.99, eps_start=0.9, eps_end=0.05, eps_decay=50000, batch_size=32, tau=0.005,hidden_layers=[128, 128], conv_layers=[]
INFO: Number of parameters: 18052
INFO: QNetwork(
  (conv_feature): Sequential()
  (fc_feature): Sequential(
    (0): Linear(in_features=7, out_features=128, bias=True)
    (1): ReLU()
    (2): Linear(in_features=128, out_features=128, bias=True)
    (3): ReLU()
    (4): Linear(in_features=128, out_features=4, bias=True)
  )
)
WARNING: No frames in gif to save.
WARNING: Error: The file assets/gifs/dqn.gif does not exist or is empty.
INFO: Hyperparameters: lr=0.0001, gamma=0.99, eps_start=0.9, eps_end=0.05, eps_decay=50000, batch_size=32, tau=0.005,hidden_layers=[128, 128], conv_layers=[]
INFO: Number of parameters: 18052
INFO: QNetwork(
  (conv_feature): Sequential()
  (fc_feature): Sequential(
    (0): Linear(in_features=7, out_features=128, bias=True)
    (1): ReLU()
    (2): Linear(in_features=128, out_features=128, bias=True)
    (3): ReLU()
    (4): Linear(in_features=128, out_features=4, bias=True)
  )
)
WARNING: No frames in gif to save.
WARNING: Error: The file assets/gifs/dqn.gif does not exist or is empty.
INFO: Hyperparameters: lr=0.0001, gamma=0.99, eps_start=0.9, eps_end=0.05, eps_decay=50000, batch_size=32, tau=0.005,hidden_layers=[128, 128], conv_layers=[]
INFO: Number of parameters: 18052
INFO: QNetwork(
  (conv_feature): Sequential()
  (fc_feature): Sequential(
    (0): Linear(in_features=7, out_features=128, bias=True)
    (1): ReLU()
    (2): Linear(in_features=128, out_features=128, bias=True)
    (3): ReLU()
    (4): Linear(in_features=128, out_features=4, bias=True)
  )
)
INFO: Hyperparameters: lr=0.0001, gamma=0.99, eps_start=0.9, eps_end=0.05, eps_decay=50000, batch_size=32, tau=0.005,hidden_layers=[128, 128], conv_layers=[]
INFO: Number of parameters: 18052
INFO: QNetwork(
  (conv_feature): Sequential()
  (fc_feature): Sequential(
    (0): Linear(in_features=7, out_features=128, bias=True)
    (1): ReLU()
    (2): Linear(in_features=128, out_features=128, bias=True)
    (3): ReLU()
    (4): Linear(in_features=128, out_features=4, bias=True)
  )
)
WARNING: No frames in gif to save.
WARNING: Error: The file assets/gifs/dqn.gif does not exist or is empty.
WARNING: No frames in gif to save.
WARNING: Error: The file assets/gifs/dqn.gif does not exist or is empty.
WARNING: No frames in gif to save.
WARNING: Error: The file assets/gifs/dqn.gif does not exist or is empty.
INFO: Hyperparameters: lr=0.0001, gamma=0.99, eps_start=0.9, eps_end=0.05, eps_decay=50000, batch_size=32, tau=0.005,hidden_layers=[128, 128], conv_layers=[]
INFO: Number of parameters: 30085
INFO: QNetwork(
  (conv_feature): Sequential()
  (fc_feature): Sequential(
    (0): Linear(in_features=100, out_features=128, bias=True)
    (1): ReLU()
    (2): Linear(in_features=128, out_features=128, bias=True)
    (3): ReLU()
    (4): Linear(in_features=128, out_features=5, bias=True)
  )
)
INFO: Hyperparameters: lr=0.0001, gamma=0.99, eps_start=0.9, eps_end=0.05, eps_decay=50000, batch_size=32, tau=0.005,hidden_layers=[128, 128], conv_layers=[]
INFO: Learning...
INFO: Hyperparameters: lr=0.0001, gamma=0.99, eps_start=0.9, eps_end=0.05, eps_decay=50000, batch_size=32, tau=0.005,hidden_layers=[128, 128], conv_layers=[]
INFO: Number of parameters: 30085
INFO: QNetwork(
  (conv_feature): Sequential()
  (fc_feature): Sequential(
    (0): Linear(in_features=100, out_features=128, bias=True)
    (1): ReLU()
    (2): Linear(in_features=128, out_features=128, bias=True)
    (3): ReLU()
    (4): Linear(in_features=128, out_features=5, bias=True)
  )
)
INFO: Hyperparameters: lr=0.0001, gamma=0.99, eps_start=0.9, eps_end=0.05, eps_decay=50000, batch_size=32, tau=0.005,hidden_layers=[128, 128], conv_layers=[]
INFO: Learning...
ERROR: [Errno 32] Broken pipe
ERROR: Traceback (most recent call last):
  File "/home/eirik/Projects/XAI/rl/src/dqn/wrapper/multi_agent_dqn.py", line 109, in learn
    self.wandb_manager.log(log)
…
  File "/home/eirik/.cache/pypoetry/virtualenvs/xai-is73Zs3s-py3.11/lib/python3.11/site-packages/wandb/sdk/lib/sock_client.py", line 154, in _send_message
    self._sendall_with_error_handle(header + data)
  File "/home/eirik/.cache/pypoetry/virtualenvs/xai-is73Zs3s-py3.11/lib/python3.11/site-packages/wandb/sdk/lib/sock_client.py", line 132, in _sendall_with_error_handle
    sent = self._sock.send(data)
           ^^^^^^^^^^^^^^^^^^^^^
BrokenPipeError: [Errno 32] Broken pipe

INFO: Hyperparameters: lr=0.0001, gamma=0.99, eps_start=0.9, eps_end=0.05, eps_decay=50000, batch_size=32, tau=0.005,hidden_layers=[128, 128], conv_layers=[]
INFO: Number of parameters: 30085
INFO: QNetwork(
  (conv_feature): Sequential()
  (fc_feature): Sequential(
    (0): Linear(in_features=100, out_features=128, bias=True)
    (1): ReLU()
    (2): Linear(in_features=128, out_features=128, bias=True)
    (3): ReLU()
    (4): Linear(in_features=128, out_features=5, bias=True)
  )
)
INFO: Hyperparameters: lr=0.0001, gamma=0.99, eps_start=0.9, eps_end=0.05, eps_decay=50000, batch_size=32, tau=0.005,hidden_layers=[128, 128], conv_layers=[]
INFO: Learning...
INFO: Hyperparameters: lr=0.0001, gamma=0.99, eps_start=0.9, eps_end=0.05, eps_decay=50000, batch_size=32, tau=0.005,hidden_layers=[128, 128], conv_layers=[]
INFO: Number of parameters: 30085
INFO: QNetwork(
  (conv_feature): Sequential()
  (fc_feature): Sequential(
    (0): Linear(in_features=100, out_features=128, bias=True)
    (1): ReLU()
    (2): Linear(in_features=128, out_features=128, bias=True)
    (3): ReLU()
    (4): Linear(in_features=128, out_features=5, bias=True)
  )
)
INFO: Hyperparameters: lr=0.0001, gamma=0.99, eps_start=0.9, eps_end=0.05, eps_decay=50000, batch_size=32, tau=0.005,hidden_layers=[128, 128], conv_layers=[]
INFO: Learning...
INFO: Hyperparameters: lr=0.0001, gamma=0.99, eps_start=0.9, eps_end=0.05, eps_decay=50000, batch_size=32, tau=0.005,hidden_layers=[128, 128], conv_layers=[]
INFO: Number of parameters: 30085
INFO: QNetwork(
  (conv_feature): Sequential()
  (fc_feature): Sequential(
    (0): Linear(in_features=100, out_features=128, bias=True)
    (1): ReLU()
    (2): Linear(in_features=128, out_features=128, bias=True)
    (3): ReLU()
    (4): Linear(in_features=128, out_features=5, bias=True)
  )
)
INFO: Hyperparameters: lr=0.0001, gamma=0.99, eps_start=0.9, eps_end=0.05, eps_decay=50000, batch_size=32, tau=0.005,hidden_layers=[128, 128], conv_layers=[]
INFO: Learning...
INFO: Hyperparameters: lr=0.0001, gamma=0.99, eps_start=0.9, eps_end=0.05, eps_decay=50000, batch_size=32, tau=0.005,hidden_layers=[128, 128], conv_layers=[]
INFO: Number of parameters: 30085
INFO: QNetwork(
  (conv_feature): Sequential()
  (fc_feature): Sequential(
    (0): Linear(in_features=100, out_features=128, bias=True)
    (1): ReLU()
    (2): Linear(in_features=128, out_features=128, bias=True)
    (3): ReLU()
    (4): Linear(in_features=128, out_features=5, bias=True)
  )
)
INFO: Hyperparameters: lr=0.0001, gamma=0.99, eps_start=0.9, eps_end=0.05, eps_decay=50000, batch_size=32, tau=0.005,hidden_layers=[128, 128], conv_layers=[]
INFO: Learning...
INFO: Hyperparameters: lr=0.0001, gamma=0.99, eps_start=0.9, eps_end=0.05, eps_decay=50000, batch_size=32, tau=0.005,hidden_layers=[128, 128], conv_layers=[]
INFO: Number of parameters: 30085
INFO: QNetwork(
  (conv_feature): Sequential()
  (fc_feature): Sequential(
    (0): Linear(in_features=100, out_features=128, bias=True)
    (1): ReLU()
    (2): Linear(in_features=128, out_features=128, bias=True)
    (3): ReLU()
    (4): Linear(in_features=128, out_features=5, bias=True)
  )
)
INFO: Hyperparameters: lr=0.0001, gamma=0.99, eps_start=0.9, eps_end=0.05, eps_decay=50000, batch_size=32, tau=0.005,hidden_layers=[128, 128], conv_layers=[]
INFO: Learning...
INFO: Hyperparameters: lr=0.0001, gamma=0.99, eps_start=0.9, eps_end=0.05, eps_decay=50000, batch_size=32, tau=0.005,hidden_layers=[128, 128], conv_layers=[]
INFO: Number of parameters: 30085
INFO: QNetwork(
  (conv_feature): Sequential()
  (fc_feature): Sequential(
    (0): Linear(in_features=100, out_features=128, bias=True)
    (1): ReLU()
    (2): Linear(in_features=128, out_features=128, bias=True)
    (3): ReLU()
    (4): Linear(in_features=128, out_features=5, bias=True)
  )
)
INFO: Hyperparameters: lr=0.0001, gamma=0.99, eps_start=0.9, eps_end=0.05, eps_decay=50000, batch_size=32, tau=0.005,hidden_layers=[128, 128], conv_layers=[]
INFO: Learning...
INFO: Hyperparameters: lr=0.0001, gamma=0.99, eps_start=0.9, eps_end=0.05, eps_decay=50000, batch_size=32, tau=0.005,hidden_layers=[128, 128], conv_layers=[]
INFO: Number of parameters: 30085
INFO: QNetwork(
  (conv_feature): Sequential()
  (fc_feature): Sequential(
    (0): Linear(in_features=100, out_features=128, bias=True)
    (1): ReLU()
    (2): Linear(in_features=128, out_features=128, bias=True)
    (3): ReLU()
    (4): Linear(in_features=128, out_features=5, bias=True)
  )
)
INFO: Hyperparameters: lr=0.0001, gamma=0.99, eps_start=0.9, eps_end=0.05, eps_decay=50000, batch_size=32, tau=0.005,hidden_layers=[128, 128], conv_layers=[]
INFO: Learning...
INFO: BootcampName.HIDER Bootcamp completed, starting BootcampName.SEEKER Bootcamp #0 for 500 days
INFO: BootcampName.SEEKER Bootcamp completed, starting BootcampName.SLOW_AGENT Bootcamp #0 for 1000 days
…
INFO: Continuing with Bootcamp #0 BootcampName.SLOW_AGENT with slow factor: 4 for agent 0
INFO: Continuing with Bootcamp #0 BootcampName.SLOW_AGENT with slow factor: 3 for agent 1
INFO: Continuing with Bootcamp #0 BootcampName.SLOW_AGENT with slow factor: 3 for agent 0
INFO: Continuing with Bootcamp #0 BootcampName.SLOW_AGENT with slow factor: 2 for agent 1
INFO: Hyperparameters: lr=0.0001, gamma=0.99, eps_start=0.9, eps_end=0.05, eps_decay=50000, batch_size=32, tau=0.005,hidden_layers=[128, 128], conv_layers=[]
INFO: Number of parameters: 30085
INFO: QNetwork(
  (conv_feature): Sequential()
  (fc_feature): Sequential(
    (0): Linear(in_features=100, out_features=128, bias=True)
    (1): ReLU()
    (2): Linear(in_features=128, out_features=128, bias=True)
    (3): ReLU()
    (4): Linear(in_features=128, out_features=5, bias=True)
  )
)
INFO: Hyperparameters: lr=0.0001, gamma=0.99, eps_start=0.9, eps_end=0.05, eps_decay=50000, batch_size=32, tau=0.005,hidden_layers=[128, 128], conv_layers=[]
INFO: Learning...
INFO: Hyperparameters: lr=0.0001, gamma=0.99, eps_start=0.9, eps_end=0.05, eps_decay=50000, batch_size=32, tau=0.005,hidden_layers=[128, 128], conv_layers=[]
INFO: Number of parameters: 30085
INFO: QNetwork(
  (conv_feature): Sequential()
  (fc_feature): Sequential(
    (0): Linear(in_features=100, out_features=128, bias=True)
    (1): ReLU()
    (2): Linear(in_features=128, out_features=128, bias=True)
    (3): ReLU()
    (4): Linear(in_features=128, out_features=5, bias=True)
  )
)
INFO: Hyperparameters: lr=0.0001, gamma=0.99, eps_start=0.9, eps_end=0.05, eps_decay=50000, batch_size=32, tau=0.005,hidden_layers=[128, 128], conv_layers=[]
INFO: Learning...
INFO: BootcampName.HIDER Bootcamp completed, starting BootcampName.SEEKER Bootcamp #0 for 500 days
INFO: Hyperparameters: lr=0.0001, gamma=0.99, eps_start=0.9, eps_end=0.05, eps_decay=50000, batch_size=32, tau=0.005,hidden_layers=[128, 128], conv_layers=[]
INFO: Number of parameters: 30085
INFO: QNetwork(
  (conv_feature): Sequential()
  (fc_feature): Sequential(
    (0): Linear(in_features=100, out_features=128, bias=True)
    (1): ReLU()
    (2): Linear(in_features=128, out_features=128, bias=True)
    (3): ReLU()
    (4): Linear(in_features=128, out_features=5, bias=True)
  )
)
INFO: Hyperparameters: lr=0.0001, gamma=0.99, eps_start=0.9, eps_end=0.05, eps_decay=50000, batch_size=32, tau=0.005,hidden_layers=[128, 128], conv_layers=[]
INFO: Learning...
INFO: Hyperparameters: lr=0.0001, gamma=0.99, eps_start=0.9, eps_end=0.05, eps_decay=50000, batch_size=32, tau=0.005,hidden_layers=[128, 128], conv_layers=[]
INFO: Number of parameters: 30085
INFO: QNetwork(
  (conv_feature): Sequential()
  (fc_feature): Sequential(
    (0): Linear(in_features=100, out_features=128, bias=True)
    (1): ReLU()
    (2): Linear(in_features=128, out_features=128, bias=True)
    (3): ReLU()
    (4): Linear(in_features=128, out_features=5, bias=True)
  )
)
INFO: Hyperparameters: lr=0.0001, gamma=0.99, eps_start=0.9, eps_end=0.05, eps_decay=50000, batch_size=32, tau=0.005,hidden_layers=[128, 128], conv_layers=[]
INFO: Learning...
INFO: Hyperparameters: lr=0.0001, gamma=0.99, eps_start=0.9, eps_end=0.05, eps_decay=50000, batch_size=32, tau=0.005,hidden_layers=[128, 128], conv_layers=[]
INFO: Number of parameters: 30085
INFO: QNetwork(
  (conv_feature): Sequential()
  (fc_feature): Sequential(
    (0): Linear(in_features=100, out_features=128, bias=True)
    (1): ReLU()
    (2): Linear(in_features=128, out_features=128, bias=True)
    (3): ReLU()
    (4): Linear(in_features=128, out_features=5, bias=True)
  )
)
INFO: Hyperparameters: lr=0.0001, gamma=0.99, eps_start=0.9, eps_end=0.05, eps_decay=50000, batch_size=32, tau=0.005,hidden_layers=[128, 128], conv_layers=[]
INFO: Learning...
INFO: Hyperparameters: lr=0.0001, gamma=0.99, eps_start=0.9, eps_end=0.05, eps_decay=50000, batch_size=32, tau=0.005,hidden_layers=[128, 128], conv_layers=[]
INFO: Number of parameters: 30085
INFO: QNetwork(
  (conv_feature): Sequential()
  (fc_feature): Sequential(
    (0): Linear(in_features=100, out_features=128, bias=True)
    (1): ReLU()
    (2): Linear(in_features=128, out_features=128, bias=True)
    (3): ReLU()
    (4): Linear(in_features=128, out_features=5, bias=True)
  )
)
INFO: Hyperparameters: lr=0.0001, gamma=0.99, eps_start=0.9, eps_end=0.05, eps_decay=50000, batch_size=32, tau=0.005,hidden_layers=[128, 128], conv_layers=[]
INFO: Learning...
INFO: Hyperparameters: lr=0.0001, gamma=0.99, eps_start=0.9, eps_end=0.05, eps_decay=50000, batch_size=32, tau=0.005,hidden_layers=[128, 128], conv_layers=[]
INFO: Number of parameters: 30085
INFO: QNetwork(
  (conv_feature): Sequential()
  (fc_feature): Sequential(
    (0): Linear(in_features=100, out_features=128, bias=True)
    (1): ReLU()
    (2): Linear(in_features=128, out_features=128, bias=True)
    (3): ReLU()
    (4): Linear(in_features=128, out_features=5, bias=True)
  )
)
INFO: Hyperparameters: lr=0.0001, gamma=0.99, eps_start=0.9, eps_end=0.05, eps_decay=50000, batch_size=32, tau=0.005,hidden_layers=[128, 128], conv_layers=[]
INFO: Learning...
INFO: Hyperparameters: lr=0.0001, gamma=0.99, eps_start=0.9, eps_end=0.05, eps_decay=50000, batch_size=32, tau=0.005,hidden_layers=[128, 128], conv_layers=[]
INFO: Number of parameters: 30085
INFO: QNetwork(
  (conv_feature): Sequential()
  (fc_feature): Sequential(
    (0): Linear(in_features=100, out_features=128, bias=True)
    (1): ReLU()
    (2): Linear(in_features=128, out_features=128, bias=True)
    (3): ReLU()
    (4): Linear(in_features=128, out_features=5, bias=True)
  )
)
INFO: Hyperparameters: lr=0.0001, gamma=0.99, eps_start=0.9, eps_end=0.05, eps_decay=50000, batch_size=32, tau=0.005,hidden_layers=[128, 128], conv_layers=[]
INFO: Learning...
INFO: Hyperparameters: lr=0.0001, gamma=0.99, eps_start=0.9, eps_end=0.05, eps_decay=50000, batch_size=32, tau=0.005,hidden_layers=[128, 128], conv_layers=[]
INFO: Number of parameters: 30085
INFO: QNetwork(
  (conv_feature): Sequential()
  (fc_feature): Sequential(
    (0): Linear(in_features=100, out_features=128, bias=True)
    (1): ReLU()
    (2): Linear(in_features=128, out_features=128, bias=True)
    (3): ReLU()
    (4): Linear(in_features=128, out_features=5, bias=True)
  )
)
INFO: Hyperparameters: lr=0.0001, gamma=0.99, eps_start=0.9, eps_end=0.05, eps_decay=50000, batch_size=32, tau=0.005,hidden_layers=[128, 128], conv_layers=[]
INFO: Learning...
INFO: Hyperparameters: lr=0.0001, gamma=0.99, eps_start=0.9, eps_end=0.05, eps_decay=50000, batch_size=32, tau=0.005,hidden_layers=[128, 128], conv_layers=[]
INFO: Number of parameters: 30085
INFO: QNetwork(
  (conv_feature): Sequential()
  (fc_feature): Sequential(
    (0): Linear(in_features=100, out_features=128, bias=True)
    (1): ReLU()
    (2): Linear(in_features=128, out_features=128, bias=True)
    (3): ReLU()
    (4): Linear(in_features=128, out_features=5, bias=True)
  )
)
INFO: Hyperparameters: lr=0.0001, gamma=0.99, eps_start=0.9, eps_end=0.05, eps_decay=50000, batch_size=32, tau=0.005,hidden_layers=[128, 128], conv_layers=[]
INFO: Learning...
INFO: Hyperparameters: lr=0.0001, gamma=0.99, eps_start=0.9, eps_end=0.05, eps_decay=50000, batch_size=32, tau=0.005,hidden_layers=[128, 128], conv_layers=[]
INFO: Number of parameters: 30085
INFO: QNetwork(
  (conv_feature): Sequential()
  (fc_feature): Sequential(
    (0): Linear(in_features=100, out_features=128, bias=True)
    (1): ReLU()
    (2): Linear(in_features=128, out_features=128, bias=True)
    (3): ReLU()
    (4): Linear(in_features=128, out_features=5, bias=True)
  )
)
INFO: Hyperparameters: lr=0.0001, gamma=0.99, eps_start=0.9, eps_end=0.05, eps_decay=50000, batch_size=32, tau=0.005,hidden_layers=[128, 128], conv_layers=[]
INFO: Learning...
INFO: BootcampName.HIDER Bootcamp completed, starting BootcampName.SEEKER Bootcamp #0 for 500 days
INFO: Number of parameters: 30085
INFO: QNetwork(
  (conv_feature): Sequential()
  (fc_feature): Sequential(
    (0): Linear(in_features=100, out_features=128, bias=True)
    (1): ReLU()
    (2): Linear(in_features=128, out_features=128, bias=True)
    (3): ReLU()
    (4): Linear(in_features=128, out_features=5, bias=True)
  )
)
INFO: Learning...
INFO: BootcampName.HIDER Bootcamp completed, starting BootcampName.SEEKER Bootcamp #0 for 500 days
INFO: BootcampName.SEEKER Bootcamp completed, starting BootcampName.SLOW_AGENT Bootcamp #0 for 1000 days
INFO: Continuing with Bootcamp #0 BootcampName.SLOW_AGENT with slow factor: 9 for agent 1
INFO: Continuing with Bootcamp #0 BootcampName.SLOW_AGENT with slow factor: 9 for agent 0
INFO: Continuing with Bootcamp #0 BootcampName.SLOW_AGENT with slow factor: 8 for agent 1
INFO: Continuing with Bootcamp #0 BootcampName.SLOW_AGENT with slow factor: 8 for agent 0
INFO: Number of parameters: 30085
INFO: QNetwork(
  (conv_feature): Sequential()
  (fc_feature): Sequential(
    (0): Linear(in_features=100, out_features=128, bias=True)
    (1): ReLU()
    (2): Linear(in_features=128, out_features=128, bias=True)
    (3): ReLU()
    (4): Linear(in_features=128, out_features=5, bias=True)
  )
)
INFO: Learning...
INFO: BootcampName.HIDER Bootcamp completed, starting BootcampName.SEEKER Bootcamp #0 for 500 days
INFO: Number of parameters: 30085
INFO: QNetwork(
  (conv_feature): Sequential()
  (fc_feature): Sequential(
    (0): Linear(in_features=100, out_features=128, bias=True)
    (1): ReLU()
    (2): Linear(in_features=128, out_features=128, bias=True)
    (3): ReLU()
    (4): Linear(in_features=128, out_features=5, bias=True)
  )
)
INFO: Learning...
INFO: Number of parameters: 30085
INFO: QNetwork(
  (conv_feature): Sequential()
  (fc_feature): Sequential(
    (0): Linear(in_features=100, out_features=128, bias=True)
    (1): ReLU()
    (2): Linear(in_features=128, out_features=128, bias=True)
    (3): ReLU()
    (4): Linear(in_features=128, out_features=5, bias=True)
  )
)
INFO: Learning...
INFO: BootcampName.HIDER Bootcamp completed, starting BootcampName.SEEKER Bootcamp #0 for 500 days
INFO: BootcampName.SEEKER Bootcamp completed, starting BootcampName.SLOW_AGENT Bootcamp #0 for 1000 days
INFO: Continuing with Bootcamp #0 BootcampName.SLOW_AGENT with slow factor: 9 for agent 1
INFO: Continuing with Bootcamp #0 BootcampName.SLOW_AGENT with slow factor: 9 for agent 0
…
INFO: Continuing with Bootcamp #0 BootcampName.SLOW_AGENT with slow factor: 8 for agent 1
INFO: Continuing with Bootcamp #0 BootcampName.SLOW_AGENT with slow factor: 8 for agent 0
INFO: Continuing with Bootcamp #0 BootcampName.SLOW_AGENT with slow factor: 7 for agent 1
INFO: Continuing with Bootcamp #0 BootcampName.SLOW_AGENT with slow factor: 7 for agent 0
INFO: Continuing with Bootcamp #0 BootcampName.SLOW_AGENT with slow factor: 6 for agent 1
INFO: Continuing with Bootcamp #0 BootcampName.SLOW_AGENT with slow factor: 6 for agent 0
INFO: Number of parameters: 30085
INFO: QNetwork(
  (conv_feature): Sequential()
  (fc_feature): Sequential(
    (0): Linear(in_features=100, out_features=128, bias=True)
    (1): ReLU()
    (2): Linear(in_features=128, out_features=128, bias=True)
    (3): ReLU()
    (4): Linear(in_features=128, out_features=5, bias=True)
  )
)
INFO: Learning...
INFO: BootcampName.HIDER Bootcamp completed, starting BootcampName.SEEKER Bootcamp #0 for 500 days
INFO: BootcampName.SEEKER Bootcamp completed, starting BootcampName.SLOW_AGENT Bootcamp #0 for 1000 days
INFO: Continuing with Bootcamp #0 BootcampName.SLOW_AGENT with slow factor: 9 for agent 1
INFO: Continuing with Bootcamp #0 BootcampName.SLOW_AGENT with slow factor: 9 for agent 0
INFO: Continuing with Bootcamp #0 BootcampName.SLOW_AGENT with slow factor: 8 for agent 1
INFO: Number of parameters: 30085
INFO: QNetwork(
  (conv_feature): Sequential()
  (fc_feature): Sequential(
    (0): Linear(in_features=100, out_features=128, bias=True)
    (1): ReLU()
    (2): Linear(in_features=128, out_features=128, bias=True)
    (3): ReLU()
    (4): Linear(in_features=128, out_features=5, bias=True)
  )
)
INFO: Learning...
INFO: BootcampName.HIDER Bootcamp completed, starting BootcampName.SEEKER Bootcamp #0 for 500 days
INFO: BootcampName.SEEKER Bootcamp completed, starting BootcampName.SLOW_AGENT Bootcamp #0 for 1000 days
INFO: Continuing with Bootcamp #0 BootcampName.SLOW_AGENT with slow factor: 9 for agent 1
INFO: Continuing with Bootcamp #0 BootcampName.SLOW_AGENT with slow factor: 9 for agent 0
INFO: Continuing with Bootcamp #0 BootcampName.SLOW_AGENT with slow factor: 8 for agent 1
INFO: Number of parameters: 30085
INFO: QNetwork(
  (conv_feature): Sequential()
  (fc_feature): Sequential(
    (0): Linear(in_features=100, out_features=128, bias=True)
    (1): ReLU()
    (2): Linear(in_features=128, out_features=128, bias=True)
    (3): ReLU()
    (4): Linear(in_features=128, out_features=5, bias=True)
  )
)
INFO: Learning...
INFO: Number of parameters: 30085
INFO: QNetwork(
  (conv_feature): Sequential()
  (fc_feature): Sequential(
    (0): Linear(in_features=100, out_features=128, bias=True)
    (1): ReLU()
    (2): Linear(in_features=128, out_features=128, bias=True)
    (3): ReLU()
    (4): Linear(in_features=128, out_features=5, bias=True)
  )
)
INFO: Learning...
INFO: BootcampName.HIDER Bootcamp completed, starting BootcampName.SEEKER Bootcamp #0 for 500 days
INFO: BootcampName.SEEKER Bootcamp completed, starting BootcampName.SLOW_AGENT Bootcamp #0 for 1000 days
INFO: Continuing with Bootcamp #0 BootcampName.SLOW_AGENT with slow factor: 9 for agent 1
INFO: Continuing with Bootcamp #0 BootcampName.SLOW_AGENT with slow factor: 9 for agent 0
INFO: Continuing with Bootcamp #0 BootcampName.SLOW_AGENT with slow factor: 8 for agent 1
INFO: Continuing with Bootcamp #0 BootcampName.SLOW_AGENT with slow factor: 8 for agent 0
INFO: Number of parameters: 30085
INFO: QNetwork(
  (conv_feature): Sequential()
  (fc_feature): Sequential(
    (0): Linear(in_features=100, out_features=128, bias=True)
    (1): ReLU()
    (2): Linear(in_features=128, out_features=128, bias=True)
    (3): ReLU()
    (4): Linear(in_features=128, out_features=5, bias=True)
  )
)
INFO: Learning...
INFO: BootcampName.HIDER Bootcamp completed, starting BootcampName.SEEKER Bootcamp #0 for 500 days
INFO: BootcampName.SEEKER Bootcamp completed, starting BootcampName.SLOW_AGENT Bootcamp #0 for 1000 days
INFO: Number of parameters: 30085
INFO: QNetwork(
  (conv_feature): Sequential()
  (fc_feature): Sequential(
    (0): Linear(in_features=100, out_features=128, bias=True)
    (1): ReLU()
    (2): Linear(in_features=128, out_features=128, bias=True)
    (3): ReLU()
    (4): Linear(in_features=128, out_features=5, bias=True)
  )
)
INFO: Learning...
INFO: BootcampName.HIDER Bootcamp completed, starting BootcampName.SEEKER Bootcamp #0 for 500 days
INFO: BootcampName.SEEKER Bootcamp completed, starting BootcampName.SLOW_AGENT Bootcamp #0 for 1000 days
INFO: Continuing with Bootcamp #0 BootcampName.SLOW_AGENT with slow factor: 9 for agent 1
INFO: Continuing with Bootcamp #0 BootcampName.SLOW_AGENT with slow factor: 9 for agent 0
INFO: Number of parameters: 30085
INFO: QNetwork(
  (conv_feature): Sequential()
  (fc_feature): Sequential(
    (0): Linear(in_features=100, out_features=128, bias=True)
    (1): ReLU()
    (2): Linear(in_features=128, out_features=128, bias=True)
    (3): ReLU()
    (4): Linear(in_features=128, out_features=5, bias=True)
  )
)
INFO: Learning...
INFO: Number of parameters: 30085
INFO: QNetwork(
  (conv_feature): Sequential()
  (fc_feature): Sequential(
    (0): Linear(in_features=100, out_features=128, bias=True)
    (1): ReLU()
    (2): Linear(in_features=128, out_features=128, bias=True)
    (3): ReLU()
    (4): Linear(in_features=128, out_features=5, bias=True)
  )
)
WARNING: GIF is enabled but the environment does not support RGB array rendering.
INFO: Learning...
INFO: Number of parameters: 30085
INFO: QNetwork(
  (conv_feature): Sequential()
  (fc_feature): Sequential(
    (0): Linear(in_features=100, out_features=128, bias=True)
    (1): ReLU()
    (2): Linear(in_features=128, out_features=128, bias=True)
    (3): ReLU()
    (4): Linear(in_features=128, out_features=5, bias=True)
  )
)
WARNING: GIF is enabled but the environment does not support RGB array rendering.
INFO: Learning...
INFO: BootcampName.HIDER Bootcamp completed, starting BootcampName.SEEKER Bootcamp #0 for 500 days
INFO: BootcampName.SEEKER Bootcamp completed, starting BootcampName.SLOW_AGENT Bootcamp #0 for 1000 days
INFO: Number of parameters: 30085
INFO: QNetwork(
  (conv_feature): Sequential()
  (fc_feature): Sequential(
    (0): Linear(in_features=100, out_features=128, bias=True)
    (1): ReLU()
    (2): Linear(in_features=128, out_features=128, bias=True)
    (3): ReLU()
    (4): Linear(in_features=128, out_features=5, bias=True)
  )
)
WARNING: GIF is enabled but the environment does not support RGB array rendering.
INFO: Learning...
INFO: BootcampName.HIDER Bootcamp completed, starting BootcampName.SEEKER Bootcamp #0 for 500 days
INFO: BootcampName.SEEKER Bootcamp completed, starting BootcampName.SLOW_AGENT Bootcamp #0 for 1000 days
INFO: Number of parameters: 30085
INFO: QNetwork(
  (conv_feature): Sequential()
  (fc_feature): Sequential(
    (0): Linear(in_features=100, out_features=128, bias=True)
    (1): ReLU()
    (2): Linear(in_features=128, out_features=128, bias=True)
    (3): ReLU()
    (4): Linear(in_features=128, out_features=5, bias=True)
  )
)
WARNING: GIF is enabled but the environment does not support RGB array rendering.
INFO: Learning...
INFO: Number of parameters: 30085
INFO: QNetwork(
  (conv_feature): Sequential()
  (fc_feature): Sequential(
    (0): Linear(in_features=100, out_features=128, bias=True)
    (1): ReLU()
    (2): Linear(in_features=128, out_features=128, bias=True)
    (3): ReLU()
    (4): Linear(in_features=128, out_features=5, bias=True)
  )
)
WARNING: GIF is enabled but the environment does not support RGB array rendering.
INFO: Learning...
INFO: Number of parameters: 30085
INFO: QNetwork(
  (conv_feature): Sequential()
  (fc_feature): Sequential(
    (0): Linear(in_features=100, out_features=128, bias=True)
    (1): ReLU()
    (2): Linear(in_features=128, out_features=128, bias=True)
    (3): ReLU()
    (4): Linear(in_features=128, out_features=5, bias=True)
  )
)
WARNING: GIF is enabled but the environment does not support RGB array rendering.
INFO: Learning...
INFO: Number of parameters: 30085
INFO: QNetwork(
  (conv_feature): Sequential()
  (fc_feature): Sequential(
    (0): Linear(in_features=100, out_features=128, bias=True)
    (1): ReLU()
    (2): Linear(in_features=128, out_features=128, bias=True)
    (3): ReLU()
    (4): Linear(in_features=128, out_features=5, bias=True)
  )
)
WARNING: GIF is enabled but the environment does not support RGB array rendering.
INFO: Learning...
INFO: Number of parameters: 30085
INFO: QNetwork(
  (conv_feature): Sequential()
  (fc_feature): Sequential(
    (0): Linear(in_features=100, out_features=128, bias=True)
    (1): ReLU()
    (2): Linear(in_features=128, out_features=128, bias=True)
    (3): ReLU()
    (4): Linear(in_features=128, out_features=5, bias=True)
  )
)
WARNING: GIF is enabled but the environment does not support RGB array rendering.
INFO: Learning...
INFO: BootcampName.HIDER Bootcamp completed, starting BootcampName.SEEKER Bootcamp #0 for 500 days
INFO: Number of parameters: 30085
INFO: QNetwork(
  (conv_feature): Sequential()
  (fc_feature): Sequential(
    (0): Linear(in_features=100, out_features=128, bias=True)
    (1): ReLU()
    (2): Linear(in_features=128, out_features=128, bias=True)
    (3): ReLU()
    (4): Linear(in_features=128, out_features=5, bias=True)
  )
)
INFO: Learning...
INFO: BootcampName.HIDER Bootcamp completed, starting BootcampName.SEEKER Bootcamp #0 for 500 days
INFO: BootcampName.SEEKER Bootcamp completed, starting BootcampName.SLOW_AGENT Bootcamp #0 for 1000 days
INFO: Continuing with Bootcamp #0 BootcampName.SLOW_AGENT with slow factor: 9 for agent 1
INFO: Continuing with Bootcamp #0 BootcampName.SLOW_AGENT with slow factor: 9 for agent 0
INFO: Continuing with Bootcamp #0 BootcampName.SLOW_AGENT with slow factor: 8 for agent 1
INFO: Continuing with Bootcamp #0 BootcampName.SLOW_AGENT with slow factor: 8 for agent 0
INFO: Continuing with Bootcamp #0 BootcampName.SLOW_AGENT with slow factor: 7 for agent 1
INFO: Number of parameters: 30085
INFO: QNetwork(
  (conv_feature): Sequential()
  (fc_feature): Sequential(
    (0): Linear(in_features=100, out_features=128, bias=True)
    (1): ReLU()
    (2): Linear(in_features=128, out_features=128, bias=True)
    (3): ReLU()
    (4): Linear(in_features=128, out_features=5, bias=True)
  )
)
INFO: Learning...
INFO: BootcampName.HIDER Bootcamp completed, starting BootcampName.SEEKER Bootcamp #0 for 500 days
INFO: BootcampName.SEEKER Bootcamp completed, starting BootcampName.SLOW_AGENT Bootcamp #0 for 1000 days
INFO: Continuing with Bootcamp #0 BootcampName.SLOW_AGENT with slow factor: 9 for agent 1
INFO: Continuing with Bootcamp #0 BootcampName.SLOW_AGENT with slow factor: 9 for agent 0
…
INFO: Continuing with Bootcamp #0 BootcampName.SLOW_AGENT with slow factor: 3 for agent 1
INFO: Continuing with Bootcamp #0 BootcampName.SLOW_AGENT with slow factor: 3 for agent 0
INFO: Continuing with Bootcamp #0 BootcampName.SLOW_AGENT with slow factor: 2 for agent 1
INFO: Continuing with Bootcamp #0 BootcampName.SLOW_AGENT with slow factor: 2 for agent 0
INFO: BootcampName.SLOW_AGENT Bootcamp completed, starting BootcampName.COMBINED Bootcamp #0 for 1000 days
INFO: BootcampName.COMBINED Bootcamp completed, starting BootcampName.FINISHED Bootcamp #0 for 0 days
INFO: Number of parameters: 30085
INFO: QNetwork(
  (conv_feature): Sequential()
  (fc_feature): Sequential(
    (0): Linear(in_features=100, out_features=128, bias=True)
    (1): ReLU()
    (2): Linear(in_features=128, out_features=128, bias=True)
    (3): ReLU()
    (4): Linear(in_features=128, out_features=5, bias=True)
  )
)
INFO: Learning...
INFO: Number of parameters: 30085
INFO: QNetwork(
  (conv_feature): Sequential()
  (fc_feature): Sequential(
    (0): Linear(in_features=100, out_features=128, bias=True)
    (1): ReLU()
    (2): Linear(in_features=128, out_features=128, bias=True)
    (3): ReLU()
    (4): Linear(in_features=128, out_features=5, bias=True)
  )
)
INFO: Learning...
INFO: Number of parameters: 30085
INFO: QNetwork(
  (conv_feature): Sequential()
  (fc_feature): Sequential(
    (0): Linear(in_features=100, out_features=128, bias=True)
    (1): ReLU()
    (2): Linear(in_features=128, out_features=128, bias=True)
    (3): ReLU()
    (4): Linear(in_features=128, out_features=5, bias=True)
  )
)
WARNING: GIF is enabled but the environment does not support RGB array rendering.
INFO: Learning...
INFO: Number of parameters: 30085
INFO: QNetwork(
  (conv_feature): Sequential()
  (fc_feature): Sequential(
    (0): Linear(in_features=100, out_features=128, bias=True)
    (1): ReLU()
    (2): Linear(in_features=128, out_features=128, bias=True)
    (3): ReLU()
    (4): Linear(in_features=128, out_features=5, bias=True)
  )
)
WARNING: GIF is enabled but the environment does not support RGB array rendering.
INFO: Learning...
INFO: Number of parameters: 30085
INFO: QNetwork(
  (conv_feature): Sequential()
  (fc_feature): Sequential(
    (0): Linear(in_features=100, out_features=128, bias=True)
    (1): ReLU()
    (2): Linear(in_features=128, out_features=128, bias=True)
    (3): ReLU()
    (4): Linear(in_features=128, out_features=5, bias=True)
  )
)
WARNING: GIF is enabled but the environment does not support RGB array rendering.
INFO: Learning...
INFO: Number of parameters: 30085
INFO: QNetwork(
  (conv_feature): Sequential()
  (fc_feature): Sequential(
    (0): Linear(in_features=100, out_features=128, bias=True)
    (1): ReLU()
    (2): Linear(in_features=128, out_features=128, bias=True)
    (3): ReLU()
    (4): Linear(in_features=128, out_features=5, bias=True)
  )
)
WARNING: GIF is enabled but the environment does not support RGB array rendering.
INFO: Learning...
ERROR: display Surface quit
ERROR: Traceback (most recent call last):
  File "/home/eirik/Projects/XAI/rl/src/dqn/wrapper/multi_agent_dqn.py", line 107, in learn
    self._collect_rollouts()
  File "/home/eirik/Projects/XAI/rl/src/dqn/wrapper/multi_agent_dqn.py", line 202, in _collect_rollouts
…
INFO: Continuing with Bootcamp #0 BootcampName.SLOW_AGENT with slow factor: 8 for agent 0
INFO: Continuing with Bootcamp #0 BootcampName.SLOW_AGENT with slow factor: 7 for agent 1
INFO: Continuing with Bootcamp #0 BootcampName.SLOW_AGENT with slow factor: 7 for agent 0
INFO: Continuing with Bootcamp #0 BootcampName.SLOW_AGENT with slow factor: 6 for agent 1
INFO: Continuing with Bootcamp #0 BootcampName.SLOW_AGENT with slow factor: 6 for agent 0
INFO: Continuing with Bootcamp #0 BootcampName.SLOW_AGENT with slow factor: 5 for agent 1
INFO: Number of parameters: 266242
INFO: QNetwork(
  (conv_feature): Sequential()
  (fc_feature): Sequential(
    (0): Linear(in_features=4, out_features=512, bias=True)
    (1): ReLU()
    (2): Linear(in_features=512, out_features=512, bias=True)
    (3): ReLU()
    (4): Linear(in_features=512, out_features=2, bias=True)
  )
)
INFO: Learning...
INFO: Initializing Shap...
INFO: Explaining...
INFO: Number of parameters: 266242
INFO: QNetwork(
  (conv_feature): Sequential()
  (fc_feature): Sequential(
    (0): Linear(in_features=4, out_features=512, bias=True)
    (1): ReLU()
    (2): Linear(in_features=512, out_features=512, bias=True)
    (3): ReLU()
    (4): Linear(in_features=512, out_features=2, bias=True)
  )
)
WARNING: GIF is enabled but the environment does not support RGB array rendering.
INFO: Learning...
INFO: Number of parameters: 17410
INFO: QNetwork(
  (conv_feature): Sequential()
  (fc_feature): Sequential(
    (0): Linear(in_features=4, out_features=128, bias=True)
    (1): ReLU()
    (2): Linear(in_features=128, out_features=128, bias=True)
    (3): ReLU()
    (4): Linear(in_features=128, out_features=2, bias=True)
  )
)
INFO: Learning...
INFO: Cleaning cache: /home/eirik/.cache/wandb/artifacts/obj 0.00390625 MB
INFO: cleaning local: /home/eirik/.local/share/wandb/artifacts/staging 0.00390625 MB
INFO: Number of parameters: 17410
INFO: QNetwork(
  (conv_feature): Sequential()
  (fc_feature): Sequential(
    (0): Linear(in_features=4, out_features=128, bias=True)
    (1): ReLU()
    (2): Linear(in_features=128, out_features=128, bias=True)
    (3): ReLU()
    (4): Linear(in_features=128, out_features=2, bias=True)
  )
)
INFO: Learning...
INFO: Initializing Shap...
INFO: Explaining...
INFO: Number of parameters: 17410
INFO: QNetwork(
  (conv_feature): Sequential()
  (fc_feature): Sequential(
    (0): Linear(in_features=4, out_features=128, bias=True)
    (1): ReLU()
    (2): Linear(in_features=128, out_features=128, bias=True)
    (3): ReLU()
    (4): Linear(in_features=128, out_features=2, bias=True)
  )
)
INFO: Learning...
INFO: Number of parameters: 17410
INFO: QNetwork(
  (conv_feature): Sequential()
  (fc_feature): Sequential(
    (0): Linear(in_features=4, out_features=128, bias=True)
    (1): ReLU()
    (2): Linear(in_features=128, out_features=128, bias=True)
    (3): ReLU()
    (4): Linear(in_features=128, out_features=2, bias=True)
  )
)
INFO: Learning...
INFO: Number of parameters: 17410
INFO: QNetwork(
  (conv_feature): Sequential()
  (fc_feature): Sequential(
    (0): Linear(in_features=4, out_features=128, bias=True)
    (1): ReLU()
    (2): Linear(in_features=128, out_features=128, bias=True)
    (3): ReLU()
    (4): Linear(in_features=128, out_features=2, bias=True)
  )
)
INFO: Learning...
INFO: Number of parameters: 17410
INFO: QNetwork(
  (conv_feature): Sequential()
  (fc_feature): Sequential(
    (0): Linear(in_features=4, out_features=128, bias=True)
    (1): ReLU()
    (2): Linear(in_features=128, out_features=128, bias=True)
    (3): ReLU()
    (4): Linear(in_features=128, out_features=2, bias=True)
  )
)
INFO: Learning...
INFO: Number of parameters: 17410
INFO: QNetwork(
  (conv_feature): Sequential()
  (fc_feature): Sequential(
    (0): Linear(in_features=4, out_features=128, bias=True)
    (1): ReLU()
    (2): Linear(in_features=128, out_features=128, bias=True)
    (3): ReLU()
    (4): Linear(in_features=128, out_features=2, bias=True)
  )
)
INFO: Learning...
INFO: Number of parameters: 17410
INFO: QNetwork(
  (conv_feature): Sequential()
  (fc_feature): Sequential(
    (0): Linear(in_features=4, out_features=128, bias=True)
    (1): ReLU()
    (2): Linear(in_features=128, out_features=128, bias=True)
    (3): ReLU()
    (4): Linear(in_features=128, out_features=2, bias=True)
  )
)
INFO: Learning...
INFO: Number of parameters: 17410
INFO: QNetwork(
  (conv_feature): Sequential()
  (fc_feature): Sequential(
    (0): Linear(in_features=4, out_features=128, bias=True)
    (1): ReLU()
    (2): Linear(in_features=128, out_features=128, bias=True)
    (3): ReLU()
    (4): Linear(in_features=128, out_features=2, bias=True)
  )
)
INFO: Learning...
INFO: Number of parameters: 17410
INFO: QNetwork(
  (conv_feature): Sequential()
  (fc_feature): Sequential(
    (0): Linear(in_features=4, out_features=128, bias=True)
    (1): ReLU()
    (2): Linear(in_features=128, out_features=128, bias=True)
    (3): ReLU()
    (4): Linear(in_features=128, out_features=2, bias=True)
  )
)
INFO: Learning...
INFO: Number of parameters: 17410
INFO: QNetwork(
  (conv_feature): Sequential()
  (fc_feature): Sequential(
    (0): Linear(in_features=4, out_features=128, bias=True)
    (1): ReLU()
    (2): Linear(in_features=128, out_features=128, bias=True)
    (3): ReLU()
    (4): Linear(in_features=128, out_features=2, bias=True)
  )
)
INFO: Learning...
INFO: Number of parameters: 17410
INFO: QNetwork(
  (conv_feature): Sequential()
  (fc_feature): Sequential(
    (0): Linear(in_features=4, out_features=128, bias=True)
    (1): ReLU()
    (2): Linear(in_features=128, out_features=128, bias=True)
    (3): ReLU()
    (4): Linear(in_features=128, out_features=2, bias=True)
  )
)
INFO: Learning...
INFO: Number of parameters: 17410
INFO: QNetwork(
  (conv_feature): Sequential()
  (fc_feature): Sequential(
    (0): Linear(in_features=4, out_features=128, bias=True)
    (1): ReLU()
    (2): Linear(in_features=128, out_features=128, bias=True)
    (3): ReLU()
    (4): Linear(in_features=128, out_features=2, bias=True)
  )
)
INFO: Learning...
INFO: Number of parameters: 17410
INFO: QNetwork(
  (conv_feature): Sequential()
  (fc_feature): Sequential(
    (0): Linear(in_features=4, out_features=128, bias=True)
    (1): ReLU()
    (2): Linear(in_features=128, out_features=128, bias=True)
    (3): ReLU()
    (4): Linear(in_features=128, out_features=2, bias=True)
  )
)
INFO: Learning...
INFO: Number of parameters: 17410
INFO: QNetwork(
  (conv_feature): Sequential()
  (fc_feature): Sequential(
    (0): Linear(in_features=4, out_features=128, bias=True)
    (1): ReLU()
    (2): Linear(in_features=128, out_features=128, bias=True)
    (3): ReLU()
    (4): Linear(in_features=128, out_features=2, bias=True)
  )
)
INFO: Learning...
INFO: Number of parameters: 30085
INFO: QNetwork(
  (conv_feature): Sequential()
  (fc_feature): Sequential(
    (0): Linear(in_features=100, out_features=128, bias=True)
    (1): ReLU()
    (2): Linear(in_features=128, out_features=128, bias=True)
    (3): ReLU()
    (4): Linear(in_features=128, out_features=5, bias=True)
  )
)
WARNING: GIF is enabled but the environment does not support RGB array rendering.
INFO: Learning...
INFO: Number of parameters: 30085
INFO: QNetwork(
  (conv_feature): Sequential()
  (fc_feature): Sequential(
    (0): Linear(in_features=100, out_features=128, bias=True)
    (1): ReLU()
    (2): Linear(in_features=128, out_features=128, bias=True)
    (3): ReLU()
    (4): Linear(in_features=128, out_features=5, bias=True)
  )
)
WARNING: GIF is enabled but the environment does not support RGB array rendering.
INFO: Learning...
INFO: BootcampName.HIDER Bootcamp completed, starting BootcampName.SEEKER Bootcamp #0 for 0 days
INFO: BootcampName.SEEKER Bootcamp completed, starting BootcampName.SLOW_AGENT Bootcamp #0 for 0 days
INFO: Continuing with Bootcamp #0 BootcampName.SLOW_AGENT with slow factor: 9 for agent 1
…
INFO: Continuing with Bootcamp #0 BootcampName.SLOW_AGENT with slow factor: 3 for agent 1
INFO: Continuing with Bootcamp #0 BootcampName.SLOW_AGENT with slow factor: 3 for agent 0
INFO: Continuing with Bootcamp #0 BootcampName.SLOW_AGENT with slow factor: 2 for agent 1
INFO: Continuing with Bootcamp #0 BootcampName.SLOW_AGENT with slow factor: 2 for agent 0
INFO: BootcampName.SLOW_AGENT Bootcamp completed, starting BootcampName.COMBINED Bootcamp #0 for 0 days
INFO: BootcampName.COMBINED Bootcamp completed, starting BootcampName.FINISHED Bootcamp #0 for 0 days
INFO: Number of parameters: 63845
INFO: QNetwork(
  (conv_feature): Sequential(
    (0): Conv2d(1, 32, kernel_size=(3, 3), stride=(1, 1))
    (1): ReLU()
    (2): BatchNorm2d(32, eps=1e-05, momentum=0.1, affine=True, track_running_stats=True)
    (3): Conv2d(32, 32, kernel_size=(3, 3), stride=(1, 1))
    (4): ReLU()
    (5): BatchNorm2d(32, eps=1e-05, momentum=0.1, affine=True, track_running_stats=True)
  )
  (fc_feature): Sequential(
    (0): Linear(in_features=288, out_features=128, bias=True)
    (1): ReLU()
    (2): Linear(in_features=128, out_features=128, bias=True)
    (3): ReLU()
    (4): Linear(in_features=128, out_features=5, bias=True)
  )
)
INFO: Learning...
INFO: BootcampName.HIDER Bootcamp completed, starting BootcampName.SEEKER Bootcamp #0 for 0 days
ERROR: boolean index did not match indexed array along dimension 0; dimension is 10 but corresponding boolean dimension is 7
ERROR: Traceback (most recent call last):
  File "/home/eirik/Projects/XAI/rl/src/dqn/wrapper/multi_agent_dqn.py", line 108, in learn
…
INFO: Continuing with Bootcamp #0 BootcampName.SLOW_AGENT with slow factor: 3 for agent 1
INFO: Continuing with Bootcamp #0 BootcampName.SLOW_AGENT with slow factor: 3 for agent 0
INFO: Continuing with Bootcamp #0 BootcampName.SLOW_AGENT with slow factor: 2 for agent 1
INFO: Continuing with Bootcamp #0 BootcampName.SLOW_AGENT with slow factor: 2 for agent 0
INFO: BootcampName.SLOW_AGENT Bootcamp completed, starting BootcampName.COMBINED Bootcamp #0 for 0 days
INFO: BootcampName.COMBINED Bootcamp completed, starting BootcampName.FINISHED Bootcamp #0 for 0 days
INFO: Number of parameters: 47333
INFO: QNetwork(
  (conv_feature): Sequential(
    (0): Conv2d(1, 32, kernel_size=(3, 3), stride=(1, 1))
    (1): ReLU()
    (2): BatchNorm2d(32, eps=1e-05, momentum=0.1, affine=True, track_running_stats=True)
    (3): Conv2d(32, 32, kernel_size=(3, 3), stride=(1, 1))
    (4): ReLU()
    (5): BatchNorm2d(32, eps=1e-05, momentum=0.1, affine=True, track_running_stats=True)
  )
  (fc_feature): Sequential(
    (0): Linear(in_features=288, out_features=128, bias=True)
    (1): ReLU()
    (2): Linear(in_features=128, out_features=5, bias=True)
  )
)
INFO: Learning...
INFO: BootcampName.HIDER Bootcamp completed, starting BootcampName.SEEKER Bootcamp #0 for 0 days
INFO: BootcampName.SEEKER Bootcamp completed, starting BootcampName.SLOW_AGENT Bootcamp #0 for 0 days
INFO: Continuing with Bootcamp #0 BootcampName.SLOW_AGENT with slow factor: 9 for agent 1
INFO: Continuing with Bootcamp #0 BootcampName.SLOW_AGENT with slow factor: 9 for agent 0
…
INFO: Continuing with Bootcamp #0 BootcampName.SLOW_AGENT with slow factor: 3 for agent 1
INFO: Continuing with Bootcamp #0 BootcampName.SLOW_AGENT with slow factor: 3 for agent 0
INFO: Continuing with Bootcamp #0 BootcampName.SLOW_AGENT with slow factor: 2 for agent 1
INFO: Continuing with Bootcamp #0 BootcampName.SLOW_AGENT with slow factor: 2 for agent 0
INFO: BootcampName.SLOW_AGENT Bootcamp completed, starting BootcampName.COMBINED Bootcamp #0 for 0 days
INFO: BootcampName.COMBINED Bootcamp completed, starting BootcampName.FINISHED Bootcamp #0 for 0 days
INFO: Number of parameters: 47333
INFO: QNetwork(
  (conv_feature): Sequential(
    (0): Conv2d(1, 32, kernel_size=(3, 3), stride=(1, 1))
    (1): ReLU()
    (2): BatchNorm2d(32, eps=1e-05, momentum=0.1, affine=True, track_running_stats=True)
    (3): Conv2d(32, 32, kernel_size=(3, 3), stride=(1, 1))
    (4): ReLU()
    (5): BatchNorm2d(32, eps=1e-05, momentum=0.1, affine=True, track_running_stats=True)
  )
  (fc_feature): Sequential(
    (0): Linear(in_features=288, out_features=128, bias=True)
    (1): ReLU()
    (2): Linear(in_features=128, out_features=5, bias=True)
  )
)
WARNING: GIF is enabled but the environment does not support RGB array rendering.
INFO: Learning...
INFO: Number of parameters: 47333
INFO: QNetwork(
  (conv_feature): Sequential(
    (0): Conv2d(1, 32, kernel_size=(3, 3), stride=(1, 1))
    (1): ReLU()
    (2): BatchNorm2d(32, eps=1e-05, momentum=0.1, affine=True, track_running_stats=True)
    (3): Conv2d(32, 32, kernel_size=(3, 3), stride=(1, 1))
    (4): ReLU()
    (5): BatchNorm2d(32, eps=1e-05, momentum=0.1, affine=True, track_running_stats=True)
  )
  (fc_feature): Sequential(
    (0): Linear(in_features=288, out_features=128, bias=True)
    (1): ReLU()
    (2): Linear(in_features=128, out_features=5, bias=True)
  )
)
WARNING: GIF is enabled but the environment does not support RGB array rendering.
INFO: Learning...
INFO: Number of parameters: 47333
INFO: QNetwork(
  (conv_feature): Sequential(
    (0): Conv2d(1, 32, kernel_size=(3, 3), stride=(1, 1))
    (1): ReLU()
    (2): BatchNorm2d(32, eps=1e-05, momentum=0.1, affine=True, track_running_stats=True)
    (3): Conv2d(32, 32, kernel_size=(3, 3), stride=(1, 1))
    (4): ReLU()
    (5): BatchNorm2d(32, eps=1e-05, momentum=0.1, affine=True, track_running_stats=True)
  )
  (fc_feature): Sequential(
    (0): Linear(in_features=288, out_features=128, bias=True)
    (1): ReLU()
    (2): Linear(in_features=128, out_features=5, bias=True)
  )
)
WARNING: GIF is enabled but the environment does not support RGB array rendering.
INFO: Learning...
INFO: BootcampName.HIDER Bootcamp completed, starting BootcampName.SEEKER Bootcamp #0 for 0 days
INFO: BootcampName.SEEKER Bootcamp completed, starting BootcampName.SLOW_AGENT Bootcamp #0 for 0 days
INFO: Continuing with Bootcamp #0 BootcampName.SLOW_AGENT with slow factor: 9 for agent 1
…
INFO: Continuing with Bootcamp #0 BootcampName.SLOW_AGENT with slow factor: 3 for agent 1
INFO: Continuing with Bootcamp #0 BootcampName.SLOW_AGENT with slow factor: 3 for agent 0
INFO: Continuing with Bootcamp #0 BootcampName.SLOW_AGENT with slow factor: 2 for agent 1
INFO: Continuing with Bootcamp #0 BootcampName.SLOW_AGENT with slow factor: 2 for agent 0
INFO: BootcampName.SLOW_AGENT Bootcamp completed, starting BootcampName.COMBINED Bootcamp #0 for 0 days
INFO: BootcampName.COMBINED Bootcamp completed, starting BootcampName.FINISHED Bootcamp #0 for 0 days
INFO: Number of parameters: 47333
INFO: QNetwork(
  (conv_feature): Sequential(
    (0): Conv2d(1, 32, kernel_size=(3, 3), stride=(1, 1))
    (1): ReLU()
    (2): BatchNorm2d(32, eps=1e-05, momentum=0.1, affine=True, track_running_stats=True)
    (3): Conv2d(32, 32, kernel_size=(3, 3), stride=(1, 1))
    (4): ReLU()
    (5): BatchNorm2d(32, eps=1e-05, momentum=0.1, affine=True, track_running_stats=True)
  )
  (fc_feature): Sequential(
    (0): Linear(in_features=288, out_features=128, bias=True)
    (1): ReLU()
    (2): Linear(in_features=128, out_features=5, bias=True)
  )
)
WARNING: GIF is enabled but the environment does not support RGB array rendering.
INFO: Learning...
INFO: Number of parameters: 47333
INFO: QNetwork(
  (conv_feature): Sequential(
    (0): Conv2d(1, 32, kernel_size=(3, 3), stride=(1, 1))
    (1): ReLU()
    (2): BatchNorm2d(32, eps=1e-05, momentum=0.1, affine=True, track_running_stats=True)
    (3): Conv2d(32, 32, kernel_size=(3, 3), stride=(1, 1))
    (4): ReLU()
    (5): BatchNorm2d(32, eps=1e-05, momentum=0.1, affine=True, track_running_stats=True)
  )
  (fc_feature): Sequential(
    (0): Linear(in_features=288, out_features=128, bias=True)
    (1): ReLU()
    (2): Linear(in_features=128, out_features=5, bias=True)
  )
)
WARNING: GIF is enabled but the environment does not support RGB array rendering.
INFO: Learning...
INFO: Number of parameters: 47333
INFO: QNetwork(
  (conv_feature): Sequential(
    (0): Conv2d(1, 32, kernel_size=(3, 3), stride=(1, 1))
    (1): ReLU()
    (2): BatchNorm2d(32, eps=1e-05, momentum=0.1, affine=True, track_running_stats=True)
    (3): Conv2d(32, 32, kernel_size=(3, 3), stride=(1, 1))
    (4): ReLU()
    (5): BatchNorm2d(32, eps=1e-05, momentum=0.1, affine=True, track_running_stats=True)
  )
  (fc_feature): Sequential(
    (0): Linear(in_features=288, out_features=128, bias=True)
    (1): ReLU()
    (2): Linear(in_features=128, out_features=5, bias=True)
  )
)
WARNING: GIF is enabled but the environment does not support RGB array rendering.
INFO: Learning...
INFO: Number of parameters: 47333
INFO: QNetwork(
  (conv_feature): Sequential(
    (0): Conv2d(1, 32, kernel_size=(3, 3), stride=(1, 1))
    (1): ReLU()
    (2): BatchNorm2d(32, eps=1e-05, momentum=0.1, affine=True, track_running_stats=True)
    (3): Conv2d(32, 32, kernel_size=(3, 3), stride=(1, 1))
    (4): ReLU()
    (5): BatchNorm2d(32, eps=1e-05, momentum=0.1, affine=True, track_running_stats=True)
  )
  (fc_feature): Sequential(
    (0): Linear(in_features=288, out_features=128, bias=True)
    (1): ReLU()
    (2): Linear(in_features=128, out_features=5, bias=True)
  )
)
WARNING: GIF is enabled but the environment does not support RGB array rendering.
INFO: Learning...
INFO: BootcampName.HIDER Bootcamp completed, starting BootcampName.SEEKER Bootcamp #0 for 0 days
INFO: BootcampName.SEEKER Bootcamp completed, starting BootcampName.SLOW_AGENT Bootcamp #0 for 0 days
INFO: Continuing with Bootcamp #0 BootcampName.SLOW_AGENT with slow factor: 9 for agent 1
INFO: Continuing with Bootcamp #0 BootcampName.SLOW_AGENT with slow factor: 9 for agent 0
INFO: Continuing with Bootcamp #0 BootcampName.SLOW_AGENT with slow factor: 8 for agent 1
INFO: Number of parameters: 47333
INFO: QNetwork(
  (conv_feature): Sequential(
    (0): Conv2d(1, 32, kernel_size=(3, 3), stride=(1, 1))
    (1): ReLU()
    (2): BatchNorm2d(32, eps=1e-05, momentum=0.1, affine=True, track_running_stats=True)
    (3): Conv2d(32, 32, kernel_size=(3, 3), stride=(1, 1))
    (4): ReLU()
    (5): BatchNorm2d(32, eps=1e-05, momentum=0.1, affine=True, track_running_stats=True)
  )
  (fc_feature): Sequential(
    (0): Linear(in_features=288, out_features=128, bias=True)
    (1): ReLU()
    (2): Linear(in_features=128, out_features=5, bias=True)
  )
)
WARNING: GIF is enabled but the environment does not support RGB array rendering.
INFO: Learning...
INFO: BootcampName.HIDER Bootcamp completed, starting BootcampName.SEEKER Bootcamp #0 for 0 days
INFO: BootcampName.SEEKER Bootcamp completed, starting BootcampName.SLOW_AGENT Bootcamp #0 for 0 days
INFO: Continuing with Bootcamp #0 BootcampName.SLOW_AGENT with slow factor: 9 for agent 1
…
INFO: Continuing with Bootcamp #0 BootcampName.SLOW_AGENT with slow factor: 3 for agent 0
INFO: Continuing with Bootcamp #0 BootcampName.SLOW_AGENT with slow factor: 2 for agent 1
INFO: Continuing with Bootcamp #0 BootcampName.SLOW_AGENT with slow factor: 2 for agent 0
INFO: BootcampName.SLOW_AGENT Bootcamp completed, starting BootcampName.COMBINED Bootcamp #0 for 0 days
INFO: BootcampName.COMBINED Bootcamp completed, starting BootcampName.FINISHED Bootcamp #0 for 0 days
WARNING: No frames in gif to save.
WARNING: No frames in gif to save.
INFO: Number of parameters: 120069
INFO: QNetwork(
  (conv_feature): Sequential(
    (0): Conv2d(1, 32, kernel_size=(3, 3), stride=(1, 1))
    (1): ReLU()
    (2): BatchNorm2d(32, eps=1e-05, momentum=0.1, affine=True, track_running_stats=True)
  )
  (fc_feature): Sequential(
    (0): Linear(in_features=800, out_features=128, bias=True)
    (1): ReLU()
    (2): Linear(in_features=128, out_features=128, bias=True)
    (3): ReLU()
    (4): Linear(in_features=128, out_features=5, bias=True)
  )
)
INFO: Learning...
INFO: BootcampName.HIDER Bootcamp completed, starting BootcampName.SEEKER Bootcamp #0 for 0 days
INFO: BootcampName.SEEKER Bootcamp completed, starting BootcampName.SLOW_AGENT Bootcamp #0 for 0 days
INFO: Continuing with Bootcamp #0 BootcampName.SLOW_AGENT with slow factor: 9 for agent 1
INFO: Continuing with Bootcamp #0 BootcampName.SLOW_AGENT with slow factor: 9 for agent 0
…
INFO: Continuing with Bootcamp #0 BootcampName.SLOW_AGENT with slow factor: 3 for agent 1
INFO: Continuing with Bootcamp #0 BootcampName.SLOW_AGENT with slow factor: 3 for agent 0
INFO: Continuing with Bootcamp #0 BootcampName.SLOW_AGENT with slow factor: 2 for agent 1
INFO: Continuing with Bootcamp #0 BootcampName.SLOW_AGENT with slow factor: 2 for agent 0
INFO: BootcampName.SLOW_AGENT Bootcamp completed, starting BootcampName.COMBINED Bootcamp #0 for 0 days
INFO: BootcampName.COMBINED Bootcamp completed, starting BootcampName.FINISHED Bootcamp #0 for 0 days
INFO: Number of parameters: 83205
INFO: QNetwork(
  (conv_feature): Sequential(
    (0): Conv2d(1, 32, kernel_size=(3, 3), stride=(1, 1))
    (1): ReLU()
    (2): BatchNorm2d(32, eps=1e-05, momentum=0.1, affine=True, track_running_stats=True)
  )
  (fc_feature): Sequential(
    (0): Linear(in_features=512, out_features=128, bias=True)
    (1): ReLU()
    (2): Linear(in_features=128, out_features=128, bias=True)
    (3): ReLU()
    (4): Linear(in_features=128, out_features=5, bias=True)
  )
)
INFO: Learning...
INFO: BootcampName.HIDER Bootcamp completed, starting BootcampName.SEEKER Bootcamp #0 for 0 days
INFO: BootcampName.SEEKER Bootcamp completed, starting BootcampName.SLOW_AGENT Bootcamp #0 for 0 days
INFO: Continuing with Bootcamp #0 BootcampName.SLOW_AGENT with slow factor: 9 for agent 1
INFO: Continuing with Bootcamp #0 BootcampName.SLOW_AGENT with slow factor: 9 for agent 0
…
INFO: Continuing with Bootcamp #0 BootcampName.SLOW_AGENT with slow factor: 3 for agent 1
INFO: Continuing with Bootcamp #0 BootcampName.SLOW_AGENT with slow factor: 3 for agent 0
INFO: Continuing with Bootcamp #0 BootcampName.SLOW_AGENT with slow factor: 2 for agent 1
INFO: Continuing with Bootcamp #0 BootcampName.SLOW_AGENT with slow factor: 2 for agent 0
INFO: BootcampName.SLOW_AGENT Bootcamp completed, starting BootcampName.COMBINED Bootcamp #0 for 0 days
INFO: BootcampName.COMBINED Bootcamp completed, starting BootcampName.FINISHED Bootcamp #0 for 0 days
INFO: Number of parameters: 54533
INFO: QNetwork(
  (conv_feature): Sequential(
    (0): Conv2d(1, 32, kernel_size=(3, 3), stride=(1, 1))
    (1): ReLU()
    (2): BatchNorm2d(32, eps=1e-05, momentum=0.1, affine=True, track_running_stats=True)
  )
  (fc_feature): Sequential(
    (0): Linear(in_features=288, out_features=128, bias=True)
    (1): ReLU()
    (2): Linear(in_features=128, out_features=128, bias=True)
    (3): ReLU()
    (4): Linear(in_features=128, out_features=5, bias=True)
  )
)
WARNING: GIF is enabled but the environment does not support RGB array rendering.
INFO: Learning...
INFO: BootcampName.HIDER Bootcamp completed, starting BootcampName.SEEKER Bootcamp #0 for 0 days
INFO: BootcampName.SEEKER Bootcamp completed, starting BootcampName.SLOW_AGENT Bootcamp #0 for 0 days
INFO: Continuing with Bootcamp #0 BootcampName.SLOW_AGENT with slow factor: 9 for agent 1
…
INFO: Continuing with Bootcamp #0 BootcampName.SLOW_AGENT with slow factor: 3 for agent 0
INFO: Continuing with Bootcamp #0 BootcampName.SLOW_AGENT with slow factor: 2 for agent 1
INFO: Continuing with Bootcamp #0 BootcampName.SLOW_AGENT with slow factor: 2 for agent 0
INFO: BootcampName.SLOW_AGENT Bootcamp completed, starting BootcampName.COMBINED Bootcamp #0 for 0 days
INFO: BootcampName.COMBINED Bootcamp completed, starting BootcampName.FINISHED Bootcamp #0 for 0 days
<<<<<<< HEAD
<<<<<<< HEAD
>>>>>>> 5944ba2 (model: tag)
=======
=======
>>>>>>> main
INFO: Number of parameters: 83076
INFO: QNetwork(
  (conv_feature): Sequential(
    (0): Conv2d(1, 32, kernel_size=(3, 3), stride=(1, 1))
    (1): ReLU()
    (2): BatchNorm2d(32, eps=1e-05, momentum=0.1, affine=True, track_running_stats=True)
  )
  (fc_feature): Sequential(
    (0): Linear(in_features=512, out_features=128, bias=True)
    (1): ReLU()
    (2): Linear(in_features=128, out_features=128, bias=True)
    (3): ReLU()
    (4): Linear(in_features=128, out_features=4, bias=True)
  )
)
WARNING: GIF is enabled but the environment does not support RGB array rendering.
INFO: Learning...
INFO: BootcampName.HIDER Bootcamp completed, starting BootcampName.SEEKER Bootcamp #0 for 0 days
INFO: BootcampName.SEEKER Bootcamp completed, starting BootcampName.SLOW_AGENT Bootcamp #0 for 0 days
INFO: Continuing with Bootcamp #0 BootcampName.SLOW_AGENT with slow factor: 9 for agent 1
…
WARNING: No frames in gif to save.
WARNING: No frames in gif to save.
WARNING: No frames in gif to save.
WARNING: No frames in gif to save.
WARNING: No frames in gif to save.
WARNING: No frames in gif to save.
WARNING: No frames in gif to save.
WARNING: No frames in gif to save.
WARNING: No frames in gif to save.
WARNING: No frames in gif to save.
WARNING: No frames in gif to save.
WARNING: No frames in gif to save.
WARNING: No frames in gif to save.
WARNING: No frames in gif to save.
WARNING: No frames in gif to save.
INFO: Number of parameters: 26724
INFO: QNetwork(
  (conv_feature): Sequential(
    (0): Conv2d(1, 32, kernel_size=(3, 3), stride=(1, 1))
    (1): ReLU()
    (2): BatchNorm2d(32, eps=1e-05, momentum=0.1, affine=True, track_running_stats=True)
    (3): Conv2d(32, 32, kernel_size=(3, 3), stride=(1, 1))
    (4): ReLU()
    (5): BatchNorm2d(32, eps=1e-05, momentum=0.1, affine=True, track_running_stats=True)
  )
  (fc_feature): Sequential(
    (0): Linear(in_features=128, out_features=128, bias=True)
    (1): ReLU()
    (2): Linear(in_features=128, out_features=4, bias=True)
  )
)
WARNING: GIF is enabled but the environment does not support RGB array rendering.
INFO: Learning...
INFO: BootcampName.HIDER Bootcamp completed, starting BootcampName.SEEKER Bootcamp #0 for 0 days
INFO: BootcampName.SEEKER Bootcamp completed, starting BootcampName.SLOW_AGENT Bootcamp #0 for 0 days
INFO: Continuing with Bootcamp #0 BootcampName.SLOW_AGENT with slow factor: 9 for agent 1
…
    self._collect_rollouts()
  File "/home/eirik/Projects/XAI/rl/src/dqn/wrapper/multi_agent_dqn.py", line 253, in _collect_rollouts
    self.agents[i].train(
  File "/home/eirik/Projects/XAI/rl/src/dqn/dqn.py", line 290, in train
    self._optimize_model()
  File "/home/eirik/Projects/XAI/rl/src/dqn/dqn.py", line 345, in _optimize_model
    non_final_next_states = torch.cat(
                            ^^^^^^^^^^
RuntimeError: torch.cat(): expected a non-empty list of Tensors

WARNING: Error: Could not find wandb directory: ./wandb
INFO: Number of parameters: 77796
INFO: QNetwork(
  (conv_feature): Sequential(
    (0): Conv2d(1, 32, kernel_size=(3, 3), stride=(1, 1))
    (1): ReLU()
    (2): BatchNorm2d(32, eps=1e-05, momentum=0.1, affine=True, track_running_stats=True)
    (3): Conv2d(32, 32, kernel_size=(3, 3), stride=(1, 1))
    (4): ReLU()
    (5): BatchNorm2d(32, eps=1e-05, momentum=0.1, affine=True, track_running_stats=True)
  )
  (fc_feature): Sequential(
    (0): Linear(in_features=128, out_features=512, bias=True)
    (1): ReLU()
    (2): Linear(in_features=512, out_features=4, bias=True)
  )
)
WARNING: GIF is enabled but the environment does not support RGB array rendering.
INFO: Learning...
INFO: BootcampName.HIDER Bootcamp completed, starting BootcampName.SEEKER Bootcamp #0 for 0 days
INFO: BootcampName.SEEKER Bootcamp completed, starting BootcampName.SLOW_AGENT Bootcamp #0 for 0 days
INFO: Continuing with Bootcamp #0 BootcampName.SLOW_AGENT with slow factor: 9 for agent 1
…
  File "/home/eirik/Projects/XAI/environments/gymnasium/envs/tag/utils/bootcamp.py", line 106, in _next
    self._name = BootcampName(self._name.value + 1)
                 ^^^^^^^^^^^^^^^^^^^^^^^^^^^^^^^^^^
  File "/usr/lib/python3.11/enum.py", line 717, in __call__
    return cls.__new__(cls, value)
           ^^^^^^^^^^^^^^^^^^^^^^^
  File "/usr/lib/python3.11/enum.py", line 1133, in __new__
    raise ve_exc
ValueError: 5 is not a valid BootcampName

WARNING: Error: Could not find wandb directory: ./wandb
INFO: Number of parameters: 77796
INFO: QNetwork(
  (conv_feature): Sequential(
    (0): Conv2d(1, 32, kernel_size=(3, 3), stride=(1, 1))
    (1): ReLU()
    (2): BatchNorm2d(32, eps=1e-05, momentum=0.1, affine=True, track_running_stats=True)
    (3): Conv2d(32, 32, kernel_size=(3, 3), stride=(1, 1))
    (4): ReLU()
    (5): BatchNorm2d(32, eps=1e-05, momentum=0.1, affine=True, track_running_stats=True)
  )
  (fc_feature): Sequential(
    (0): Linear(in_features=128, out_features=512, bias=True)
    (1): ReLU()
    (2): Linear(in_features=512, out_features=4, bias=True)
  )
)
INFO: Learning...
INFO: Number of parameters: 77796
INFO: QNetwork(
  (conv_feature): Sequential(
    (0): Conv2d(1, 32, kernel_size=(3, 3), stride=(1, 1))
    (1): ReLU()
    (2): BatchNorm2d(32, eps=1e-05, momentum=0.1, affine=True, track_running_stats=True)
    (3): Conv2d(32, 32, kernel_size=(3, 3), stride=(1, 1))
    (4): ReLU()
    (5): BatchNorm2d(32, eps=1e-05, momentum=0.1, affine=True, track_running_stats=True)
  )
  (fc_feature): Sequential(
    (0): Linear(in_features=128, out_features=512, bias=True)
    (1): ReLU()
    (2): Linear(in_features=512, out_features=4, bias=True)
  )
)
INFO: Learning...
ERROR: torch.cat(): expected a non-empty list of Tensors
ERROR: Traceback (most recent call last):
  File "/home/eirik/Projects/XAI/rl/src/dqn/wrapper/multi_agent_dqn.py", line 108, in learn
    self._collect_rollouts()
  File "/home/eirik/Projects/XAI/rl/src/dqn/wrapper/multi_agent_dqn.py", line 253, in _collect_rollouts
    self.agents[i].train(
  File "/home/eirik/Projects/XAI/rl/src/dqn/dqn.py", line 290, in train
    self._optimize_model()
  File "/home/eirik/Projects/XAI/rl/src/dqn/dqn.py", line 345, in _optimize_model
    non_final_next_states = torch.cat(
                            ^^^^^^^^^^
RuntimeError: torch.cat(): expected a non-empty list of Tensors

WARNING: Error: Could not find wandb directory: ./wandb
<<<<<<< HEAD
<<<<<<< HEAD
>>>>>>> 88755ce (model)
=======
=======
>>>>>>> main
INFO: Number of parameters: 77796
INFO: QNetwork(
  (conv_feature): Sequential(
    (0): Conv2d(1, 32, kernel_size=(3, 3), stride=(1, 1))
    (1): ReLU()
    (2): BatchNorm2d(32, eps=1e-05, momentum=0.1, affine=True, track_running_stats=True)
    (3): Conv2d(32, 32, kernel_size=(3, 3), stride=(1, 1))
    (4): ReLU()
    (5): BatchNorm2d(32, eps=1e-05, momentum=0.1, affine=True, track_running_stats=True)
  )
  (fc_feature): Sequential(
    (0): Linear(in_features=128, out_features=512, bias=True)
    (1): ReLU()
    (2): Linear(in_features=512, out_features=4, bias=True)
  )
)
INFO: Learning...
ERROR: torch.cat(): expected a non-empty list of Tensors
ERROR: Traceback (most recent call last):
  File "/home/eirik/Projects/XAI/rl/src/dqn/wrapper/multi_agent_dqn.py", line 108, in learn
    self._collect_rollouts()
  File "/home/eirik/Projects/XAI/rl/src/dqn/wrapper/multi_agent_dqn.py", line 253, in _collect_rollouts
    self.agents[i].train(
  File "/home/eirik/Projects/XAI/rl/src/dqn/dqn.py", line 292, in train
    self._optimize_model()
  File "/home/eirik/Projects/XAI/rl/src/dqn/dqn.py", line 347, in _optimize_model
RuntimeError: torch.cat(): expected a non-empty list of Tensors

WARNING: Error: Could not find wandb directory: ./wandb
INFO: Number of parameters: 77796
INFO: QNetwork(
  (conv_feature): Sequential(
    (0): Conv2d(1, 32, kernel_size=(3, 3), stride=(1, 1))
    (1): ReLU()
    (2): BatchNorm2d(32, eps=1e-05, momentum=0.1, affine=True, track_running_stats=True)
    (3): Conv2d(32, 32, kernel_size=(3, 3), stride=(1, 1))
    (4): ReLU()
    (5): BatchNorm2d(32, eps=1e-05, momentum=0.1, affine=True, track_running_stats=True)
  )
  (fc_feature): Sequential(
    (0): Linear(in_features=128, out_features=512, bias=True)
    (1): ReLU()
    (2): Linear(in_features=512, out_features=4, bias=True)
  )
)
INFO: Learning...
INFO: Number of parameters: 77796
INFO: QNetwork(
  (conv_feature): Sequential(
    (0): Conv2d(1, 32, kernel_size=(3, 3), stride=(1, 1))
    (1): ReLU()
    (2): BatchNorm2d(32, eps=1e-05, momentum=0.1, affine=True, track_running_stats=True)
    (3): Conv2d(32, 32, kernel_size=(3, 3), stride=(1, 1))
    (4): ReLU()
    (5): BatchNorm2d(32, eps=1e-05, momentum=0.1, affine=True, track_running_stats=True)
  )
  (fc_feature): Sequential(
    (0): Linear(in_features=128, out_features=512, bias=True)
    (1): ReLU()
    (2): Linear(in_features=512, out_features=4, bias=True)
  )
)
INFO: Learning...
ERROR: torch.cat(): expected a non-empty list of Tensors
ERROR: Traceback (most recent call last):
  File "/home/eirik/Projects/XAI/rl/src/dqn/wrapper/multi_agent_dqn.py", line 108, in learn
    self._collect_rollouts()
  File "/home/eirik/Projects/XAI/rl/src/dqn/wrapper/multi_agent_dqn.py", line 253, in _collect_rollouts
    self.agents[i].train(
  File "/home/eirik/Projects/XAI/rl/src/dqn/dqn.py", line 292, in train
  File "/home/eirik/Projects/XAI/rl/src/dqn/dqn.py", line 351, in _optimize_model
    f"No next states in batch for agent {self.agent_id}."
                        ^^^^^^^^^^^^^^^^^^^^^^^^^^^^^^^^^
RuntimeError: torch.cat(): expected a non-empty list of Tensors

WARNING: Error: Could not find wandb directory: ./wandb
INFO: Number of parameters: 77796
INFO: QNetwork(
  (conv_feature): Sequential(
    (0): Conv2d(1, 32, kernel_size=(3, 3), stride=(1, 1))
    (1): ReLU()
    (2): BatchNorm2d(32, eps=1e-05, momentum=0.1, affine=True, track_running_stats=True)
    (3): Conv2d(32, 32, kernel_size=(3, 3), stride=(1, 1))
    (4): ReLU()
    (5): BatchNorm2d(32, eps=1e-05, momentum=0.1, affine=True, track_running_stats=True)
  )
  (fc_feature): Sequential(
    (0): Linear(in_features=128, out_features=512, bias=True)
    (1): ReLU()
    (2): Linear(in_features=512, out_features=4, bias=True)
  )
)
INFO: Learning...
INFO: Number of parameters: 77796
INFO: QNetwork(
  (conv_feature): Sequential(
    (0): Conv2d(1, 32, kernel_size=(3, 3), stride=(1, 1))
    (1): ReLU()
    (2): BatchNorm2d(32, eps=1e-05, momentum=0.1, affine=True, track_running_stats=True)
    (3): Conv2d(32, 32, kernel_size=(3, 3), stride=(1, 1))
    (4): ReLU()
    (5): BatchNorm2d(32, eps=1e-05, momentum=0.1, affine=True, track_running_stats=True)
  )
  (fc_feature): Sequential(
    (0): Linear(in_features=128, out_features=512, bias=True)
    (1): ReLU()
    (2): Linear(in_features=512, out_features=4, bias=True)
  )
)
INFO: Learning...
INFO: Number of parameters: 77796
INFO: QNetwork(
  (conv_feature): Sequential(
    (0): Conv2d(1, 32, kernel_size=(3, 3), stride=(1, 1))
    (1): ReLU()
    (2): BatchNorm2d(32, eps=1e-05, momentum=0.1, affine=True, track_running_stats=True)
    (3): Conv2d(32, 32, kernel_size=(3, 3), stride=(1, 1))
    (4): ReLU()
    (5): BatchNorm2d(32, eps=1e-05, momentum=0.1, affine=True, track_running_stats=True)
  )
  (fc_feature): Sequential(
    (0): Linear(in_features=128, out_features=512, bias=True)
    (1): ReLU()
    (2): Linear(in_features=512, out_features=4, bias=True)
  )
)
INFO: Learning...
INFO: Number of parameters: 77796
INFO: QNetwork(
  (conv_feature): Sequential(
    (0): Conv2d(1, 32, kernel_size=(3, 3), stride=(1, 1))
    (1): ReLU()
    (2): BatchNorm2d(32, eps=1e-05, momentum=0.1, affine=True, track_running_stats=True)
    (3): Conv2d(32, 32, kernel_size=(3, 3), stride=(1, 1))
    (4): ReLU()
    (5): BatchNorm2d(32, eps=1e-05, momentum=0.1, affine=True, track_running_stats=True)
  )
  (fc_feature): Sequential(
    (0): Linear(in_features=128, out_features=512, bias=True)
    (1): ReLU()
    (2): Linear(in_features=512, out_features=4, bias=True)
  )
)
INFO: Learning...
INFO: Number of parameters: 77796
INFO: QNetwork(
  (conv_feature): Sequential(
    (0): Conv2d(1, 32, kernel_size=(3, 3), stride=(1, 1))
    (1): ReLU()
    (2): BatchNorm2d(32, eps=1e-05, momentum=0.1, affine=True, track_running_stats=True)
    (3): Conv2d(32, 32, kernel_size=(3, 3), stride=(1, 1))
    (4): ReLU()
    (5): BatchNorm2d(32, eps=1e-05, momentum=0.1, affine=True, track_running_stats=True)
  )
  (fc_feature): Sequential(
    (0): Linear(in_features=128, out_features=512, bias=True)
    (1): ReLU()
    (2): Linear(in_features=512, out_features=4, bias=True)
  )
)
INFO: Learning...
INFO: Number of parameters: 77796
INFO: QNetwork(
  (conv_feature): Sequential(
    (0): Conv2d(1, 32, kernel_size=(3, 3), stride=(1, 1))
    (1): ReLU()
    (2): BatchNorm2d(32, eps=1e-05, momentum=0.1, affine=True, track_running_stats=True)
    (3): Conv2d(32, 32, kernel_size=(3, 3), stride=(1, 1))
    (4): ReLU()
    (5): BatchNorm2d(32, eps=1e-05, momentum=0.1, affine=True, track_running_stats=True)
  )
  (fc_feature): Sequential(
    (0): Linear(in_features=128, out_features=512, bias=True)
    (1): ReLU()
    (2): Linear(in_features=512, out_features=4, bias=True)
  )
)
INFO: Learning...
INFO: Number of parameters: 77796
INFO: QNetwork(
  (conv_feature): Sequential(
    (0): Conv2d(1, 32, kernel_size=(3, 3), stride=(1, 1))
    (1): ReLU()
    (2): BatchNorm2d(32, eps=1e-05, momentum=0.1, affine=True, track_running_stats=True)
    (3): Conv2d(32, 32, kernel_size=(3, 3), stride=(1, 1))
    (4): ReLU()
    (5): BatchNorm2d(32, eps=1e-05, momentum=0.1, affine=True, track_running_stats=True)
  )
  (fc_feature): Sequential(
    (0): Linear(in_features=128, out_features=512, bias=True)
    (1): ReLU()
    (2): Linear(in_features=512, out_features=4, bias=True)
  )
)
INFO: Learning...
INFO: Number of parameters: 77796
INFO: QNetwork(
  (conv_feature): Sequential(
    (0): Conv2d(1, 32, kernel_size=(3, 3), stride=(1, 1))
    (1): ReLU()
    (2): BatchNorm2d(32, eps=1e-05, momentum=0.1, affine=True, track_running_stats=True)
    (3): Conv2d(32, 32, kernel_size=(3, 3), stride=(1, 1))
    (4): ReLU()
    (5): BatchNorm2d(32, eps=1e-05, momentum=0.1, affine=True, track_running_stats=True)
  )
  (fc_feature): Sequential(
    (0): Linear(in_features=128, out_features=512, bias=True)
    (1): ReLU()
    (2): Linear(in_features=512, out_features=4, bias=True)
  )
)
INFO: Learning...
INFO: Number of parameters: 77796
INFO: QNetwork(
  (conv_feature): Sequential(
    (0): Conv2d(1, 32, kernel_size=(3, 3), stride=(1, 1))
    (1): ReLU()
    (2): BatchNorm2d(32, eps=1e-05, momentum=0.1, affine=True, track_running_stats=True)
    (3): Conv2d(32, 32, kernel_size=(3, 3), stride=(1, 1))
    (4): ReLU()
    (5): BatchNorm2d(32, eps=1e-05, momentum=0.1, affine=True, track_running_stats=True)
  )
  (fc_feature): Sequential(
    (0): Linear(in_features=128, out_features=512, bias=True)
    (1): ReLU()
    (2): Linear(in_features=512, out_features=4, bias=True)
  )
)
INFO: Learning...
INFO: Number of parameters: 77796
INFO: QNetwork(
  (conv_feature): Sequential(
    (0): Conv2d(1, 32, kernel_size=(3, 3), stride=(1, 1))
    (1): ReLU()
    (2): BatchNorm2d(32, eps=1e-05, momentum=0.1, affine=True, track_running_stats=True)
    (3): Conv2d(32, 32, kernel_size=(3, 3), stride=(1, 1))
    (4): ReLU()
    (5): BatchNorm2d(32, eps=1e-05, momentum=0.1, affine=True, track_running_stats=True)
  )
  (fc_feature): Sequential(
    (0): Linear(in_features=128, out_features=512, bias=True)
    (1): ReLU()
    (2): Linear(in_features=512, out_features=4, bias=True)
  )
)
INFO: Learning...
INFO: Number of parameters: 77796
INFO: QNetwork(
  (conv_feature): Sequential(
    (0): Conv2d(1, 32, kernel_size=(3, 3), stride=(1, 1))
    (1): ReLU()
    (2): BatchNorm2d(32, eps=1e-05, momentum=0.1, affine=True, track_running_stats=True)
    (3): Conv2d(32, 32, kernel_size=(3, 3), stride=(1, 1))
    (4): ReLU()
    (5): BatchNorm2d(32, eps=1e-05, momentum=0.1, affine=True, track_running_stats=True)
  )
  (fc_feature): Sequential(
    (0): Linear(in_features=128, out_features=512, bias=True)
    (1): ReLU()
    (2): Linear(in_features=512, out_features=4, bias=True)
  )
)
INFO: Learning...
INFO: Number of parameters: 77796
INFO: QNetwork(
  (conv_feature): Sequential(
    (0): Conv2d(1, 32, kernel_size=(3, 3), stride=(1, 1))
    (1): ReLU()
    (2): BatchNorm2d(32, eps=1e-05, momentum=0.1, affine=True, track_running_stats=True)
    (3): Conv2d(32, 32, kernel_size=(3, 3), stride=(1, 1))
    (4): ReLU()
    (5): BatchNorm2d(32, eps=1e-05, momentum=0.1, affine=True, track_running_stats=True)
  )
  (fc_feature): Sequential(
    (0): Linear(in_features=128, out_features=512, bias=True)
    (1): ReLU()
    (2): Linear(in_features=512, out_features=4, bias=True)
  )
)
INFO: Learning...
ERROR: cannot access local variable 'non_final_next_states' where it is not associated with a value
ERROR: Traceback (most recent call last):
  File "/home/eirik/Projects/XAI/rl/src/dqn/wrapper/multi_agent_dqn.py", line 108, in learn
    self._collect_rollouts()
  File "/home/eirik/Projects/XAI/rl/src/dqn/wrapper/multi_agent_dqn.py", line 253, in _collect_rollouts
    self.agents[i].train(
  File "/home/eirik/Projects/XAI/rl/src/dqn/dqn.py", line 292, in train
    self._optimize_model()
  File "/home/eirik/Projects/XAI/rl/src/dqn/dqn.py", line 373, in _optimize_model
    self.policy_net(non_final_next_states).max(1)[1].unsqueeze(1)
                    ^^^^^^^^^^^^^^^^^^^^^
UnboundLocalError: cannot access local variable 'non_final_next_states' where it is not associated with a value

WARNING: Error: Could not find wandb directory: ./wandb
INFO: Number of parameters: 4580
INFO: QNetwork(
…
  (fc_feature): Sequential(
    (0): Linear(in_features=800, out_features=512, bias=True)
    (1): ReLU()
    (2): Linear(in_features=512, out_features=128, bias=True)
    (3): ReLU()
    (4): Linear(in_features=128, out_features=32, bias=True)
    (5): ReLU()
    (6): Linear(in_features=32, out_features=5, bias=True)
  )
)
WARNING: GIF is enabled but the environment does not support RGB array rendering.
INFO: Learning...
INFO: Number of parameters: 480453
INFO: QNetwork(
  (conv_feature): Sequential(
    (0): Conv2d(1, 32, kernel_size=(3, 3), stride=(1, 1))
    (1): ReLU()
    (2): BatchNorm2d(32, eps=1e-05, momentum=0.1, affine=True, track_running_stats=True)
  )
  (fc_feature): Sequential(
    (0): Linear(in_features=800, out_features=512, bias=True)
    (1): ReLU()
    (2): Linear(in_features=512, out_features=128, bias=True)
    (3): ReLU()
    (4): Linear(in_features=128, out_features=32, bias=True)
    (5): ReLU()
    (6): Linear(in_features=32, out_features=5, bias=True)
  )
)
WARNING: GIF is enabled but the environment does not support RGB array rendering.
INFO: Learning...
INFO: Number of parameters: 480453
INFO: QNetwork(
  (conv_feature): Sequential(
    (0): Conv2d(1, 32, kernel_size=(3, 3), stride=(1, 1))
    (1): ReLU()
    (2): BatchNorm2d(32, eps=1e-05, momentum=0.1, affine=True, track_running_stats=True)
  )
  (fc_feature): Sequential(
    (0): Linear(in_features=800, out_features=512, bias=True)
    (1): ReLU()
    (2): Linear(in_features=512, out_features=128, bias=True)
    (3): ReLU()
    (4): Linear(in_features=128, out_features=32, bias=True)
    (5): ReLU()
    (6): Linear(in_features=32, out_features=5, bias=True)
  )
)
WARNING: GIF is enabled but the environment does not support RGB array rendering.
INFO: Learning...
>>>>>>> main
INFO: Number of parameters: 159716
INFO: QNetwork(
  (conv_feature): Sequential(
    (0): Conv2d(1, 32, kernel_size=(3, 3), stride=(1, 1))
    (1): ReLU()
    (2): BatchNorm2d(32, eps=1e-05, momentum=0.1, affine=True, track_running_stats=True)
    (3): Conv2d(32, 32, kernel_size=(3, 3), stride=(1, 1))
    (4): ReLU()
    (5): BatchNorm2d(32, eps=1e-05, momentum=0.1, affine=True, track_running_stats=True)
  )
  (fc_feature): Sequential(
    (0): Linear(in_features=288, out_features=512, bias=True)
    (1): ReLU()
    (2): Linear(in_features=512, out_features=4, bias=True)
  )
)
INFO: model downloaded at: /home/eirik/Projects/XAI/artifacts/model_1550:v42
INFO: Metadata: {'steps_done': 139293}
INFO: Number of parameters: 159716
INFO: QNetwork(
  (conv_feature): Sequential(
    (0): Conv2d(1, 32, kernel_size=(3, 3), stride=(1, 1))
    (1): ReLU()
    (2): BatchNorm2d(32, eps=1e-05, momentum=0.1, affine=True, track_running_stats=True)
    (3): Conv2d(32, 32, kernel_size=(3, 3), stride=(1, 1))
    (4): ReLU()
    (5): BatchNorm2d(32, eps=1e-05, momentum=0.1, affine=True, track_running_stats=True)
  )
  (fc_feature): Sequential(
    (0): Linear(in_features=288, out_features=512, bias=True)
    (1): ReLU()
    (2): Linear(in_features=512, out_features=4, bias=True)
  )
)
WARNING: GIF is enabled but the environment does not support RGB array rendering.
INFO: Learning...
INFO: Number of parameters: 23557
INFO: QNetwork(
  (conv_feature): Sequential()
  (fc_feature): Sequential(
    (0): Linear(in_features=49, out_features=128, bias=True)
    (1): ReLU()
    (2): Linear(in_features=128, out_features=128, bias=True)
    (3): ReLU()
    (4): Linear(in_features=128, out_features=5, bias=True)
  )
)
WARNING: GIF is enabled but the environment does not support RGB array rendering.
INFO: Learning...
INFO: Number of parameters: 30085
INFO: QNetwork(
  (conv_feature): Sequential()
  (fc_feature): Sequential(
    (0): Linear(in_features=100, out_features=128, bias=True)
    (1): ReLU()
    (2): Linear(in_features=128, out_features=128, bias=True)
    (3): ReLU()
    (4): Linear(in_features=128, out_features=5, bias=True)
  )
)
WARNING: GIF is enabled but the environment does not support RGB array rendering.
INFO: Learning...
INFO: Number of parameters: 183845
INFO: QNetwork(
  (conv_feature): Sequential(
    (0): Conv2d(1, 64, kernel_size=(3, 3), stride=(1, 1))
    (1): ReLU()
    (2): Conv2d(64, 32, kernel_size=(3, 3), stride=(1, 1))
    (3): ReLU()
  )
  (fc_feature): Sequential(
    (0): Linear(in_features=1152, out_features=128, bias=True)
    (1): ReLU()
    (2): Linear(in_features=128, out_features=128, bias=True)
    (3): ReLU()
    (4): Linear(in_features=128, out_features=5, bias=True)
  )
)
WARNING: GIF is enabled but the environment does not support RGB array rendering.
INFO: Learning...
INFO: Number of parameters: 183845
INFO: QNetwork(
  (conv_feature): Sequential(
    (0): Conv2d(1, 64, kernel_size=(3, 3), stride=(1, 1))
    (1): ReLU()
    (2): Conv2d(64, 32, kernel_size=(3, 3), stride=(1, 1))
    (3): ReLU()
  )
  (fc_feature): Sequential(
    (0): Linear(in_features=1152, out_features=128, bias=True)
    (1): ReLU()
    (2): Linear(in_features=128, out_features=128, bias=True)
    (3): ReLU()
    (4): Linear(in_features=128, out_features=5, bias=True)
  )
)
WARNING: GIF is enabled but the environment does not support RGB array rendering.
INFO: Learning...
INFO: Number of parameters: 183845
INFO: QNetwork(
  (conv_feature): Sequential(
    (0): Conv2d(1, 64, kernel_size=(3, 3), stride=(1, 1))
    (1): ReLU()
    (2): Conv2d(64, 32, kernel_size=(3, 3), stride=(1, 1))
    (3): ReLU()
  )
  (fc_feature): Sequential(
    (0): Linear(in_features=1152, out_features=128, bias=True)
    (1): ReLU()
    (2): Linear(in_features=128, out_features=128, bias=True)
    (3): ReLU()
    (4): Linear(in_features=128, out_features=5, bias=True)
  )
)
WARNING: GIF is enabled but the environment does not support RGB array rendering.
INFO: Learning...
INFO: Number of parameters: 250022
INFO: QNetwork(
  (conv_feature): Sequential(
    (0): Conv2d(1, 64, kernel_size=(3, 3), stride=(1, 1))
    (1): ReLU()
    (2): Conv2d(64, 32, kernel_size=(3, 3), stride=(1, 1))
    (3): ReLU()
  )
  (fc_feature): Sequential(
    (0): Linear(in_features=1152, out_features=128, bias=True)
    (1): ReLU()
    (2): Linear(in_features=128, out_features=128, bias=True)
    (3): ReLU()
  )
  (value_stream): Sequential(
    (0): Linear(in_features=128, out_features=128, bias=True)
    (1): ReLU()
    (2): Linear(in_features=128, out_features=128, bias=True)
    (3): ReLU()
    (4): Linear(in_features=128, out_features=1, bias=True)
  )
  (advantage_stream): Sequential(
    (0): Linear(in_features=128, out_features=128, bias=True)
    (1): ReLU()
    (2): Linear(in_features=128, out_features=128, bias=True)
    (3): ReLU()
    (4): Linear(in_features=128, out_features=5, bias=True)
  )
)
WARNING: GIF is enabled but the environment does not support RGB array rendering.
INFO: Learning...
INFO: Number of parameters: 250022
INFO: QNetwork(
  (conv_feature): Sequential(
    (0): Conv2d(1, 64, kernel_size=(3, 3), stride=(1, 1))
    (1): ReLU()
    (2): Conv2d(64, 32, kernel_size=(3, 3), stride=(1, 1))
    (3): ReLU()
  )
  (fc_feature): Sequential(
    (0): Linear(in_features=1152, out_features=128, bias=True)
    (1): ReLU()
    (2): Linear(in_features=128, out_features=128, bias=True)
    (3): ReLU()
  )
  (value_stream): Sequential(
    (0): Linear(in_features=128, out_features=128, bias=True)
    (1): ReLU()
    (2): Linear(in_features=128, out_features=128, bias=True)
    (3): ReLU()
    (4): Linear(in_features=128, out_features=1, bias=True)
  )
  (advantage_stream): Sequential(
    (0): Linear(in_features=128, out_features=128, bias=True)
    (1): ReLU()
    (2): Linear(in_features=128, out_features=128, bias=True)
    (3): ReLU()
    (4): Linear(in_features=128, out_features=5, bias=True)
  )
)
WARNING: GIF is enabled but the environment does not support RGB array rendering.
INFO: Learning...
INFO: Number of parameters: 250022
INFO: QNetwork(
  (conv_feature): Sequential(
    (0): Conv2d(1, 64, kernel_size=(3, 3), stride=(1, 1))
    (1): ReLU()
    (2): Conv2d(64, 32, kernel_size=(3, 3), stride=(1, 1))
    (3): ReLU()
  )
  (fc_feature): Sequential(
    (0): Linear(in_features=1152, out_features=128, bias=True)
    (1): ReLU()
    (2): Linear(in_features=128, out_features=128, bias=True)
    (3): ReLU()
  )
  (value_stream): Sequential(
    (0): Linear(in_features=128, out_features=128, bias=True)
    (1): ReLU()
    (2): Linear(in_features=128, out_features=128, bias=True)
    (3): ReLU()
    (4): Linear(in_features=128, out_features=1, bias=True)
  )
  (advantage_stream): Sequential(
    (0): Linear(in_features=128, out_features=128, bias=True)
    (1): ReLU()
    (2): Linear(in_features=128, out_features=128, bias=True)
    (3): ReLU()
    (4): Linear(in_features=128, out_features=5, bias=True)
  )
)
WARNING: GIF is enabled but the environment does not support RGB array rendering.
INFO: Learning...
INFO: Number of parameters: 250022
INFO: QNetwork(
  (conv_feature): Sequential(
    (0): Conv2d(1, 64, kernel_size=(3, 3), stride=(1, 1))
    (1): ReLU()
    (2): Conv2d(64, 32, kernel_size=(3, 3), stride=(1, 1))
    (3): ReLU()
  )
  (fc_feature): Sequential(
    (0): Linear(in_features=1152, out_features=128, bias=True)
    (1): ReLU()
    (2): Linear(in_features=128, out_features=128, bias=True)
    (3): ReLU()
  )
  (value_stream): Sequential(
    (0): Linear(in_features=128, out_features=128, bias=True)
    (1): ReLU()
    (2): Linear(in_features=128, out_features=128, bias=True)
    (3): ReLU()
    (4): Linear(in_features=128, out_features=1, bias=True)
  )
  (advantage_stream): Sequential(
    (0): Linear(in_features=128, out_features=128, bias=True)
    (1): ReLU()
    (2): Linear(in_features=128, out_features=128, bias=True)
    (3): ReLU()
    (4): Linear(in_features=128, out_features=5, bias=True)
  )
)
WARNING: GIF is enabled but the environment does not support RGB array rendering.
INFO: Learning...
INFO: Number of parameters: 250022
INFO: QNetwork(
  (conv_feature): Sequential(
    (0): Conv2d(1, 64, kernel_size=(3, 3), stride=(1, 1))
    (1): ReLU()
    (2): Conv2d(64, 32, kernel_size=(3, 3), stride=(1, 1))
    (3): ReLU()
  )
  (fc_feature): Sequential(
    (0): Linear(in_features=1152, out_features=128, bias=True)
    (1): ReLU()
    (2): Linear(in_features=128, out_features=128, bias=True)
    (3): ReLU()
  )
  (value_stream): Sequential(
    (0): Linear(in_features=128, out_features=128, bias=True)
    (1): ReLU()
    (2): Linear(in_features=128, out_features=128, bias=True)
    (3): ReLU()
    (4): Linear(in_features=128, out_features=1, bias=True)
  )
  (advantage_stream): Sequential(
    (0): Linear(in_features=128, out_features=128, bias=True)
    (1): ReLU()
    (2): Linear(in_features=128, out_features=128, bias=True)
    (3): ReLU()
    (4): Linear(in_features=128, out_features=5, bias=True)
  )
)
INFO: Number of parameters: 250022
INFO: QNetwork(
  (conv_feature): Sequential(
    (0): Conv2d(1, 64, kernel_size=(3, 3), stride=(1, 1))
    (1): ReLU()
    (2): Conv2d(64, 32, kernel_size=(3, 3), stride=(1, 1))
    (3): ReLU()
  )
  (fc_feature): Sequential(
    (0): Linear(in_features=1152, out_features=128, bias=True)
    (1): ReLU()
    (2): Linear(in_features=128, out_features=128, bias=True)
    (3): ReLU()
  )
  (value_stream): Sequential(
    (0): Linear(in_features=128, out_features=128, bias=True)
    (1): ReLU()
    (2): Linear(in_features=128, out_features=128, bias=True)
    (3): ReLU()
    (4): Linear(in_features=128, out_features=1, bias=True)
  )
  (advantage_stream): Sequential(
    (0): Linear(in_features=128, out_features=128, bias=True)
    (1): ReLU()
    (2): Linear(in_features=128, out_features=128, bias=True)
    (3): ReLU()
    (4): Linear(in_features=128, out_features=5, bias=True)
  )
)
WARNING: GIF is enabled but the environment does not support RGB array rendering.
INFO: Learning...
ERROR: You must call wandb.init() before wandb.log()
ERROR: Traceback (most recent call last):
  File "/home/eirik/Projects/XAI/rl/src/dqn/wrapper/multi_agent_dqn.py", line 139, in learn
    self.wandb_manager.log(log)
  File "/home/eirik/Projects/XAI/managers/src/wandb_manager.py", line 104, in log
    wandb.log(data)
  File "/home/eirik/.cache/pypoetry/virtualenvs/xai-is73Zs3s-py3.11/lib/python3.11/site-packages/wandb/sdk/lib/preinit.py", line 36, in preinit_wrapper
    raise wandb.Error(f"You must call wandb.init() before {name}()")
wandb.errors.errors.Error: You must call wandb.init() before wandb.log()

WARNING: Error: Could not find wandb directory: ./wandb
WARNING: Error: Could not find wandb directory: ./wandb
INFO: Number of parameters: 250022
INFO: QNetwork(
  (conv_feature): Sequential(
    (0): Conv2d(1, 64, kernel_size=(3, 3), stride=(1, 1))
    (1): ReLU()
    (2): Conv2d(64, 32, kernel_size=(3, 3), stride=(1, 1))
    (3): ReLU()
  )
  (fc_feature): Sequential(
    (0): Linear(in_features=1152, out_features=128, bias=True)
    (1): ReLU()
    (2): Linear(in_features=128, out_features=128, bias=True)
    (3): ReLU()
  )
  (value_stream): Sequential(
    (0): Linear(in_features=128, out_features=128, bias=True)
    (1): ReLU()
    (2): Linear(in_features=128, out_features=128, bias=True)
    (3): ReLU()
    (4): Linear(in_features=128, out_features=1, bias=True)
  )
  (advantage_stream): Sequential(
    (0): Linear(in_features=128, out_features=128, bias=True)
    (1): ReLU()
    (2): Linear(in_features=128, out_features=128, bias=True)
    (3): ReLU()
    (4): Linear(in_features=128, out_features=5, bias=True)
  )
)
WARNING: GIF is enabled but the environment does not support RGB array rendering.
INFO: Learning...
INFO: Number of parameters: 30085
INFO: QNetwork(
  (conv_feature): Sequential()
  (fc_feature): Sequential(
    (0): Linear(in_features=100, out_features=128, bias=True)
    (1): ReLU()
    (2): Linear(in_features=128, out_features=128, bias=True)
    (3): ReLU()
    (4): Linear(in_features=128, out_features=5, bias=True)
  )
)
WARNING: GIF is enabled but the environment does not support RGB array rendering.
INFO: Learning...
INFO: Number of parameters: 174309
INFO: QNetwork(
  (conv_feature): Sequential(
    (0): Conv2d(1, 32, kernel_size=(3, 3), stride=(1, 1))
    (1): ReLU()
    (2): Conv2d(32, 32, kernel_size=(3, 3), stride=(1, 1))
    (3): ReLU()
  )
  (fc_feature): Sequential(
    (0): Linear(in_features=1152, out_features=128, bias=True)
    (1): ReLU()
    (2): Linear(in_features=128, out_features=128, bias=True)
    (3): ReLU()
    (4): Linear(in_features=128, out_features=5, bias=True)
  )
)
WARNING: GIF is enabled but the environment does not support RGB array rendering.
INFO: Learning...
INFO: Number of parameters: 174309
INFO: QNetwork(
  (conv_feature): Sequential(
    (0): Conv2d(1, 32, kernel_size=(3, 3), stride=(1, 1))
    (1): ReLU()
    (2): Conv2d(32, 32, kernel_size=(3, 3), stride=(1, 1))
    (3): ReLU()
  )
  (fc_feature): Sequential(
    (0): Linear(in_features=1152, out_features=128, bias=True)
    (1): ReLU()
    (2): Linear(in_features=128, out_features=128, bias=True)
    (3): ReLU()
    (4): Linear(in_features=128, out_features=5, bias=True)
  )
)
WARNING: GIF is enabled but the environment does not support RGB array rendering.
INFO: Learning...
ERROR: 'TagRenderer' object has no attribute 'post_init_screen'
ERROR: Traceback (most recent call last):
  File "/home/eirik/Projects/XAI/rl/src/dqn/wrapper/multi_agent_dqn.py", line 108, in learn
    self._collect_rollouts()
  File "/home/eirik/Projects/XAI/rl/src/dqn/wrapper/multi_agent_dqn.py", line 206, in _collect_rollouts
…
  File "/home/eirik/Projects/XAI/environments/gymnasium/envs/tag/tag.py", line 247, in render
    return self.tag_renderer.render(self.state.full, render_mode)
           ^^^^^^^^^^^^^^^^^^^^^^^^^^^^^^^^^^^^^^^^^^^^^^^^^^^^^^
  File "/home/eirik/Projects/XAI/environments/gymnasium/envs/tag/tag_renderer.py", line 86, in render
    self._init_screen()
  File "/home/eirik/Projects/XAI/environments/gymnasium/envs/tag/tag_renderer.py", line 40, in _init_screen
    if self.post_init_screen:
       ^^^^^^^^^^^^^^^^^^^^^
AttributeError: 'TagRenderer' object has no attribute 'post_init_screen'

INFO: Number of parameters: 174309
INFO: QNetwork(
  (conv_feature): Sequential(
    (0): Conv2d(1, 32, kernel_size=(3, 3), stride=(1, 1))
    (1): ReLU()
    (2): Conv2d(32, 32, kernel_size=(3, 3), stride=(1, 1))
    (3): ReLU()
  )
  (fc_feature): Sequential(
    (0): Linear(in_features=1152, out_features=128, bias=True)
    (1): ReLU()
    (2): Linear(in_features=128, out_features=128, bias=True)
    (3): ReLU()
    (4): Linear(in_features=128, out_features=5, bias=True)
  )
)
WARNING: GIF is enabled but the environment does not support RGB array rendering.
INFO: Learning...
INFO: Number of parameters: 174309
INFO: QNetwork(
  (conv_feature): Sequential(
    (0): Conv2d(1, 32, kernel_size=(3, 3), stride=(1, 1))
    (1): ReLU()
    (2): Conv2d(32, 32, kernel_size=(3, 3), stride=(1, 1))
    (3): ReLU()
  )
  (fc_feature): Sequential(
    (0): Linear(in_features=1152, out_features=128, bias=True)
    (1): ReLU()
    (2): Linear(in_features=128, out_features=128, bias=True)
    (3): ReLU()
    (4): Linear(in_features=128, out_features=5, bias=True)
  )
)
WARNING: GIF is enabled but the environment does not support RGB array rendering.
INFO: Learning...
INFO: Number of parameters: 174309
INFO: QNetwork(
  (conv_feature): Sequential(
    (0): Conv2d(1, 32, kernel_size=(3, 3), stride=(1, 1))
    (1): ReLU()
    (2): Conv2d(32, 32, kernel_size=(3, 3), stride=(1, 1))
    (3): ReLU()
  )
  (fc_feature): Sequential(
    (0): Linear(in_features=1152, out_features=128, bias=True)
    (1): ReLU()
    (2): Linear(in_features=128, out_features=128, bias=True)
    (3): ReLU()
    (4): Linear(in_features=128, out_features=5, bias=True)
  )
)
WARNING: GIF is enabled but the environment does not support RGB array rendering.
INFO: Learning...
INFO: Number of parameters: 174309
INFO: QNetwork(
  (conv_feature): Sequential(
    (0): Conv2d(1, 32, kernel_size=(3, 3), stride=(1, 1))
    (1): ReLU()
    (2): Conv2d(32, 32, kernel_size=(3, 3), stride=(1, 1))
    (3): ReLU()
  )
  (fc_feature): Sequential(
    (0): Linear(in_features=1152, out_features=128, bias=True)
    (1): ReLU()
    (2): Linear(in_features=128, out_features=128, bias=True)
    (3): ReLU()
    (4): Linear(in_features=128, out_features=5, bias=True)
  )
)
WARNING: GIF is enabled but the environment does not support RGB array rendering.
INFO: Learning...
INFO: Number of parameters: 174309
INFO: QNetwork(
  (conv_feature): Sequential(
    (0): Conv2d(1, 32, kernel_size=(3, 3), stride=(1, 1))
    (1): ReLU()
    (2): Conv2d(32, 32, kernel_size=(3, 3), stride=(1, 1))
    (3): ReLU()
  )
  (fc_feature): Sequential(
    (0): Linear(in_features=1152, out_features=128, bias=True)
    (1): ReLU()
    (2): Linear(in_features=128, out_features=128, bias=True)
    (3): ReLU()
    (4): Linear(in_features=128, out_features=5, bias=True)
  )
)
WARNING: GIF is enabled but the environment does not support RGB array rendering.
INFO: Learning...
INFO: Number of parameters: 174309
INFO: QNetwork(
  (conv_feature): Sequential(
    (0): Conv2d(1, 32, kernel_size=(3, 3), stride=(1, 1))
    (1): ReLU()
    (2): Conv2d(32, 32, kernel_size=(3, 3), stride=(1, 1))
    (3): ReLU()
  )
  (fc_feature): Sequential(
    (0): Linear(in_features=1152, out_features=128, bias=True)
    (1): ReLU()
    (2): Linear(in_features=128, out_features=128, bias=True)
    (3): ReLU()
    (4): Linear(in_features=128, out_features=5, bias=True)
  )
)
WARNING: GIF is enabled but the environment does not support RGB array rendering.
INFO: Learning...
INFO: Number of parameters: 174309
INFO: QNetwork(
  (conv_feature): Sequential(
    (0): Conv2d(1, 32, kernel_size=(3, 3), stride=(1, 1))
    (1): ReLU()
    (2): Conv2d(32, 32, kernel_size=(3, 3), stride=(1, 1))
    (3): ReLU()
  )
  (fc_feature): Sequential(
    (0): Linear(in_features=1152, out_features=128, bias=True)
    (1): ReLU()
    (2): Linear(in_features=128, out_features=128, bias=True)
    (3): ReLU()
    (4): Linear(in_features=128, out_features=5, bias=True)
  )
)
WARNING: GIF is enabled but the environment does not support RGB array rendering.
INFO: Learning...
INFO: Number of parameters: 174309
INFO: QNetwork(
  (conv_feature): Sequential(
    (0): Conv2d(1, 32, kernel_size=(3, 3), stride=(1, 1))
    (1): ReLU()
    (2): Conv2d(32, 32, kernel_size=(3, 3), stride=(1, 1))
    (3): ReLU()
  )
  (fc_feature): Sequential(
    (0): Linear(in_features=1152, out_features=128, bias=True)
    (1): ReLU()
    (2): Linear(in_features=128, out_features=128, bias=True)
    (3): ReLU()
    (4): Linear(in_features=128, out_features=5, bias=True)
  )
)
WARNING: GIF is enabled but the environment does not support RGB array rendering.
INFO: Learning...
INFO: Number of parameters: 174309
INFO: QNetwork(
  (conv_feature): Sequential(
    (0): Conv2d(1, 32, kernel_size=(3, 3), stride=(1, 1))
    (1): ReLU()
    (2): Conv2d(32, 32, kernel_size=(3, 3), stride=(1, 1))
    (3): ReLU()
  )
  (fc_feature): Sequential(
    (0): Linear(in_features=1152, out_features=128, bias=True)
    (1): ReLU()
    (2): Linear(in_features=128, out_features=128, bias=True)
    (3): ReLU()
    (4): Linear(in_features=128, out_features=5, bias=True)
  )
)
WARNING: GIF is enabled but the environment does not support RGB array rendering.
INFO: Learning...
INFO: Number of parameters: 174309
INFO: QNetwork(
  (conv_feature): Sequential(
    (0): Conv2d(1, 32, kernel_size=(3, 3), stride=(1, 1))
    (1): ReLU()
    (2): Conv2d(32, 32, kernel_size=(3, 3), stride=(1, 1))
    (3): ReLU()
  )
  (fc_feature): Sequential(
    (0): Linear(in_features=1152, out_features=128, bias=True)
    (1): ReLU()
    (2): Linear(in_features=128, out_features=128, bias=True)
    (3): ReLU()
    (4): Linear(in_features=128, out_features=5, bias=True)
  )
)
WARNING: GIF is enabled but the environment does not support RGB array rendering.
INFO: Learning...
INFO: Number of parameters: 174309
INFO: QNetwork(
  (conv_feature): Sequential(
    (0): Conv2d(1, 32, kernel_size=(3, 3), stride=(1, 1))
    (1): ReLU()
    (2): Conv2d(32, 32, kernel_size=(3, 3), stride=(1, 1))
    (3): ReLU()
  )
  (fc_feature): Sequential(
    (0): Linear(in_features=1152, out_features=128, bias=True)
    (1): ReLU()
    (2): Linear(in_features=128, out_features=128, bias=True)
    (3): ReLU()
    (4): Linear(in_features=128, out_features=5, bias=True)
  )
)
WARNING: GIF is enabled but the environment does not support RGB array rendering.
INFO: Learning...
INFO: Number of parameters: 174309
INFO: QNetwork(
  (conv_feature): Sequential(
    (0): Conv2d(1, 32, kernel_size=(3, 3), stride=(1, 1))
    (1): ReLU()
    (2): Conv2d(32, 32, kernel_size=(3, 3), stride=(1, 1))
    (3): ReLU()
  )
  (fc_feature): Sequential(
    (0): Linear(in_features=1152, out_features=128, bias=True)
    (1): ReLU()
    (2): Linear(in_features=128, out_features=128, bias=True)
    (3): ReLU()
    (4): Linear(in_features=128, out_features=5, bias=True)
  )
)
WARNING: GIF is enabled but the environment does not support RGB array rendering.
INFO: Learning...
INFO: Number of parameters: 174309
INFO: QNetwork(
  (conv_feature): Sequential(
    (0): Conv2d(1, 32, kernel_size=(3, 3), stride=(1, 1))
    (1): ReLU()
    (2): Conv2d(32, 32, kernel_size=(3, 3), stride=(1, 1))
    (3): ReLU()
  )
  (fc_feature): Sequential(
    (0): Linear(in_features=1152, out_features=128, bias=True)
    (1): ReLU()
    (2): Linear(in_features=128, out_features=128, bias=True)
    (3): ReLU()
    (4): Linear(in_features=128, out_features=5, bias=True)
  )
)
WARNING: GIF is enabled but the environment does not support RGB array rendering.
INFO: Learning...
INFO: Number of parameters: 174309
INFO: QNetwork(
  (conv_feature): Sequential(
    (0): Conv2d(1, 32, kernel_size=(3, 3), stride=(1, 1))
    (1): ReLU()
    (2): Conv2d(32, 32, kernel_size=(3, 3), stride=(1, 1))
    (3): ReLU()
  )
  (fc_feature): Sequential(
    (0): Linear(in_features=1152, out_features=128, bias=True)
    (1): ReLU()
    (2): Linear(in_features=128, out_features=128, bias=True)
    (3): ReLU()
    (4): Linear(in_features=128, out_features=5, bias=True)
  )
)
WARNING: GIF is enabled but the environment does not support RGB array rendering.
INFO: Learning...
INFO: Number of parameters: 174309
INFO: QNetwork(
  (conv_feature): Sequential(
    (0): Conv2d(1, 32, kernel_size=(3, 3), stride=(1, 1))
    (1): ReLU()
    (2): Conv2d(32, 32, kernel_size=(3, 3), stride=(1, 1))
    (3): ReLU()
  )
  (fc_feature): Sequential(
    (0): Linear(in_features=1152, out_features=128, bias=True)
    (1): ReLU()
    (2): Linear(in_features=128, out_features=128, bias=True)
    (3): ReLU()
    (4): Linear(in_features=128, out_features=5, bias=True)
  )
)
WARNING: GIF is enabled but the environment does not support RGB array rendering.
INFO: Learning...
INFO: Number of parameters: 174309
INFO: QNetwork(
  (conv_feature): Sequential(
    (0): Conv2d(1, 32, kernel_size=(3, 3), stride=(1, 1))
    (1): ReLU()
    (2): Conv2d(32, 32, kernel_size=(3, 3), stride=(1, 1))
    (3): ReLU()
  )
  (fc_feature): Sequential(
    (0): Linear(in_features=1152, out_features=128, bias=True)
    (1): ReLU()
    (2): Linear(in_features=128, out_features=128, bias=True)
    (3): ReLU()
    (4): Linear(in_features=128, out_features=5, bias=True)
  )
)
INFO: Learning...
INFO: Number of parameters: 174309
INFO: QNetwork(
  (conv_feature): Sequential(
    (0): Conv2d(1, 32, kernel_size=(3, 3), stride=(1, 1))
    (1): ReLU()
    (2): Conv2d(32, 32, kernel_size=(3, 3), stride=(1, 1))
    (3): ReLU()
  )
  (fc_feature): Sequential(
    (0): Linear(in_features=1152, out_features=128, bias=True)
    (1): ReLU()
    (2): Linear(in_features=128, out_features=128, bias=True)
    (3): ReLU()
    (4): Linear(in_features=128, out_features=5, bias=True)
  )
)
INFO: Learning...
INFO: Number of parameters: 174309
INFO: QNetwork(
  (conv_feature): Sequential(
    (0): Conv2d(1, 32, kernel_size=(3, 3), stride=(1, 1))
    (1): ReLU()
    (2): Conv2d(32, 32, kernel_size=(3, 3), stride=(1, 1))
    (3): ReLU()
  )
  (fc_feature): Sequential(
    (0): Linear(in_features=1152, out_features=128, bias=True)
    (1): ReLU()
    (2): Linear(in_features=128, out_features=128, bias=True)
    (3): ReLU()
    (4): Linear(in_features=128, out_features=5, bias=True)
  )
)
WARNING: GIF is enabled but the environment does not support RGB array rendering.
INFO: Learning...
INFO: Number of parameters: 174309
INFO: QNetwork(
  (conv_feature): Sequential(
    (0): Conv2d(1, 32, kernel_size=(3, 3), stride=(1, 1))
    (1): ReLU()
    (2): Conv2d(32, 32, kernel_size=(3, 3), stride=(1, 1))
    (3): ReLU()
  )
  (fc_feature): Sequential(
    (0): Linear(in_features=1152, out_features=128, bias=True)
    (1): ReLU()
    (2): Linear(in_features=128, out_features=128, bias=True)
    (3): ReLU()
    (4): Linear(in_features=128, out_features=5, bias=True)
  )
)
WARNING: GIF is enabled but the environment does not support RGB array rendering.
INFO: Learning...
INFO: Number of parameters: 174309
INFO: QNetwork(
  (conv_feature): Sequential(
    (0): Conv2d(1, 32, kernel_size=(3, 3), stride=(1, 1))
    (1): ReLU()
    (2): Conv2d(32, 32, kernel_size=(3, 3), stride=(1, 1))
    (3): ReLU()
  )
  (fc_feature): Sequential(
    (0): Linear(in_features=1152, out_features=128, bias=True)
    (1): ReLU()
    (2): Linear(in_features=128, out_features=128, bias=True)
    (3): ReLU()
    (4): Linear(in_features=128, out_features=5, bias=True)
  )
)
WARNING: GIF is enabled but the environment does not support RGB array rendering.
INFO: Learning...
INFO: Number of parameters: 174309
INFO: QNetwork(
  (conv_feature): Sequential(
    (0): Conv2d(1, 32, kernel_size=(3, 3), stride=(1, 1))
    (1): ReLU()
    (2): Conv2d(32, 32, kernel_size=(3, 3), stride=(1, 1))
    (3): ReLU()
  )
  (fc_feature): Sequential(
    (0): Linear(in_features=1152, out_features=128, bias=True)
    (1): ReLU()
    (2): Linear(in_features=128, out_features=128, bias=True)
    (3): ReLU()
    (4): Linear(in_features=128, out_features=5, bias=True)
  )
)
WARNING: GIF is enabled but the environment does not support RGB array rendering.
INFO: Learning...
INFO: Number of parameters: 174309
INFO: QNetwork(
  (conv_feature): Sequential(
    (0): Conv2d(1, 32, kernel_size=(3, 3), stride=(1, 1))
    (1): ReLU()
    (2): Conv2d(32, 32, kernel_size=(3, 3), stride=(1, 1))
    (3): ReLU()
  )
  (fc_feature): Sequential(
    (0): Linear(in_features=1152, out_features=128, bias=True)
    (1): ReLU()
    (2): Linear(in_features=128, out_features=128, bias=True)
    (3): ReLU()
    (4): Linear(in_features=128, out_features=5, bias=True)
  )
)
INFO: Number of parameters: 174309
INFO: QNetwork(
  (conv_feature): Sequential(
    (0): Conv2d(1, 32, kernel_size=(3, 3), stride=(1, 1))
    (1): ReLU()
    (2): Conv2d(32, 32, kernel_size=(3, 3), stride=(1, 1))
    (3): ReLU()
  )
  (fc_feature): Sequential(
    (0): Linear(in_features=1152, out_features=128, bias=True)
    (1): ReLU()
    (2): Linear(in_features=128, out_features=128, bias=True)
    (3): ReLU()
    (4): Linear(in_features=128, out_features=5, bias=True)
  )
)
INFO: Learning...
INFO: Number of parameters: 174309
INFO: QNetwork(
  (conv_feature): Sequential(
    (0): Conv2d(1, 32, kernel_size=(3, 3), stride=(1, 1))
    (1): ReLU()
    (2): Conv2d(32, 32, kernel_size=(3, 3), stride=(1, 1))
    (3): ReLU()
  )
  (fc_feature): Sequential(
    (0): Linear(in_features=1152, out_features=128, bias=True)
    (1): ReLU()
    (2): Linear(in_features=128, out_features=128, bias=True)
    (3): ReLU()
    (4): Linear(in_features=128, out_features=5, bias=True)
  )
)
INFO: Learning...
INFO: Number of parameters: 174309
INFO: QNetwork(
  (conv_feature): Sequential(
    (0): Conv2d(1, 32, kernel_size=(3, 3), stride=(1, 1))
    (1): ReLU()
    (2): Conv2d(32, 32, kernel_size=(3, 3), stride=(1, 1))
    (3): ReLU()
  )
  (fc_feature): Sequential(
    (0): Linear(in_features=1152, out_features=128, bias=True)
    (1): ReLU()
    (2): Linear(in_features=128, out_features=128, bias=True)
    (3): ReLU()
    (4): Linear(in_features=128, out_features=5, bias=True)
  )
)
INFO: Learning...
INFO: Number of parameters: 174309
INFO: QNetwork(
  (conv_feature): Sequential(
    (0): Conv2d(1, 32, kernel_size=(3, 3), stride=(1, 1))
    (1): ReLU()
    (2): Conv2d(32, 32, kernel_size=(3, 3), stride=(1, 1))
    (3): ReLU()
  )
  (fc_feature): Sequential(
    (0): Linear(in_features=1152, out_features=128, bias=True)
    (1): ReLU()
    (2): Linear(in_features=128, out_features=128, bias=True)
    (3): ReLU()
    (4): Linear(in_features=128, out_features=5, bias=True)
  )
)
WARNING: GIF is enabled but the environment does not support RGB array rendering.
INFO: Learning...
INFO: Number of parameters: 174309
INFO: QNetwork(
  (conv_feature): Sequential(
    (0): Conv2d(1, 32, kernel_size=(3, 3), stride=(1, 1))
    (1): ReLU()
    (2): Conv2d(32, 32, kernel_size=(3, 3), stride=(1, 1))
    (3): ReLU()
  )
  (fc_feature): Sequential(
    (0): Linear(in_features=1152, out_features=128, bias=True)
    (1): ReLU()
    (2): Linear(in_features=128, out_features=128, bias=True)
    (3): ReLU()
    (4): Linear(in_features=128, out_features=5, bias=True)
  )
)
WARNING: GIF is enabled but the environment does not support RGB array rendering.
INFO: Learning...
INFO: Number of parameters: 174309
INFO: QNetwork(
  (conv_feature): Sequential(
    (0): Conv2d(1, 32, kernel_size=(3, 3), stride=(1, 1))
    (1): ReLU()
    (2): Conv2d(32, 32, kernel_size=(3, 3), stride=(1, 1))
    (3): ReLU()
  )
  (fc_feature): Sequential(
    (0): Linear(in_features=1152, out_features=128, bias=True)
    (1): ReLU()
    (2): Linear(in_features=128, out_features=128, bias=True)
    (3): ReLU()
    (4): Linear(in_features=128, out_features=5, bias=True)
  )
)
WARNING: GIF is enabled but the environment does not support RGB array rendering.
INFO: Learning...
WARNING: No frames in gif to save.
WARNING: No frames in gif to save.
INFO: Number of parameters: 174309
INFO: QNetwork(
  (conv_feature): Sequential(
    (0): Conv2d(1, 32, kernel_size=(3, 3), stride=(1, 1))
    (1): ReLU()
    (2): Conv2d(32, 32, kernel_size=(3, 3), stride=(1, 1))
    (3): ReLU()
  )
  (fc_feature): Sequential(
    (0): Linear(in_features=1152, out_features=128, bias=True)
    (1): ReLU()
    (2): Linear(in_features=128, out_features=128, bias=True)
    (3): ReLU()
    (4): Linear(in_features=128, out_features=5, bias=True)
  )
)
WARNING: GIF is enabled but the environment does not support RGB array rendering.
INFO: Learning...
INFO: Number of parameters: 174309
INFO: QNetwork(
  (conv_feature): Sequential(
    (0): Conv2d(1, 32, kernel_size=(3, 3), stride=(1, 1))
    (1): ReLU()
    (2): Conv2d(32, 32, kernel_size=(3, 3), stride=(1, 1))
    (3): ReLU()
  )
  (fc_feature): Sequential(
    (0): Linear(in_features=1152, out_features=128, bias=True)
    (1): ReLU()
    (2): Linear(in_features=128, out_features=128, bias=True)
    (3): ReLU()
    (4): Linear(in_features=128, out_features=5, bias=True)
  )
)
WARNING: GIF is enabled but the environment does not support RGB array rendering.
INFO: Learning...
INFO: Number of parameters: 174309
INFO: QNetwork(
  (conv_feature): Sequential(
    (0): Conv2d(1, 32, kernel_size=(3, 3), stride=(1, 1))
    (1): ReLU()
    (2): Conv2d(32, 32, kernel_size=(3, 3), stride=(1, 1))
    (3): ReLU()
  )
  (fc_feature): Sequential(
    (0): Linear(in_features=1152, out_features=128, bias=True)
    (1): ReLU()
    (2): Linear(in_features=128, out_features=128, bias=True)
    (3): ReLU()
    (4): Linear(in_features=128, out_features=5, bias=True)
  )
)
WARNING: GIF is enabled but the environment does not support RGB array rendering.
INFO: Learning...
WARNING: No frames in gif to save.
WARNING: No frames in gif to save.
INFO: Number of parameters: 174309
INFO: QNetwork(
  (conv_feature): Sequential(
    (0): Conv2d(1, 32, kernel_size=(3, 3), stride=(1, 1))
    (1): ReLU()
    (2): Conv2d(32, 32, kernel_size=(3, 3), stride=(1, 1))
    (3): ReLU()
  )
  (fc_feature): Sequential(
    (0): Linear(in_features=1152, out_features=128, bias=True)
    (1): ReLU()
    (2): Linear(in_features=128, out_features=128, bias=True)
    (3): ReLU()
    (4): Linear(in_features=128, out_features=5, bias=True)
  )
)
WARNING: GIF is enabled but the environment does not support RGB array rendering.
INFO: Learning...
ERROR: 'TagRenderer' object has no attribute '_seeker_sprite'
ERROR: Traceback (most recent call last):
  File "/home/eirik/Projects/XAI/rl/src/dqn/wrapper/multi_agent_dqn.py", line 108, in learn
    self._collect_rollouts()
  File "/home/eirik/Projects/XAI/rl/src/dqn/wrapper/multi_agent_dqn.py", line 206, in _collect_rollouts
…
           ^^^^^^^^^^^^^^^^^^^^^^^^^^^^^^^^^^^^^^^^^^^^^^^^^^^^^^
  File "/home/eirik/Projects/XAI/environments/gymnasium/envs/tag/tag_renderer.py", line 91, in render
    self.apply_color_masks(color_matrix, state)
  File "/home/eirik/Projects/XAI/environments/gymnasium/envs/tag/tag_renderer.py", line 128, in apply_color_masks
    if self._seeker_sprite is not None or self._hider_sprite is not None:
       ^^^^^^^^^^^^^^^^^^^
AttributeError: 'TagRenderer' object has no attribute '_seeker_sprite'

WARNING: Error: Could not find wandb directory: ./wandb
INFO: Number of parameters: 174309
INFO: QNetwork(
  (conv_feature): Sequential(
    (0): Conv2d(1, 32, kernel_size=(3, 3), stride=(1, 1))
    (1): ReLU()
    (2): Conv2d(32, 32, kernel_size=(3, 3), stride=(1, 1))
    (3): ReLU()
  )
  (fc_feature): Sequential(
    (0): Linear(in_features=1152, out_features=128, bias=True)
    (1): ReLU()
    (2): Linear(in_features=128, out_features=128, bias=True)
    (3): ReLU()
    (4): Linear(in_features=128, out_features=5, bias=True)
  )
)
WARNING: GIF is enabled but the environment does not support RGB array rendering.
INFO: Learning...
ERROR: 'TagRenderer' object has no attribute '_seeker_sprite'
ERROR: Traceback (most recent call last):
  File "/home/eirik/Projects/XAI/rl/src/dqn/wrapper/multi_agent_dqn.py", line 108, in learn
    self._collect_rollouts()
  File "/home/eirik/Projects/XAI/rl/src/dqn/wrapper/multi_agent_dqn.py", line 206, in _collect_rollouts
…
  File "/home/eirik/Projects/XAI/environments/gymnasium/envs/tag/tag_renderer.py", line 86, in render
    self.apply_color_masks(color_matrix, state)
  File "/home/eirik/Projects/XAI/environments/gymnasium/envs/tag/tag_renderer.py", line 123, in apply_color_masks
    color_matrix[full_state == TileType.SEEKER.value] = self._seeker_sprite
    ~~~~~~~~~~~~^^^^^^^^^^^^^^^^^^^^^^^^^^^^^^^^^^^^^
TypeError: int() argument must be a string, a bytes-like object or a real number, not 'pygame.surface.Surface'

WARNING: Error: Could not find wandb directory: ./wandb
INFO: Number of parameters: 174309
INFO: QNetwork(
  (conv_feature): Sequential(
    (0): Conv2d(1, 32, kernel_size=(3, 3), stride=(1, 1))
    (1): ReLU()
    (2): Conv2d(32, 32, kernel_size=(3, 3), stride=(1, 1))
    (3): ReLU()
  )
  (fc_feature): Sequential(
    (0): Linear(in_features=1152, out_features=128, bias=True)
    (1): ReLU()
    (2): Linear(in_features=128, out_features=128, bias=True)
    (3): ReLU()
    (4): Linear(in_features=128, out_features=5, bias=True)
  )
)
WARNING: GIF is enabled but the environment does not support RGB array rendering.
INFO: Learning...
INFO: Number of parameters: 174309
INFO: QNetwork(
  (conv_feature): Sequential(
    (0): Conv2d(1, 32, kernel_size=(3, 3), stride=(1, 1))
    (1): ReLU()
    (2): Conv2d(32, 32, kernel_size=(3, 3), stride=(1, 1))
    (3): ReLU()
  )
  (fc_feature): Sequential(
    (0): Linear(in_features=1152, out_features=128, bias=True)
    (1): ReLU()
    (2): Linear(in_features=128, out_features=128, bias=True)
    (3): ReLU()
    (4): Linear(in_features=128, out_features=5, bias=True)
  )
)
WARNING: GIF is enabled but the environment does not support RGB array rendering.
INFO: Learning...
INFO: Number of parameters: 174309
INFO: QNetwork(
  (conv_feature): Sequential(
    (0): Conv2d(1, 32, kernel_size=(3, 3), stride=(1, 1))
    (1): ReLU()
    (2): Conv2d(32, 32, kernel_size=(3, 3), stride=(1, 1))
    (3): ReLU()
  )
  (fc_feature): Sequential(
    (0): Linear(in_features=1152, out_features=128, bias=True)
    (1): ReLU()
    (2): Linear(in_features=128, out_features=128, bias=True)
    (3): ReLU()
    (4): Linear(in_features=128, out_features=5, bias=True)
  )
)
WARNING: GIF is enabled but the environment does not support RGB array rendering.
INFO: Learning...
INFO: Number of parameters: 174309
INFO: QNetwork(
  (conv_feature): Sequential(
    (0): Conv2d(1, 32, kernel_size=(3, 3), stride=(1, 1))
    (1): ReLU()
    (2): Conv2d(32, 32, kernel_size=(3, 3), stride=(1, 1))
    (3): ReLU()
  )
  (fc_feature): Sequential(
    (0): Linear(in_features=1152, out_features=128, bias=True)
    (1): ReLU()
    (2): Linear(in_features=128, out_features=128, bias=True)
    (3): ReLU()
    (4): Linear(in_features=128, out_features=5, bias=True)
  )
)
WARNING: GIF is enabled but the environment does not support RGB array rendering.
INFO: Learning...
INFO: Number of parameters: 174309
INFO: QNetwork(
  (conv_feature): Sequential(
    (0): Conv2d(1, 32, kernel_size=(3, 3), stride=(1, 1))
    (1): ReLU()
    (2): Conv2d(32, 32, kernel_size=(3, 3), stride=(1, 1))
    (3): ReLU()
  )
  (fc_feature): Sequential(
    (0): Linear(in_features=1152, out_features=128, bias=True)
    (1): ReLU()
    (2): Linear(in_features=128, out_features=128, bias=True)
    (3): ReLU()
    (4): Linear(in_features=128, out_features=5, bias=True)
  )
)
WARNING: GIF is enabled but the environment does not support RGB array rendering.
INFO: Learning...
INFO: Number of parameters: 174309
INFO: QNetwork(
  (conv_feature): Sequential(
    (0): Conv2d(1, 32, kernel_size=(3, 3), stride=(1, 1))
    (1): ReLU()
    (2): Conv2d(32, 32, kernel_size=(3, 3), stride=(1, 1))
    (3): ReLU()
  )
  (fc_feature): Sequential(
    (0): Linear(in_features=1152, out_features=128, bias=True)
    (1): ReLU()
    (2): Linear(in_features=128, out_features=128, bias=True)
    (3): ReLU()
    (4): Linear(in_features=128, out_features=5, bias=True)
  )
)
WARNING: GIF is enabled but the environment does not support RGB array rendering.
INFO: Learning...
INFO: Number of parameters: 174309
INFO: QNetwork(
  (conv_feature): Sequential(
    (0): Conv2d(1, 32, kernel_size=(3, 3), stride=(1, 1))
    (1): ReLU()
    (2): Conv2d(32, 32, kernel_size=(3, 3), stride=(1, 1))
    (3): ReLU()
  )
  (fc_feature): Sequential(
    (0): Linear(in_features=1152, out_features=128, bias=True)
    (1): ReLU()
    (2): Linear(in_features=128, out_features=128, bias=True)
    (3): ReLU()
    (4): Linear(in_features=128, out_features=5, bias=True)
  )
)
WARNING: GIF is enabled but the environment does not support RGB array rendering.
INFO: Learning...
ERROR: No video mode has been set
ERROR: Traceback (most recent call last):
  File "/home/eirik/Projects/XAI/rl/src/dqn/wrapper/multi_agent_dqn.py", line 108, in learn
    self._collect_rollouts()
  File "/home/eirik/Projects/XAI/rl/src/dqn/wrapper/multi_agent_dqn.py", line 206, in _collect_rollouts
…
           ^^^^^^^^^^^^^^^^^^^^^^^^^^^^^^^^^^^^^^^^^^^^^^^^^^^^^^
  File "/home/eirik/Projects/XAI/environments/gymnasium/envs/tag/tag_renderer.py", line 105, in render
    surf = self._apply_sprites(surf, state)
           ^^^^^^^^^^^^^^^^^^^^^^^^^^^^^^^^
  File "/home/eirik/Projects/XAI/environments/gymnasium/envs/tag/tag_renderer.py", line 127, in _apply_sprites
    self._seeker_sprite.convert_alpha(),
    ^^^^^^^^^^^^^^^^^^^^^^^^^^^^^^^^^^^
pygame.error: No video mode has been set

WARNING: Error: Could not find wandb directory: ./wandb
INFO: Number of parameters: 174309
INFO: QNetwork(
  (conv_feature): Sequential(
    (0): Conv2d(1, 32, kernel_size=(3, 3), stride=(1, 1))
    (1): ReLU()
    (2): Conv2d(32, 32, kernel_size=(3, 3), stride=(1, 1))
    (3): ReLU()
  )
  (fc_feature): Sequential(
    (0): Linear(in_features=1152, out_features=128, bias=True)
    (1): ReLU()
    (2): Linear(in_features=128, out_features=128, bias=True)
    (3): ReLU()
    (4): Linear(in_features=128, out_features=5, bias=True)
  )
)
WARNING: GIF is enabled but the environment does not support RGB array rendering.
INFO: Learning...
INFO: Number of parameters: 174309
INFO: QNetwork(
  (conv_feature): Sequential(
    (0): Conv2d(1, 32, kernel_size=(3, 3), stride=(1, 1))
    (1): ReLU()
    (2): Conv2d(32, 32, kernel_size=(3, 3), stride=(1, 1))
    (3): ReLU()
  )
  (fc_feature): Sequential(
    (0): Linear(in_features=1152, out_features=128, bias=True)
    (1): ReLU()
    (2): Linear(in_features=128, out_features=128, bias=True)
    (3): ReLU()
    (4): Linear(in_features=128, out_features=5, bias=True)
  )
)
WARNING: GIF is enabled but the environment does not support RGB array rendering.
INFO: Learning...
ERROR: No video mode has been set
ERROR: Traceback (most recent call last):
  File "/home/eirik/Projects/XAI/rl/src/dqn/wrapper/multi_agent_dqn.py", line 108, in learn
    self._collect_rollouts()
  File "/home/eirik/Projects/XAI/rl/src/dqn/wrapper/multi_agent_dqn.py", line 206, in _collect_rollouts
…
           ^^^^^^^^^^^^^^^^^^^^^^^^^^^^^^^^^^^^^^^^^^^^^^^^^^^^^^
  File "/home/eirik/Projects/XAI/environments/gymnasium/envs/tag/tag_renderer.py", line 105, in render
    surf = self._apply_sprites(surf, state)
           ^^^^^^^^^^^^^^^^^^^^^^^^^^^^^^^^
  File "/home/eirik/Projects/XAI/environments/gymnasium/envs/tag/tag_renderer.py", line 126, in _apply_sprites
    self._seeker_sprite.convert_alpha(),
    ^^^^^^^^^^^^^^^^^^^^^^^^^^^^^^^^^^^
pygame.error: No video mode has been set

WARNING: Error: Could not find wandb directory: ./wandb
INFO: Number of parameters: 174309
INFO: QNetwork(
  (conv_feature): Sequential(
    (0): Conv2d(1, 32, kernel_size=(3, 3), stride=(1, 1))
    (1): ReLU()
    (2): Conv2d(32, 32, kernel_size=(3, 3), stride=(1, 1))
    (3): ReLU()
  )
  (fc_feature): Sequential(
    (0): Linear(in_features=1152, out_features=128, bias=True)
    (1): ReLU()
    (2): Linear(in_features=128, out_features=128, bias=True)
    (3): ReLU()
    (4): Linear(in_features=128, out_features=5, bias=True)
  )
)
WARNING: GIF is enabled but the environment does not support RGB array rendering.
INFO: Learning...
INFO: Number of parameters: 174309
INFO: QNetwork(
  (conv_feature): Sequential(
    (0): Conv2d(1, 32, kernel_size=(3, 3), stride=(1, 1))
    (1): ReLU()
    (2): Conv2d(32, 32, kernel_size=(3, 3), stride=(1, 1))
    (3): ReLU()
  )
  (fc_feature): Sequential(
    (0): Linear(in_features=1152, out_features=128, bias=True)
    (1): ReLU()
    (2): Linear(in_features=128, out_features=128, bias=True)
    (3): ReLU()
    (4): Linear(in_features=128, out_features=5, bias=True)
  )
)
WARNING: GIF is enabled but the environment does not support RGB array rendering.
INFO: Learning...
INFO: Number of parameters: 174309
INFO: QNetwork(
  (conv_feature): Sequential(
    (0): Conv2d(1, 32, kernel_size=(3, 3), stride=(1, 1))
    (1): ReLU()
    (2): Conv2d(32, 32, kernel_size=(3, 3), stride=(1, 1))
    (3): ReLU()
  )
  (fc_feature): Sequential(
    (0): Linear(in_features=1152, out_features=128, bias=True)
    (1): ReLU()
    (2): Linear(in_features=128, out_features=128, bias=True)
    (3): ReLU()
    (4): Linear(in_features=128, out_features=5, bias=True)
  )
)
WARNING: GIF is enabled but the environment does not support RGB array rendering.
INFO: Learning...
INFO: Number of parameters: 174309
INFO: QNetwork(
  (conv_feature): Sequential(
    (0): Conv2d(1, 32, kernel_size=(3, 3), stride=(1, 1))
    (1): ReLU()
    (2): Conv2d(32, 32, kernel_size=(3, 3), stride=(1, 1))
    (3): ReLU()
  )
  (fc_feature): Sequential(
    (0): Linear(in_features=1152, out_features=128, bias=True)
    (1): ReLU()
    (2): Linear(in_features=128, out_features=128, bias=True)
    (3): ReLU()
    (4): Linear(in_features=128, out_features=5, bias=True)
  )
)
WARNING: GIF is enabled but the environment does not support RGB array rendering.
INFO: Learning...
INFO: Number of parameters: 174309
INFO: QNetwork(
  (conv_feature): Sequential(
    (0): Conv2d(1, 32, kernel_size=(3, 3), stride=(1, 1))
    (1): ReLU()
    (2): Conv2d(32, 32, kernel_size=(3, 3), stride=(1, 1))
    (3): ReLU()
  )
  (fc_feature): Sequential(
    (0): Linear(in_features=1152, out_features=128, bias=True)
    (1): ReLU()
    (2): Linear(in_features=128, out_features=128, bias=True)
    (3): ReLU()
    (4): Linear(in_features=128, out_features=5, bias=True)
  )
)
WARNING: GIF is enabled but the environment does not support RGB array rendering.
INFO: Learning...
ERROR: 'TagRenderer' object has no attribute '_seeker_action'
ERROR: Traceback (most recent call last):
  File "/home/eirik/Projects/XAI/rl/src/dqn/wrapper/multi_agent_dqn.py", line 108, in learn
    self._collect_rollouts()
  File "/home/eirik/Projects/XAI/rl/src/dqn/wrapper/multi_agent_dqn.py", line 206, in _collect_rollouts
…
  File "/home/eirik/Projects/XAI/environments/gymnasium/envs/tag/tag_renderer.py", line 106, in render
    surf = self._apply_sprites(surf, state)
           ^^^^^^^^^^^^^^^^^^^^^^^^^^^^^^^^
  File "/home/eirik/Projects/XAI/environments/gymnasium/envs/tag/tag_renderer.py", line 126, in _apply_sprites
    sprite = self._transform_sprite(self._seeker_sprite, self._seeker_action)
                                                         ^^^^^^^^^^^^^^^^^^^
AttributeError: 'TagRenderer' object has no attribute '_seeker_action'

WARNING: Error: Could not find wandb directory: ./wandb
INFO: Number of parameters: 174309
INFO: QNetwork(
  (conv_feature): Sequential(
    (0): Conv2d(1, 32, kernel_size=(3, 3), stride=(1, 1))
    (1): ReLU()
    (2): Conv2d(32, 32, kernel_size=(3, 3), stride=(1, 1))
    (3): ReLU()
  )
  (fc_feature): Sequential(
    (0): Linear(in_features=1152, out_features=128, bias=True)
    (1): ReLU()
    (2): Linear(in_features=128, out_features=128, bias=True)
    (3): ReLU()
    (4): Linear(in_features=128, out_features=5, bias=True)
  )
)
WARNING: GIF is enabled but the environment does not support RGB array rendering.
INFO: Learning...
INFO: Number of parameters: 174309
INFO: QNetwork(
  (conv_feature): Sequential(
    (0): Conv2d(1, 32, kernel_size=(3, 3), stride=(1, 1))
    (1): ReLU()
    (2): Conv2d(32, 32, kernel_size=(3, 3), stride=(1, 1))
    (3): ReLU()
  )
  (fc_feature): Sequential(
    (0): Linear(in_features=1152, out_features=128, bias=True)
    (1): ReLU()
    (2): Linear(in_features=128, out_features=128, bias=True)
    (3): ReLU()
    (4): Linear(in_features=128, out_features=5, bias=True)
  )
)
WARNING: GIF is enabled but the environment does not support RGB array rendering.
INFO: Learning...
INFO: Number of parameters: 174309
INFO: QNetwork(
  (conv_feature): Sequential(
    (0): Conv2d(1, 32, kernel_size=(3, 3), stride=(1, 1))
    (1): ReLU()
    (2): Conv2d(32, 32, kernel_size=(3, 3), stride=(1, 1))
    (3): ReLU()
  )
  (fc_feature): Sequential(
    (0): Linear(in_features=1152, out_features=128, bias=True)
    (1): ReLU()
    (2): Linear(in_features=128, out_features=128, bias=True)
    (3): ReLU()
    (4): Linear(in_features=128, out_features=5, bias=True)
  )
)
WARNING: GIF is enabled but the environment does not support RGB array rendering.
INFO: Learning...
INFO: Number of parameters: 174309
INFO: QNetwork(
  (conv_feature): Sequential(
    (0): Conv2d(1, 32, kernel_size=(3, 3), stride=(1, 1))
    (1): ReLU()
    (2): Conv2d(32, 32, kernel_size=(3, 3), stride=(1, 1))
    (3): ReLU()
  )
  (fc_feature): Sequential(
    (0): Linear(in_features=1152, out_features=128, bias=True)
    (1): ReLU()
    (2): Linear(in_features=128, out_features=128, bias=True)
    (3): ReLU()
    (4): Linear(in_features=128, out_features=5, bias=True)
  )
)
WARNING: GIF is enabled but the environment does not support RGB array rendering.
INFO: Learning...
